MonocularDepthEstimation/savedmodels/Masks/64-4epochs/checkpoint-3.pt (torch_old, 510204 bytes, 74 tensors)

prep.DepthwiseConv2d.depthwise.weight f4 [3, 1, 3, 3]
00000000: 18a0 da3d d146 3b3d 4dec 44be b68d fabf
00000010: 183d ab3d 039f f83f b7ce 12c0 729b ab3e
00000020: 1ed2 f53f 8449 c13d 3c1d 523d 1754 1abe
00000030: 3700 f2bf 5772 273e 51ca e63f 8bb2 07c0
00000040: 257b a83e 4d46 de3f 1398 6a3e 69d3 d23d
00000050: 061e adbe 97ca 18c0 8bac 10bd 4c68 1f40
00000060: 1d92 25c0 f799 1c3f 4b54 ef3f
0.10675067 0.045721833 -0.19230767 -1.9574497 0.08361262 1.9423527 -2.2938669 0.33517033
1.9204748 0.0943785 0.05129741 -0.1507114 -1.8906316 0.16352211 1.8030492 -2.1202724
0.32906452 1.7365204 0.22909574 0.102942295 -0.3381197 -2.387365 -0.0353208 2.4907408
-2.587043 0.6117243 1.8697599

prep.DepthwiseConv2d.pointwise.weight f4 [64, 3, 1, 1]
00000000: 9744 a4be 9ef4 89be 66c3 d9be 2614 e4be
00000010: 98a9 e7bc 5223 61be 433e b2be 0a0a 76be
00000020: 8cf8 d43d 40cd 843d e970 223e fc0c 023f
00000030: 5c3f 533f 2f5d 97bf 9a48 0cbf ffa5 093e
00000040: 5729 0dbd 0b42 533f f34e 04be 55fb 0abe
00000050: b638 aa3e 16d1 56bd ec14 3c3d bf58 0cbd
00000060: afdf b23e 1730 8abe af4f b93d 0b45 8d3e
00000070: 45f8 6d3d fd41 b33d fc39 553e 50aa 5d3d
00000080: e364 44be 8b8f ee3e ad1e b93e 2aec 33be
00000090: fc54 543e ff4e 893e 962f 943e d2af 10bf
000000a0: 8015 e23e 253f 693f 4857 c43d c833 b7bd
000000b0: c43c 343f c3b3 fdbc ee49 a33e d181 44be
000000c0: c54b 0fbf 4cda 3e3f 3ac8 cebe c2a4 6fbd
000000d0: 2549 3a3e a0f3 e8ba 51b3 fe3e 8293 953e
000000e0: 8851 97bf 81fb 54bf c0c0 4b3f e801 a93e
000000f0: b609 b03e 292f 07bf 2e8b 433f c215 24be
00000100: a6c0 7a3e 2b02 22be e620 a3be 68a2 b4bd
00000110: b2e1 36bf 6f0c 17be fcbc 9dbe e0b0 90bd
00000120: 9025 a03e 7997 b93c ae04 e73d 7bcd 643f
00000130: 18fb aebf 85d6 fd3e 2901 bc3d 25f3 4e3e
00000140: 9148 ef3e cf94 2ebe f4b3 c53e c071 733e
00000150: e5d4 52be 1824 a5be 2a85 a5be f7dc bb3a
00000160: 8262 38bd fdb7 733e 95e6 a03d 1c72 34be
00000170: c679 c5bd ace8 953e 4c00 7dbe 8ba6 57be
00000180: cf27 fd3d 5364 3ebf 3c13 2bbe cbf9 92bf
00000190: b445 2dbf 512c 7f3e 85da 8fbe 7cdb b1bd
000001a0: 097b 8e3f 4686 16be 72d0 b73d 85d2 c9be
000001b0: 090e 1f3e 78b0 30bc edcb a5bf 411f 7a3e
000001c0: 8b04 5fbd ffdc 6bbd 54ff 90bc f449 9b3f
000001d0: 6970 58be d520 2c3f d948 6e3f 55b0 8fbf
000001e0: 00fe c1bd 18ba b2be c148 83be 9d3b 043e
000001f0: 9ae4 38bf f9a3 f73e c9eb b0be 8e5a 383d
00000200: ffcc e9be d25c 703f cd59 2d3d 7f47 6bbf
00000210: e927 acbf 23d3 ca3d 5451 a63f 5aaf d33c
00000220: caaf 733e 341c 2b3e 43f9 44be ca44 183e
00000230: 1a5a 383d b7da 233f 7e6b fc3e 6b83 093e
00000240: 9ce4 b5be 4520 3bbe abef 1c3e e122 cc3d
00000250: 23b9 06be 558b 1abf 3c33 143d a15e 36be
00000260: 63e3 8d3d 8ce9 ec3e d312 783e 2df5 c03e
00000270: 1b14 763e 439d 493e 9ce0 123f bd5e 64bf
00000280: d597 183f 9a45 e9be bb1f 373e c2b6 c23e
00000290: b409 9b3e 06b0 363e 67f2 bebe 87e6 a13d
000002a0: 8e2a ef3e c262 923e ea49 f9bd c0c4 e73c
000002b0: 9d2a 163e 6dc8 6b3d 9677 0d3e 3c00 2cbe
000002c0: 637a 303e c09a ad3e cbd5 1dbc 8a3c d03e
000002d0: d660 50be af3e ef3d c170 b43d 1575 493f
000002e0: 4998 b73e 79ea b9be 0a88 f53e af98 bd3e
000002f0: 0e72 823f d5d3 1fbf 5cca d0be d671 183f
-0.3208358 -0.2694444 -0.4253189 -0.44546622 -0.02827911 -0.2198613 -0.34813127 -0.24027267
0.10398969 0.06484461 0.15863384 0.5080106 0.82518554 -1.1825312 -0.5479828 0.13442229
-0.034463253 0.8252265 -0.12920742 -0.13572438 0.33246392 -0.052445494 0.04591839 -0.034264322
0.34936282 -0.26989815 0.090484016 0.27591738 0.058098096 0.08752821 0.208229 0.0541175
-0.1917911 0.4659389 0.36156216 -0.17570558 0.20735544 0.26818082 0.28942555 -0.5651828
0.44157028 0.91111976 0.0958696 -0.08945423 0.7040522 -0.030969506 0.3189234 -0.19190146
-0.5597499 0.74551845 -0.40387136 -0.058506735 0.18191965 -0.0017772801 0.49746183 0.29214102
-1.1821756 -0.83196265 0.7959099 0.33009267 0.3438241 -0.52806336 0.76384246 -0.16023925
0.24487552 -0.1582114 -0.31861037 -0.08820039 -0.71438134 -0.14750837 -0.30808246 -0.07064986
0.31278658 0.022655236 0.112801895 0.8937604 -1.3670378 0.49577728 0.09179909 0.2020994
0.4673505 -0.17048953 0.38613856 0.23773861 -0.20589025 -0.322541 -0.3232816 0.001433282
-0.04501582 0.23800655 0.0785648 -0.17621654 -0.09642367 0.29279077 -0.24707144 -0.21059625
0.123611085 -0.7437183 -0.16706556 -1.1482481 -0.67684484 0.24919249 -0.28096405 -0.086844414
1.1131297 -0.14699659 0.08975305 -0.39418426 0.15532698 -0.010784261 -1.2952858 0.24425985
-0.054447692 -0.057583805 -0.017699875 1.2131944 -0.21136631 0.672376 0.93079907 -1.1225687
-0.09472275 -0.34907603 -0.25641444 0.12913366 -0.7222382 0.4836729 -0.3455489 0.045008235
-0.45664212 0.9389163 0.04232197 -0.9190597 -1.344968 0.099035524 1.2993569 0.02584045
0.23797527 0.16709977 -0.19235711 0.14869991 0.045007803 0.6400561 0.4930076 0.13429038
-0.35525978 -0.18274029 0.15325801 0.0996759 -0.13156562 -0.60368854 0.036181673 -0.17809536
0.06928136 0.46271932 0.24225931 0.37687054 0.24031107 0.19688897 0.57373977 -0.8920706
0.5960668 -0.45560914 0.17883198 0.38030058 0.3028084 0.17840585 -0.37294313 0.07905298
0.46712154 0.2859097 -0.12172301 0.02829206 0.14664693 0.057564188 0.1381515 -0.16796964
0.17234187 0.33907127 -0.009633492 0.40671188 -0.2034944 0.11681878 0.088105686 0.7869428
0.35858372 -0.363117 0.47955352 0.3703055 1.0191057 -0.62432605 -0.40779388 0.595487

prep.DepthwiseConv2d.pointwise.bias f4 [64]
00000000: bbf8 a23d 0790 483e d271 6a3e 1861 4d3e
00000010: 2897 ffbc 5bbd 75bd 551b 92bc 3630 e6bc
00000020: 8425 b739 ce5c ad3d 619a c33b ff1d b73d
00000030: 5187 d7bd 9f62 39bd 0423 8f3e be8e a8bd
00000040: bd82 a9bb 338b a7bd d645 adbd 51e3 74bb
00000050: 97ca ceba cd09 e8bb 5bf5 773c 64cd 2bbd
00000060: 4c6e 85bc 1f1a bb3b ea48 d23e 5a90 753c
00000070: c805 ed3d fae4 a1bc 7881 babc e0fa 85bb
00000080: 1cf5 1abd 8a31 3a3b 5931 f1bc 0650 91be
00000090: 9633 e6bd 9ad5 39be c17d 99bc 4e8e dfbc
000000a0: 8322 c63d 6750 a63b d481 cabc 225e babc
000000b0: 0d29 003d 3adb d13d 0fcc 773b 79c0 c03d
000000c0: 6dd2 273e 5aed 84bc 372b db3c f8f6 d13d
000000d0: 695b 9e3d a28f cabc f1b0 bcbd 99a0 003e
000000e0: 27ad 6f3e 641b ef3c cf90 f63d bc2b 003e
000000f0: 02f4 04bd da64 8ebd c568 b03c 96c1 d13c
0.07957598 0.19586192 0.22894982 0.2005657 -0.031200007 -0.059995037 -0.017835299 -0.02809916
0.0003493243 0.08464967 0.005969331 0.08941268 -0.105238564 -0.045260068 0.27956402 -0.08230351
-0.005173056 -0.08180847 -0.08460586 -0.0037366936 -0.0015776929 -0.0070812465 0.015134181 -0.041943923
-0.016287945 0.005709901 0.41071254 0.014988029 0.11573368 -0.019762505 -0.022766814 -0.0040887445
-0.03783141 0.0028410875 -0.029442476 -0.28381366 -0.11240308 -0.18147889 -0.018736722 -0.027289536
0.09674551 0.0050755027 -0.02472011 -0.022749964 0.03128915 0.10246892 0.0037810837 0.09411711
0.16388865 -0.01622646 0.026754005 0.10252184 0.07732279 -0.024726693 -0.092134364 0.12561263
0.23405896 0.029187866 0.12039339 0.12516683 -0.032459266 -0.0695283 0.021534333 0.025605004

cb1.DepthwiseConv2d.depthwise.weight f4 [64, 1, 3, 3]
00000000: eb39 8dbe ef38 babe 553c dd3d db76 c7bd
00000010: cde2 81be 94d1 0f3e ee82 11be 98b3 46bd
00000020: 156f 003e 63b5 043e 787b a6bc b5fa 8bbd
00000030: abdd 1a3e 52b1 52bc 7057 2c3b 98b8 c7be
00000040: b37d d4bd e145 503e 202d 28be 2739 733c
00000050: 695c 6a3d 7da8 83bd e1f1 6b3d a179 7f3d
00000060: 8442 92be 6e18 aa3e daf2 143e 2b75 893e
00000070: 9aa8 b0ba 956f bfbe 4684 00bd 07ee 0d3e
00000080: f543 cabd b84f 40be 64ef 8b3e d413 cd3d
00000090: 4645 06bf 4453 b1bd d8d5 d7be 7d2e d0be
000000a0: 6faa 85be fe40 19be 8cda 6bbd d8f3 b7bd
000000b0: b809 adbd 1b23 9b3d 41d7 6b3e f187 263e
000000c0: b057 1b3e 86f1 8c3e fe2e 33be a00b 9a3e
000000d0: 81ec af3e 12c0 513e f640 11be 7131 88bd
000000e0: 4d8a 453d a3e4 f8bd c4d6 2dbd 2b66 d0bd
000000f0: 599a 29be 1304 27bd fd4a ccbd 4fbb 683c
00000100: a5b7 9b3c f93b d13a fbce c33c 01f7 c93d
00000110: e8fe d73d b9ca e1bc d690 9abd 723d 93bc
00000120: 4033 093e 037b 393e f4e0 323e a9f0 2e3c
00000130: 64cb c63d 0750 ff3d f281 39bd 5b48 91bd
00000140: 0bd5 953d 7ff7 b9bd 7e1b 11be 0de3 bcbd
00000150: 5ce1 89bd 0698 01bd 84ae 583b c506 d3bd
00000160: 81e5 15be cb3c ee3d 1a24 943d d495 d8bd
00000170: 484c 4dbe 7be3 143d 2963 963d 5150 eabd
00000180: 3d0e 723d 353e 11bd c2f8 44bd 796b 2a3e
00000190: 6cb0 913e 8280 0f3e 624f 683e 9db4 ab3e
000001a0: b128 003d 4cef e3bd 1720 633d bbc3 20be
000001b0: 2900 7dbe 7f77 3bbe 3cc0 8a3d f7fa 02be
000001c0: 40a4 96bd b3a9 2bbe 51e3 8ebd e168 ccbc
000001d0: 9dfd 48be 7284 1bbf 9558 5d3e b1d4 be3d
000001e0: 7e69 e1be 76e0 4a3d 16ef 42be 5c1e 8fbe
000001f0: 241b babe 12c7 80be 664d e83c a99d 14be
00000200: 38a4 b9bd 0c18 4b3d 1659 07be 847b f8bd
00000210: 214e db3e 57d3 9fbd 09d4 093f 47bc 9bbd
00000220: 6d7e 403d 9843 2fbd efc1 b3bd 4041 1bbe
00000230: 55e6 0abe f1d5 bebd 77d9 43be ccd7 adbd
00000240: d1a5 183f 546a b23d 5b30 edbb d8c6 eb3e
00000250: 33b4 133e aad9 1439 fc10 923e 669b 2d3d
00000260: 699a 8bbd a04b 90bd f1b9 ae3d b4f7 663d
00000270: 8152 95bd 2598 4ebd f512 ae3c c0e4 2ebd
00000280: 87c6 e73c ea2e 413d c94b 61be 54d6 91be
00000290: c44f a4be 8173 afbe 34ea 01bf b351 bbbe
000002a0: e6c5 88be 2100 cebd 9ec7 98bd 37c5 a0be
000002b0: 15fa c1b9 9713 c7be 31b1 b7be a1c1 f0be
000002c0: 4682 9fbe 35d7 33bd 36c6 743d f7ce 60be
000002d0: aa97 b73d 58cd a63e d37f b23e 350b 57bb
000002e0: 0b4e 4cbd c991 a23e f860 573e 772a c83d
000002f0: 31fe 973d 2490 f03d d6a9 b03d 21bf ba3d
00000300: 9021 c53d a728 433d b4e4 0a3e f21d 933d
00000310: 41c6 aabd 5609 303e edf6 fe3d 7b48 313e
00000320: 418d c33e 13f2 503e a3b9 913e 57c5 133e
00000330: aded bebd 8ce6 83be bdbf a5be 1ced a63d
00000340: a617 233e 5437 31bd 4756 023e dd24 0b3e
00000350: a707 ea3c ee37 4abe c95d 4b3b d62e 41bd
00000360: 2bf8 eebc dc44 2ebd 740c df3d da17 a33d
00000370: 5b44 57be 8da1 90bc 2888 e83d d114 77bd
00000380: d1c0 7c3d 07fb cfbe 888f bfbd 263e febe
00000390: e211 d7be 4af4 cbbe 2c61 bbbe a581 10be
000003a0: e3b4 2b3e 7890 63be 6e09 053e abb8 8f3e
000003b0: ab16 adbe 488f d53d dd51 633e 9474 ecbd
000003c0: 4277 4a3e d1d1 1abe 0df8 adbe 0192 edbc
000003d0: c6aa 37be cbbf 91be 5952 9fbd f2ff 09be
000003e0: b320 06be b741 30be a614 993c 810a 5eba
000003f0: 0efa c0bd e0e3 713d 94b2 20bd 3c80 4f3e
-0.2758325 -0.36371562 0.10802523 -0.09739467 -0.25368348 0.14044791 -0.14210102 -0.048511118
0.12542374 0.12959819 -0.020322546 -0.06834928 0.15123622 -0.012859659 0.0026297234 -0.3900802
-0.10375538 0.20339157 -0.16423464 0.014845169 0.057217035 -0.06428621 0.05760372 0.062371854
-0.28566372 0.33221763 0.14545766 0.26847205 -0.0013477982 -0.37389818 -0.031376146 0.13860331
-0.09876243 -0.1878041 0.27331078 0.100135475 -0.5244945 -0.0865846 -0.42155337 -0.40660468
-0.26106593 -0.14966199 -0.05758147 -0.089820564 -0.08449119 0.07575055 0.23031332 0.16262795
0.15170169 0.27528018 -0.17498395 0.30086994 0.34360126 0.20483425 -0.14184937 -0.06650055
0.048227597 -0.12152984 -0.042441145 -0.10175737 -0.16562785 -0.04077537 -0.099752404 0.014204814
0.019008467 0.0015963308 0.023902407 0.098615654 0.105466664 -0.027562486 -0.075471565 -0.017973635
0.13398457 0.18113331 0.17468625 0.010677495 0.097067624 0.12466436 -0.04528994 -0.07093879
0.07316025 -0.09080409 -0.14170644 -0.09222994 -0.06732437 -0.03163912 0.0033063004 -0.103040256
-0.1463833 0.11632689 0.07233448 -0.105754524 -0.2004863 0.036349755 0.07343132 -0.114411004
0.05909561 -0.035459716 -0.048088796 0.1664256 0.28454912 0.14013866 0.22686532 0.33536234
0.031288806 -0.11129627 0.055450525 -0.15699665 -0.24707092 -0.18307303 0.06774947 -0.12791048
-0.07355547 -0.16763954 -0.06976951 -0.024952354 -0.19627996 -0.6074897 0.21615823 0.093179114
-0.44025797 0.04953047 -0.19036517 -0.2795285 -0.36348832 -0.2515188 0.028357219 -0.14513268
-0.09064525 0.04958348 -0.13217577 -0.12132934 0.42833045 -0.07803982 0.53839165 -0.076042704
0.04699557 -0.04278907 -0.08777224 -0.1516161 -0.13564427 -0.0931815 -0.19125925 -0.084884256
0.59628016 0.08711687 -0.0072384304 0.46050143 0.1442421 0.00014195466 0.28528583 0.042384528
-0.06816561 -0.07045674 0.08531559 0.05638857 -0.07291127 -0.050438065 0.021249274 -0.04269862
0.028292907 0.04716388 -0.22001566 -0.28483832 -0.32092106 -0.3426781 -0.5074799 -0.3658577
-0.26713485 -0.10058618 -0.07459949 -0.31400463 -0.00036998154 -0.38882133 -0.35877374 -0.47022727
-0.31154078 -0.04390641 0.05975934 -0.21953951 0.089644745 0.3257854 0.34863147 -0.0032813076
-0.049879115 0.3175185 0.21033084 0.097737245 0.0742153 0.11746243 0.08626144 0.09118486
0.09625542 0.04764619 0.13563806 0.07183446 -0.08338595 0.17191061 0.12449441 0.17312805
0.38193706 0.20404844 0.28461942 0.14430748 -0.09322677 -0.2576183 -0.32372847 0.08150694
0.1592699 -0.043265656 0.12728225 0.13588281 0.028568102 -0.19747898 0.0031031242 -0.047163807
-0.02917107 -0.04254614 0.10891047 0.07963534 -0.2102217 -0.017655158 0.11354095 -0.060322586
0.06170732 -0.40621206 -0.09353548 -0.4965679 -0.4200583 -0.39834815 -0.36597574 -0.14111955
0.16768222 -0.22223079 0.12991878 0.28070578 -0.33806357 0.10427719 0.22199197 -0.11545673
0.19772056 -0.15119101 -0.3397831 -0.029000284 -0.17936239 -0.2846664 -0.077793784 -0.13476542
-0.13098411 -0.17212568 0.018686604 -0.0008470193 -0.09422694 0.05905521 -0.039232805 0.20263761

cb1.DepthwiseConv2d.pointwise.weight f4 [128, 64, 1, 1]
00000000: 9df1 9ebd 22a7 52be 8083 143d 7190 193e
00000010: a893 23bd 5c82 d0bd a141 1cbd fd50 3b3d
00000020: eaf7 9bbd 9c1b 1e3e 31fd 24be 0e4d 4c3d
00000030: c368 d7bd 5543 35be 88c3 613e fd51 fe3c
00000040: 7844 693d 9a32 e83c 0deb ec3d 1777 6e3d
00000050: 0dfd 3bbd 283d 903e d6e5 853d 078d f93d
00000060: 4fc5 0b3d 7749 c2bd 1231 12be cafa 7b3d
00000070: 1849 c73d 63c2 4abe 3be7 94bd 9c80 34be
00000080: a95e ffba cc47 8abe fc87 aabd d636 003e
00000090: ee75 493e be34 0b3e 6732 003e 2213 6f3d
000000a0: 83dd 0e3d a1d6 b8bd b7a2 69bc ae4a 96bc
000000b0: 4a14 003e 4c9a 03be 4b98 353c 6818 fe3d
000000c0: c80d c5bd ab12 0e3d 893b 613d 600e 8c3e
000000d0: 6ac5 84bc 156e 023e 3a19 153d 9018 c13d
000000e0: c01a c23c 4e1b 253c 5e60 b63d 4ab5 203d
000000f0: 7f0a 9c3d 2f10 b83c a193 a1be 5566 773c
00000100: 48d2 a1bd 91db 05be 28cf edbd 7de4 a83d
00000110: c2b1 e53d b542 a73c b325 6f3e 498a 21be
00000120: 3420 423e 0758 15be 3d72 9bbe d201 99bd
00000130: e13e a7bd a885 b4bc 227c 693e dea9 f6bd
00000140: 924f e0bc 6f5a ccbd 198d 4e3d e395 9abd
00000150: ed91 083d f2c9 903c 8df2 1b3e 8eec 923d
00000160: 0443 0dbc 28c6 a23c 03ab 09be e290 bb3b
00000170: 7761 b83c 61f9 2b3e 2dde 31be 27b2 593d
00000180: e4af 0ebe fcb5 aa3e 5c4d 9e3d 19b9 103e
00000190: 06db 613e ad69 26be 8a0d 35bd b3b9 09be
000001a0: 33e6 833d a69d 953c bfea e33d 6632 29be
000001b0: 645f febc 56c0 5f3e 3ca8 293e 3a82 1b3d
000001c0: d6ef 043e 0d15 88bd c950 ebbd ee90 8c3c
000001d0: 37c8 7d3e f81e e23d 78e5 cdbd ead4 05bd
000001e0: 83a5 fa3d e041 0ebe 044f efbd 5a6f 50bd
000001f0: fc19 ddbc bba7 f33d d25a d7bd 79f0 39bd
00000200: 2a69 6d3e e5e4 463e 6796 49ba 6cfb 63be
00000210: 9c24 213e 3f84 7ebd 8c6b 633d 379f e0bb
00000220: 840e 19be e94e 7a3d 76fd af3d 4576 e6bd
00000230: 5ce0 51bd afb1 4cbd 7af3 b4bc e36a b23d
00000240: ade1 98bd 7091 063d 2187 6f3e 149d 203e
00000250: 2f2d c53d cd1c 053e 7f09 5e3d 5290 02be
00000260: aeea 723e 7a14 653e be46 283c 23ae 013e
00000270: 2755 963d e358 99bc cb1c f4bd dc0f 353e
00000280: 0f3d cabd bb82 a03e 8a37 e5bd 25cb 5ebe
00000290: bd61 8fbc 1a08 cabc a6ee 463e 54cd f5be
000002a0: bf81 3d3e 1bfc 2dbd aed4 823d 1b2b edbd
000002b0: 6629 2dbd 4333 aebd eba1 f3bd 03bc 883d
000002c0: 791d dbbc ec8e f3b9 7859 ccbd d307 0fbc
000002d0: 279b 153e 353a 51be 09e0 723d b33c 203e
000002e0: b6b6 283d df44 e5bc 1586 aa3d e2fe b2bc
000002f0: 11e9 f7bd d737 ccbc 5eca 51be f41c 32be
00000300: 6c0d 9f3e 3f85 cbbd 1c6a ca3c 6dcf ef3c
00000310: 8550 b33d 84b3 d23d 6fa3 b73d 9ffc 873d
00000320: ba33 a1bd d040 1a3e 8903 e0bd 6356 c5ba
00000330: a086 c43d 50d0 57be 22f9 e23d 7cf1 8a3d
00000340: 6feb 9ebe 2ad9 9cbe 1c02 91bd 701b ba3c
00000350: fa5b f9bc b2eb 4bbe ae64 3bbe ff11 30bd
00000360: d4f3 9b3c 7e5e a1bd 4a6c a2bd 7376 3d3d
00000370: 3620 98bd dc3d db3c b25b 803e ddf8 e33d
00000380: d243 d33c b601 df3d 8c21 6ebe dd23 443e
00000390: 0f92 f5bd a0de e63d 2258 5b3b 6d10 83be
000003a0: ca4d 42be 844c 84bd 6a7f 653e 88c5 213d
000003b0: 349e f43d 6403 563e 4daf 40bd 1f52 1e3d
000003c0: e871 07bc 2b0b 9bbd a953 1abd eccb 4c3c
000003d0: 5d81 83bd 16f0 91be 7810 47bd da77 32bd
000003e0: eb26 b1bb 405d 083d 60e4 ea3c 01fa e6bc
000003f0: 3468 c23d ef2c 4bbe 21a6 e53d b5ce 99bb
-0.07760928 -0.20571569 0.03625822 0.14996506 -0.039935738 -0.10181114 -0.038148526 0.045731533
-0.07615645 0.1544022 -0.1611221 0.049878173 -0.105180286 -0.17701466 0.22047246 0.031044954
0.056950063 0.028344441 0.1156827 0.05821904 -0.045895625 0.2817166 0.06537978 0.12185102
0.034123715 -0.094866686 -0.14276531 0.061518468 0.097307384 -0.19800715 -0.07270666 -0.17627186
-0.0019483167 -0.27007902 -0.08326718 0.12520918 0.19673893 0.13594338 0.12519227 0.058367856
0.03487922 -0.09025312 -0.014259986 -0.018346157 0.1250774 -0.12851828 0.011083673 0.12406999
-0.09621769 0.034685772 0.054988418 0.27354717 -0.016207416 0.12737305 0.03640101 0.09428513
0.023694396 0.010077311 0.08905099 0.03923539 0.076191895 0.022468654 -0.31557944 0.015100081
-0.07901436 -0.13072039 -0.116117775 0.08246706 0.11215545 0.02041755 0.23354225 -0.15775408
0.18957597 -0.14584361 -0.30360594 -0.0747105 -0.0816629 -0.022036389 0.22801259 -0.12044118
-0.027381692 -0.09978186 0.05042753 -0.0754812 0.03334229 0.01767442 0.15229245 0.071740255
-0.008621935 0.019869879 -0.13444142 0.0057240585 0.022507412 0.16794349 -0.1736991 0.053148415
-0.13934284 0.33341968 0.07729599 0.14133109 0.22056207 -0.1625125 -0.044202365 -0.13449745
0.064403914 0.01826365 0.11128759 -0.16523132 -0.031051345 0.21850714 0.16568083 0.03796599
0.12982115 -0.0664464 -0.11490018 0.017158952 0.24783407 0.11041063 -0.10053533 -0.032673754
0.122386 -0.13892317 -0.11684993 -0.050887443 -0.02698993 0.118972264 -0.105153695 -0.04539535
0.23184648 0.19423254 -0.0007689953 -0.22263879 0.15736622 -0.06213784 0.055522487 -0.0068549174
-0.14946944 0.06111041 0.08593266 -0.11253027 -0.051239356 -0.04997414 -0.022088755 0.08711793
-0.07464919 0.032853544 0.23391391 0.1568492 0.09627759 0.12999268 0.054208275 -0.12750366
0.23722336 0.22371092 0.0102707725 0.12664084 0.0734046 -0.018719142 -0.11919554 0.17681831
-0.09874927 0.3134974 -0.11192234 -0.21757181 -0.01750266 -0.024662066 0.19426975 -0.48008215
0.18506525 -0.042476755 0.06388222 -0.11580487 -0.04227581 -0.08505871 -0.11896118 0.066764854
-0.026747452 -0.00046455057 -0.09978002 -0.008729893 0.14609967 -0.2043236 0.059295688 0.15648155
0.04118987 -0.027986942 0.08326355 -0.021850053 -0.12105001 -0.02492897 -0.20487353 -0.17393857
0.31064928 -0.09937524 0.0247088 0.029273713 0.08755592 0.10288146 0.08966719 0.066399805
-0.07871194 0.15063787 -0.10938174 -0.0015055652 0.0959599 -0.21075559 0.110826746 0.06784341
-0.31038997 -0.30634433 -0.070804805 0.022718161 -0.030439366 -0.1991413 -0.18300125 -0.042985912
0.019037165 -0.07879351 -0.07930811 0.04625554 -0.07428019 0.026762895 0.25069958 0.11131451
0.025789175 0.10888998 -0.23254985 0.19154306 -0.11990749 0.11272931 0.003346928 -0.2559847
-0.18974987 -0.06459907 0.22411886 0.03949502 0.11944237 0.20899731 -0.04704218 0.038652536
-0.008266903 -0.075704895 -0.03767744 0.012499791 -0.064211585 -0.28503484 -0.04859969 -0.04357133
-0.0054062507 0.033292055 0.02867335 -0.028195383 0.094925314 -0.1984136 0.11213327 -0.004693831

cb1.DepthwiseConv2d.pointwise.bias f4 [128]
00000000: a413 adbe afdf 3fbd 72e0 433e 2980 69be
00000010: 3102 d5bd 3a89 25be 68d3 4f3e ef42 9e3e
00000020: ad36 98bd 64e0 6c3e 3ffe cf3b 6b42 0bbf
00000030: 6191 f0ba c812 033e 8b81 11bc d83d 5a3e
00000040: 8eaf 273d ab4c afbc 9c5e 033e 74dc c93d
00000050: 4b41 7fba b029 87bd 67ab dfbc 7505 d33d
00000060: da0c 2f3d c98e d83d 9127 023c ea8b cc3d
00000070: 3e02 50be 9029 653d 6ca0 0ebe ee12 003d
00000080: 0ee2 483e 088f 0abe 1124 fa3c 1970 7bbe
00000090: 873c 243d fb07 daba ef47 b8bd cc5a 433e
000000a0: 5231 be3d 4af5 e53c 2520 cd3e dd64 233e
000000b0: e917 6a3d d974 353f e9eb 97be ffc6 75bc
000000c0: 4c4c bdbc b455 513e 94ca cebd eef0 fe3b
000000d0: 93b0 81bc a7f8 e6bd 2b06 893e 7a98 873d
000000e0: d538 c8bd 7138 4e3d 36a4 b3bd 679f 983e
000000f0: 998d 47bd c554 abbc ba31 993d 67f3 643e
00000100: ba92 043e 1d7c 2cbe aa62 0d3e 8ea5 e63b
00000110: bae0 57be f3fc f8bd 750d b9bd d2e6 ebbb
00000120: e3ad 68be 48e5 14be 311a a33e 8054 98bd
00000130: 6b32 bdbc 592c 573d 0ea7 f03d 815c 143b
00000140: 0dcb e13e 2ca0 703d 3f5c b5bd 6cbd c6bc
00000150: a97b ba3e b418 80bd dc0c 073d 5dde d2be
00000160: b192 e33c 2c26 c53d 397d 433d 8385 cc3e
00000170: 5051 ed3c b44a 073f 2ef5 743e aff2 01be
00000180: 559a 2e3e 4fbb 04be d355 b93e 31f1 c43c
00000190: 7525 b8bd 3c03 f3bd 1ef4 863d d4ff c53d
000001a0: 788e e0bd a577 69bd e646 0bbe b648 3abe
000001b0: dbd2 b93d 6709 94bd ef5e debd 1fd3 eabd
000001c0: d1bc 25be 9ae8 74bb f113 41bc a99c 68bc
000001d0: 5c22 893e 7b15 2b3e f702 913d 934d a6bd
000001e0: 6ed5 153d 2bc7 cb3d 44bd 643c 1bc3 14be
000001f0: 069c 2b3e bb1a 343e 60c6 27bd a258 fd3c
-0.33804047 -0.04684418 0.19128588 -0.22802795 -0.104008086 -0.16165629 0.20295489 0.3091044
-0.074323036 0.23132473 0.006347447 -0.5439822 -0.0018353873 0.12800133 -0.008880983 0.21312654
0.040938906 -0.021398863 0.1282906 0.09856501 -0.00097372074 -0.06599748 -0.02730341 0.10303775
0.042736866 0.10574109 0.007944004 0.09987624 -0.20313355 0.05594784 -0.13928384 0.031268053
0.19617483 -0.13531125 0.030534776 -0.2455448 0.040096786 -0.0016634458 -0.08998095 0.19077605
0.09286751 0.028071065 0.40063587 0.15956445 0.05715171 0.7088142 -0.29672173 -0.015001058
-0.02310767 0.2044285 -0.100972325 0.007780186 -0.015831267 -0.112778954 0.26762518 0.066208795
-0.09776465 0.050346795 -0.08771555 0.29809114 -0.048719022 -0.020914445 0.07480188 0.22358476
0.12946597 -0.1684422 0.13807169 0.0070387786 -0.2108182 -0.12157621 -0.0903577 -0.007199147
-0.22722583 -0.14540589 0.3185592 -0.07437992 -0.02309533 0.052532528 0.11750613 0.0022638144
0.44100228 0.0587465 -0.08855485 -0.024260245 0.3642247 -0.06254712 0.032971248 -0.41185275
0.027779909 0.09626421 0.047726844 0.3994561 0.028969437 0.5284836 0.23921654 -0.12690233
0.1705106 -0.12962078 0.3619829 0.02404079 -0.08991519 -0.11865851 0.065895304 0.09667936
-0.10964674 -0.056998868 -0.13601264 -0.181918 0.090734206 -0.07228356 -0.10857951 -0.114660494
-0.16185309 -0.0037370087 -0.01178454 -0.014197507 0.26784027 0.16707413 0.070806436 -0.08120265
0.036580496 0.09950098 0.01396114 -0.14527552 0.16758737 0.17588322 -0.04096067 0.030926052

res1.0.conv1.depthwise.weight f4 [128, 1, 3, 3]
00000000: 4756 67bd 89f8 2fbd 7226 b43c 77c9 243d
00000010: 9771 61bc 45b0 5cbd e549 55bd 43a2 183d
00000020: 440f bb3c ba63 81bc ab4f 93bc 2196 c0bc
00000030: e794 c0bd 9f2d 0b3b 34bc aa3c 7b0f 2dbc
00000040: dd9e c33b 2905 4c3c 3b92 02bd 2cb1 1a3d
00000050: 4d5f e9bc a499 233c ee6f 053d 6b8a d5bc
00000060: da9e f73c c878 3b3a 5ebc d5bc cd16 c63c
00000070: fd18 293c 6102 ddbc 84c2 0abd 23ec 53bd
00000080: 935c d43c 2004 323d ebdd 05be b7b8 293d
00000090: aea6 8d3d b517 523b 7285 93bc 9141 37bd
000000a0: 6b9d e8bb 9235 6dbd a1b1 d13b 5a21 81bd
000000b0: 4f8f b6bc 5a15 9b3b acda e13b 4f80 1fba
000000c0: a469 5ebd fbf1 1d3d 024d 3c3d 1549 88ba
000000d0: ceda efbc 4531 bdbc 3c2d 5f3b 5d11 fcb9
000000e0: 5a82 383c 27b5 853d 4a4d 6cbd f176 8cbd
000000f0: a1be 523d 6be6 a03b 0f8a eabc 14fe 43bc
00000100: c18e 773c be82 80bb e26f a0ba 2455 9f3d
00000110: cd71 30bc 6c65 153d e50e 8d3c c4d5 a73d
00000120: 4b5b 1b3d 4735 9cbd b5d2 84bc 10d8 11bd
00000130: 66b2 d43c 9025 a73d e45b 7dbc 96cd 90bd
00000140: ad03 783d 02ad 293d 995c d5bc 2c7b 133d
00000150: af74 383d 5b47 33bd 1db5 92bd 258d 34bb
00000160: e6ba 9bbc 8e7c 3b3c 1629 43bc 7e1a c63c
00000170: 7c46 a9bc 1adb f33c 41a2 6c3d f8e2 adbd
00000180: a884 0f3d 4f97 403d 8dc7 d3bb 10e0 e33a
00000190: 6b6f 87ba 9ef8 0d3c 770f 6e3b 83d6 ffbc
000001a0: 81b7 083d 296e aa3c 971c 433c 7609 8dbc
000001b0: e16c d3bc 2dca aab8 ac79 853d f672 f5bc
000001c0: 532b b0bc 22ad 833d 39ef 183d 0926 98bd
000001d0: 1de2 d1bc f78e 8ebc efd9 61bd e8be 15bd
000001e0: 905a 5b3c 16cf 53bd 41b2 8dbc 13e2 a5bb
000001f0: d7b1 a73c 2ff7 14bd 8557 c93c b769 4a3d
00000200: ecb4 28bc 4247 bbbc 1156 1b3c ef28 1d3c
00000210: e458 eb3c 80b7 223d cc61 6f3d 757d 54bd
00000220: 925c 42bc d6ac fbbc 720f 44bc 108a d63c
00000230: dd67 2a3d 5e45 343d cb80 35bc a3c3 013d
00000240: 72fb 95ba 5984 b3bc ff70 573d 130e 8f3c
00000250: 2cef 2abc 90a4 a23c 1136 aebc ba3e 9abd
00000260: c5f0 193d 3a9d 2abb f3a8 393d 4ff4 f2bb
00000270: d0b1 ebbc 9304 013c a565 863d f91f 5cbd
00000280: 90e7 6b3b a040 4a3d 0574 29bb 55bb 09bd
00000290: c013 36bc b77d 823d f3f4 743b 874c 08bd
000002a0: 704a 4ebc db06 bcbc ddb2 03bd 1785 20bd
000002b0: 0b0c 0cbd d7e4 3dbc d9fd e33c 9245 cb3b
000002c0: a141 743c 56af 9d3b 0e39 babc b0aa d63c
000002d0: 16a1 e33c d883 42bc 2614 e23c 9ab3 fbbc
000002e0: a854 c8bc 47f9 9b3b 5290 e93c 8c41 0d3d
000002f0: 3155 3b3b 7f67 603d aa36 3cbd e3eb 113d
00000300: 468c c53d dadb ddbd c760 84bd 3bf5 adbc
00000310: 2363 88bc 2778 e33c cecd c4bc bffa bfbc
00000320: f93b 9dbc dcf4 01bd ea9d 153d 739d a23c
00000330: c868 65bd 9b8e 18bd eb8a 6b3d edd6 f2bd
00000340: 076c 7fbd b79d 293c 7fe7 9f3c de2b b3bc
00000350: d8a2 8c3b ff4c 98bc a759 bcbc 15e6 6bba
00000360: 3b61 493d d1a0 89bd 9728 073d 9df4 e93a
00000370: e50d 9f3d 3823 ae3c 3ab5 7cbc 605d 803c
00000380: c56c 04bd d8bc 62bc 4a05 483d 11c3 a93b
00000390: 4046 c2bc 41e7 2e3b 69f5 213d dffd 8a3d
000003a0: 6f8e 97bd 28a9 10bd 64fc 50bd e0d0 c9bd
000003b0: 185a 73bc 64c4 cebd ec71 4abc c55d cebd
000003c0: 867f 78ba 1907 673b 31db 4d3d bf0d 103d
000003d0: 2208 6fbc d7f3 cfbc ed9c fabb 3ccd a83c
000003e0: d73f 143d 93bb a9bc 93cc 123c e017 82bc
000003f0: 49c7 e53c 9a27 b4bd 58a5 3dbd 6389 ca3c
-0.056478765 -0.04296163 0.021990988 0.040231194 -0.013759992 -0.05387904 -0.052072424 0.03726412
0.022834428 -0.015794624 -0.017982325 -0.023509087 -0.09403401 0.002123691 0.020841695 -0.010562773
0.0059698657 0.012452402 -0.031877737 0.03776662 -0.028487826 0.009985361 0.032577448 -0.02606698
0.030227114 0.00071514817 -0.026090797 0.024180794 0.010320899 -0.026978673 -0.03387691 -0.05173887
0.02592305 0.043460965 -0.13072936 0.041435923 0.06916557 0.0032057588 -0.018007968 -0.044740263
-0.007098844 -0.057912417 0.006399349 -0.063051894 -0.022285132 0.00473277 0.006892523 -0.0006084488
-0.054299966 0.03856085 0.045971878 -0.0010397757 -0.029279139 -0.023094783 0.0034054061 -0.00048078122
0.011261547 0.06528693 -0.057690896 -0.06858624 0.05145133 0.0049102805 -0.028630285 -0.011962432
0.015109719 -0.0039218357 -0.0012240375 0.07779911 -0.01076932 0.036473677 0.017219016 0.081950694
0.03792886 -0.07627349 -0.016213754 -0.035606444 0.025963973 0.08161461 -0.015463803 -0.070704624
0.06055038 0.04142476 -0.02604513 0.036006138 0.045033153 -0.04376922 -0.07163451 -0.002754995
-0.019010019 0.01144327 -0.011911651 0.024182554 -0.020663492 0.029767562 0.057771925 -0.084905565
0.03503862 0.0470193 -0.0064629973 0.0017385501 -0.0010332888 0.008665232 0.0036325136 -0.031230217
0.033378128 0.020804482 0.011908672 -0.017216425 -0.025808753 -8.14389e-05 0.06517348 -0.029962044
-0.021505034 0.06429507 0.037337516 -0.0742913 -0.025620515 -0.017402155 -0.05513948 -0.036559016
0.013388291 -0.051711164 -0.017296912 -0.0050623505 0.020470543 -0.036368545 0.024577865 0.049417224
-0.010297041 -0.022861127 0.009480969 0.009592279 0.02872891 0.03972578 0.058442876 -0.051877458
-0.011862891 -0.030722063 -0.011966573 0.02618888 0.041602958 0.044011466 -0.01107807 0.031680714
-0.0011442734 -0.021913694 0.052597996 0.017462766 -0.010433 0.01985386 -0.021266015 -0.075314954
0.03758313 -0.0026033656 0.04532714 -0.0074143778 -0.028771311 0.007874626 0.06562356 -0.05374143
0.0035996176 0.049378037 -0.0025856507 -0.03362592 -0.011113107 0.063716345 0.0037377446 -0.033276107
-0.0125909895 -0.022952488 -0.032153 -0.039189424 -0.034191173 -0.011590204 0.027831005 0.006203362
0.014908225 0.0048121614 -0.022732284 0.026204437 0.027786773 -0.011872254 0.027597498 -0.03072529
-0.02445443 0.004759941 0.0285112 0.03448634 0.0028584714 0.0547862 -0.04595057 0.03562535
0.09645896 -0.10832949 -0.06463771 -0.021235099 -0.016648835 0.027767254 -0.024023917 -0.023434995
-0.019193636 -0.031727657 0.03652755 0.019850468 -0.05600813 -0.037245374 0.05750553 -0.118574
-0.062358882 0.010352544 0.019519566 -0.021871503 0.0042918734 -0.018591402 -0.022991968 -0.00089988235
0.04916499 -0.067201264 0.032997694 0.001784939 0.07766322 0.021257028 -0.015424067 0.015669525
-0.032330293 -0.013838969 0.04883317 0.0051807244 -0.023715138 0.002668813 0.039540682 0.06786703
-0.07400214 -0.03531757 -0.05102195 -0.09854293 -0.014853023 -0.10096052 -0.012356263 -0.10076479
-0.00094794517 0.0035252033 0.050257865 0.03516936 -0.014589341 -0.025384827 -0.0076481015 0.020605676
0.036193695 -0.020719325 0.008959907 -0.015880525 0.028049128 -0.08796616 -0.046300262 0.024723714

res1.0.conv1.pointwise.weight f4 [128, 128, 1, 1]
00000000: 0bf2 5e3e 5a1d 1dbe 97e1 25be e55d 483d
00000010: 342f 093e 9f8a bcbd dee6 33be 3d89 24bd
00000020: 9152 853c e97d 87bb 3ff5 573e 0bf9 6fbc
00000030: 38d3 083d 8f91 e2bd 868b 76bd 99c7 3dbe
00000040: d3c4 16bc 2e37 52bd 5265 113e 9910 96bd
00000050: f56a 6cbe eee1 8fbc a3d3 0b3d 8852 72be
00000060: 2ec2 43bd a8e2 bfbd 1e0d 9dbd ed7e ae3d
00000070: 74ac 64bd fc4d 773e 5d8b 2a3d e31c ccbd
00000080: d96d 18bd 17b3 b03d fbe9 03be 57de 89bd
00000090: ffe3 40be 29c2 8b3d 4ae8 bc3d b507 cebd
000000a0: c561 583e 71f8 993e fca7 873d 361b 13bc
000000b0: bf7c 83bc 6df7 9b3d c8fa 2fbe 7ea0 923d
000000c0: 9a5c 44bd 6527 3e3d 92a0 673d ffac 053d
000000d0: 822f 083d fa63 f6bd 5559 bbbd 2458 0dbd
000000e0: 8318 343b 08c1 fa3d a608 0bbe ba6d 9d3d
000000f0: cf0b 5abe d6fc cebd b5f0 1b3e efe6 e9bd
00000100: b341 103e 4f0c febc 2957 3e3e 9681 e3bd
00000110: 4b5f 543e e52c 303d 68ca dc3d 59e3 d4bd
00000120: 84b5 393e 2c48 e1bd d284 8ebe 86f4 20bd
00000130: 0bdb a13d 3f77 b9be 3890 563d 0441 dd3d
00000140: 168b be3d 4d99 4abd eeb7 65be 57a5 a9bd
00000150: e8ed 373e 2bdf 08be 0f55 223d a3d9 bcbd
00000160: 2808 e93c b1aa c03c 281d f7bc c9d8 b63c
00000170: 7d98 00be 5399 6bbd cbc1 13be fc3d c93d
00000180: c7dc 183e 15c8 2cbd 842d 1b3e 066c 12be
00000190: e919 223e 4230 0f3d 6a09 17be f1ae 67bd
000001a0: 6e20 cd3d 5d30 6cbd f497 40bc c941 1b3d
000001b0: e319 5b3c 6ac6 00bd 4e70 e0bd d192 143e
000001c0: 0cdc de3c 0635 36bc 2478 0bbe 95d3 e5bd
000001d0: 1a1b 043e bb67 97be 113b b0bd 0c27 7b3b
000001e0: 62ee c3bd ad15 7dbe f654 f6bc d036 163e
000001f0: 23a8 5fbe 1d92 8abd 43c1 073e 9ee6 943d
00000200: 75e7 90bc 8656 e63d 63fc cabc fe4c 2cbd
00000210: 48c4 fa3d c247 d8bd 7a64 363d c738 843d
00000220: a72d 62be 1fec 453d 457d 0c3d 5da7 5b3d
00000230: 6c49 d43d 173d c4bd 36cc ccbc fddf 173d
00000240: fd31 06be 8772 2dbe 4783 4bbd 49f2 1f3e
00000250: b774 c93d f9d5 3abc ffd9 2c3e fe82 293c
00000260: 72d3 be3d 20a5 ecbd c421 873e d74e 01bd
00000270: f669 9bbd 537d b73c d9f3 16be cb64 e9bd
00000280: 7ed4 463d 22ff 98be 7a3f 793d de53 64bc
00000290: b5cd d9bd 8c2b 9d3d c7c3 0f3e f431 293e
000002a0: 4341 53be 1551 8b3d 3f37 a4bd d5c9 3fbc
000002b0: d090 8dbd bff6 0cbc eaa0 f7bd 0079 a1bd
000002c0: 1c36 4a3d 06c5 a5bc d616 063d bbb3 63be
000002d0: 10da a23c 08e5 713d f852 5bbe c60b 263e
000002e0: de97 583e bc33 7a3c 6187 e73c c3a8 3c3e
000002f0: e166 93bd 30a4 a53e 0662 4e3c 0b0d 013e
00000300: 2164 133e 67d5 b53d 1ded 0a3e d7ac 31be
00000310: 58a8 87bd 4d2c 773c 2091 a2bd 630e 6c3c
00000320: 4a4e 04be dad1 14be 1f82 ca3d 37a6 cc3d
00000330: 6d3e ce3d 1e64 b53c 671b 9cbd 6148 f53d
00000340: 09b2 14bd 5fcd 293e 400d bdbd 11a6 283e
00000350: a791 47be b556 9ebe b3f9 18be 98e2 f3bb
00000360: c318 163e 4c87 893d 8e5e b73c d590 8b3c
00000370: 7e1f 233e 4293 313e b98b dabd e433 ea3d
00000380: cbb3 dabb b4a0 193d a744 0fbe abdf d4bd
00000390: 9b81 a73d b31b 8ebd 23ce be3d 0804 4b3d
000003a0: 53a8 9e3d 3f8a 6c3d d2dc e1bd 2601 7a3d
000003b0: 9fdf 133e e594 2bbe eacf 94be e8de 763d
000003c0: 3ca8 8abc 81c1 0dbe 8d00 e13c a3c6 81bd
000003d0: 7c1f 6f3d 9300 5cbe 381d b5bd 7978 8dbc
000003e0: caa1 ae3d c844 fbbc 39e7 bdbd f5ad 9ebd
000003f0: e7e0 1b3d c35c a7bc 8a82 803d fb01 1dbe
0.2177202 -0.15343228 -0.16199337 0.04891767 0.13396913 -0.092061274 -0.17568538 -0.040169943
0.016274722 -0.0041348827 0.21089648 -0.014646779 0.03340456 -0.11062919 -0.060191654 -0.18533172
-0.0092022 -0.051322155 0.14198807 -0.073273845 -0.23087676 -0.017563786 0.03413738 -0.23664296
-0.047792606 -0.09369403 -0.076685175 0.08520303 -0.055828527 0.24150842 0.041636813 -0.09966447
-0.037214134 0.08627909 -0.12882225 -0.06731861 -0.18836974 0.068241425 0.09223993 -0.10060064
0.21131046 0.30072358 0.06623837 -0.008978656 -0.016050695 0.07615552 -0.17185509 0.07159518
-0.047939874 0.04642429 0.056549616 0.032635685 0.033248432 -0.12030788 -0.09147898 -0.034507886
0.002748043 0.12243849 -0.13577518 0.07686944 -0.21293567 -0.101068184 0.15228541 -0.11421
0.14087562 -0.031011729 0.18587936 -0.11108701 0.20739476 0.043011565 0.107807934 -0.103949256
0.18135649 -0.11000094 -0.2783571 -0.039295696 0.07903107 -0.3622379 0.05238363 0.10803416
0.09303872 -0.049462605 -0.22433445 -0.08283489 0.17961848 -0.13366382 0.0396319 -0.092211984
0.028446272 0.023518892 -0.03016527 0.022320168 -0.1255817 -0.05751927 -0.14429395 0.09826276
0.1492797 -0.042183 0.15154082 -0.1429902 0.15830196 0.03495813 -0.14749685 -0.05656332
0.10015951 -0.05766331 -0.011754978 0.037904534 0.013372871 -0.031439222 -0.109589204 0.14509131
0.027204536 -0.01112104 -0.13620049 -0.11221997 0.12900963 -0.29571328 -0.08605016 0.0038322834
-0.09566952 -0.247153 -0.03006981 0.14669347 -0.21841483 -0.0676615 0.13257317 0.07270549
-0.017688492 0.11246972 -0.02477855 -0.042065613 0.12244469 -0.10560562 0.044529416 0.06456142
-0.22087727 0.048320886 0.034299154 0.053626407 0.103655666 -0.095819645 -0.02499972 0.037078846
-0.13105007 -0.1693822 -0.049685743 0.15619768 0.09836715 -0.011403554 0.16880034 0.010346172
0.09317674 -0.115549326 0.2639295 -0.03156933 -0.0758857 0.022398626 -0.14741458 -0.11396178
0.048542492 -0.2988215 0.06085155 -0.013936011 -0.10634939 0.076743215 0.14039527 0.16522962
-0.20630364 0.068025745 -0.0801835 -0.011705835 -0.069123864 -0.008603751 -0.12091239 -0.07884407
0.04936801 -0.02023555 0.03273662 -0.2223653 0.01987937 0.05905631 -0.21418369 0.16215429
0.21151683 0.0152711235 0.028262796 0.18423752 -0.07197357 0.32351828 0.012596613 0.12602632
0.14393665 0.08878594 0.13567014 -0.1735109 -0.06623906 0.015086246 -0.07937837 0.014407727
-0.1292049 -0.14533177 0.098881 0.099926405 0.100705005 0.022142466 -0.07622414 0.11976696
-0.0363026 0.16582249 -0.09231043 0.164696 -0.19489156 -0.30925527 -0.14939003 -0.0074427836
0.14657883 0.06715259 0.022383954 0.017036835 0.15929982 0.1734133 -0.10671181 0.114356786
-0.006674265 0.037506774 -0.13991033 -0.10394224 0.08179017 -0.06938877 0.09316661 0.04956439
0.07746949 0.05774903 -0.11028446 0.06103625 0.14440773 -0.16756018 -0.29064876 0.060271174
-0.016925924 -0.13843347 0.027466083 -0.06336715 0.058379635 -0.21484594 -0.08843464 -0.01726936
0.085269526 -0.030672446 -0.09272618 -0.077480234 0.03805628 -0.020429974 0.06274898 -0.15332787

res1.0.conv1.pointwise.bias f4 [128]
00000000: 0000 0000 0000 0000 0000 0000 0000 0000
00000010: 0000 0000 0000 0000 0000 0000 0000 0000
00000020: 0000 0000 0000 0000 0000 0000 0000 0000
00000030: 0000 0000 0000 0000 0000 0000 0000 0000
00000040: 0000 0000 0000 0000 0000 0000 0000 0000
00000050: 0000 0000 0000 0000 0000 0000 0000 0000
00000060: 0000 0000 0000 0000 0000 0000 0000 0000
00000070: 0000 0000 0000 0000 0000 0000 0000 0000
00000080: 0000 0000 0000 0000 0000 0000 0000 0000
00000090: 0000 0000 0000 0000 0000 0000 0000 0000
000000a0: 0000 0000 0000 0000 0000 0000 0000 0000
000000b0: 0000 0000 0000 0000 0000 0000 0000 0000
000000c0: 0000 0000 0000 0000 0000 0000 0000 0000
000000d0: 0000 0000 0000 0000 0000 0000 0000 0000
000000e0: 0000 0000 0000 0000 0000 0000 0000 0000
000000f0: 0000 0000 0000 0000 0000 0000 0000 0000
00000100: 0000 0000 0000 0000 0000 0000 0000 0000
00000110: 0000 0000 0000 0000 0000 0000 0000 0000
00000120: 0000 0000 0000 0000 0000 0000 0000 0000
00000130: 0000 0000 0000 0000 0000 0000 0000 0000
00000140: 0000 0000 0000 0000 0000 0000 0000 0000
00000150: 0000 0000 0000 0000 0000 0000 0000 0000
00000160: 0000 0000 0000 0000 0000 0000 0000 0000
00000170: 0000 0000 0000 0000 0000 0000 0000 0000
00000180: 0000 0000 0000 0000 0000 0000 0000 0000
00000190: 0000 0000 0000 0000 0000 0000 0000 0000
000001a0: 0000 0000 0000 0000 0000 0000 0000 0000
000001b0: 0000 0000 0000 0000 0000 0000 0000 0000
000001c0: 0000 0000 0000 0000 0000 0000 0000 0000
000001d0: 0000 0000 0000 0000 0000 0000 0000 0000
000001e0: 0000 0000 0000 0000 0000 0000 0000 0000
000001f0: 0000 0000 0000 0000 0000 0000 0000 0000
0.0 0.0 0.0 0.0 0.0 0.0 0.0 0.0
0.0 0.0 0.0 0.0 0.0 0.0 0.0 0.0
0.0 0.0 0.0 0.0 0.0 0.0 0.0 0.0
0.0 0.0 0.0 0.0 0.0 0.0 0.0 0.0
0.0 0.0 0.0 0.0 0.0 0.0 0.0 0.0
0.0 0.0 0.0 0.0 0.0 0.0 0.0 0.0
0.0 0.0 0.0 0.0 0.0 0.0 0.0 0.0
0.0 0.0 0.0 0.0 0.0 0.0 0.0 0.0
0.0 0.0 0.0 0.0 0.0 0.0 0.0 0.0
0.0 0.0 0.0 0.0 0.0 0.0 0.0 0.0
0.0 0.0 0.0 0.0 0.0 0.0 0.0 0.0
0.0 0.0 0.0 0.0 0.0 0.0 0.0 0.0
0.0 0.0 0.0 0.0 0.0 0.0 0.0 0.0
0.0 0.0 0.0 0.0 0.0 0.0 0.0 0.0
0.0 0.0 0.0 0.0 0.0 0.0 0.0 0.0
0.0 0.0 0.0 0.0 0.0 0.0 0.0 0.0

res1.0.bn1.weight f4 [128]
00000000: 0000 0000 0000 0000 0000 0000 0000 0000
00000010: 0000 0000 0000 0000 0000 0000 0000 0000
00000020: 0000 0000 0000 0000 0000 0000 0000 0000
00000030: 0000 0000 0000 0000 0000 0000 0000 0000
00000040: 0000 0000 0000 0000 0000 0000 0000 0000
00000050: 0000 0000 0000 0000 0000 0000 0000 0000
00000060: 0000 0000 0000 0000 0000 0000 0000 0000
00000070: 0000 0000 0000 0000 0000 0000 0000 0000
00000080: 0000 0000 0000 0000 0000 0000 0000 0000
00000090: 0000 0000 0000 0000 0000 0000 0000 0000
000000a0: 0000 0000 0000 0000 0000 0000 0000 0000
000000b0: 0000 0000 0000 0000 0000 0000 0000 0000
000000c0: 0000 0000 0000 0000 0000 0000 0000 0000
000000d0: 0000 0000 0000 0000 0000 0000 0000 0000
000000e0: 0000 0000 0000 0000 0000 0000 0000 0000
000000f0: 0000 0000 0000 0000 0000 0000 0000 0000
00000100: 0000 0000 0000 0000 0000 0000 0000 0000
00000110: 0000 0000 0000 0000 0000 0000 0000 0000
00000120: 0000 0000 0000 0000 0000 0000 0000 0000
00000130: 0000 0000 0000 0000 0000 0000 0000 0000
00000140: 0000 0000 0000 0000 0000 0000 0000 0000
00000150: 0000 0000 0000 0000 0000 0000 0000 0000
00000160: 0000 0000 0000 0000 0000 0000 0000 0000
00000170: 0000 0000 0000 0000 0000 0000 0000 0000
00000180: 0000 0000 0000 0000 0000 0000 0000 0000
00000190: 0000 0000 0000 0000 0000 0000 0000 0000
000001a0: 0000 0000 0000 0000 0000 0000 0000 0000
000001b0: 0000 0000 0000 0000 0000 0000 0000 0000
000001c0: 0000 0000 0000 0000 0000 0000 0000 0000
000001d0: 0000 0000 0000 0000 0000 0000 0000 0000
000001e0: 0000 0000 0000 0000 0000 0000 0000 0000
000001f0: 0000 0000 0000 0000 0000 0000 0000 0000
0.0 0.0 0.0 0.0 0.0 0.0 0.0 0.0
0.0 0.0 0.0 0.0 0.0 0.0 0.0 0.0
0.0 0.0 0.0 0.0 0.0 0.0 0.0 0.0
0.0 0.0 0.0 0.0 0.0 0.0 0.0 0.0
0.0 0.0 0.0 0.0 0.0 0.0 0.0 0.0
0.0 0.0 0.0 0.0 0.0 0.0 0.0 0.0
0.0 0.0 0.0 0.0 0.0 0.0 0.0 0.0
0.0 0.0 0.0 0.0 0.0 0.0 0.0 0.0
0.0 0.0 0.0 0.0 0.0 0.0 0.0 0.0
0.0 0.0 0.0 0.0 0.0 0.0 0.0 0.0
0.0 0.0 0.0 0.0 0.0 0.0 0.0 0.0
0.0 0.0 0.0 0.0 0.0 0.0 0.0 0.0
0.0 0.0 0.0 0.0 0.0 0.0 0.0 0.0
0.0 0.0 0.0 0.0 0.0 0.0 0.0 0.0
0.0 0.0 0.0 0.0 0.0 0.0 0.0 0.0
0.0 0.0 0.0 0.0 0.0 0.0 0.0 0.0

res1.0.bn1.bias f4 [128]
00000000: 0000 0000 0000 0000 0000 0000 0000 0000
00000010: 0000 0000 0000 0000 0000 0000 0000 0000
00000020: 0000 0000 0000 0000 0000 0000 0000 0000
00000030: 0000 0000 0000 0000 0000 0000 0000 0000
00000040: 0000 0000 0000 0000 0000 0000 0000 0000
00000050: 0000 0000 0000 0000 0000 0000 0000 0000
00000060: 0000 0000 0000 0000 0000 0000 0000 0000
00000070: 0000 0000 0000 0000 0000 0000 0000 0000
00000080: 0000 0000 0000 0000 0000 0000 0000 0000
00000090: 0000 0000 0000 0000 0000 0000 0000 0000
000000a0: 0000 0000 0000 0000 0000 0000 0000 0000
000000b0: 0000 0000 0000 0000 0000 0000 0000 0000
000000c0: 0000 0000 0000 0000 0000 0000 0000 0000
000000d0: 0000 0000 0000 0000 0000 0000 0000 0000
000000e0: 0000 0000 0000 0000 0000 0000 0000 0000
000000f0: 0000 0000 0000 0000 0000 0000 0000 0000
00000100: 0000 0000 0000 0000 0000 0000 0000 0000
00000110: 0000 0000 0000 0000 0000 0000 0000 0000
00000120: 0000 0000 0000 0000 0000 0000 0000 0000
00000130: 0000 0000 0000 0000 0000 0000 0000 0000
00000140: 0000 0000 0000 0000 0000 0000 0000 0000
00000150: 0000 0000 0000 0000 0000 0000 0000 0000
00000160: 0000 0000 0000 0000 0000 0000 0000 0000
00000170: 0000 0000 0000 0000 0000 0000 0000 0000
00000180: 0000 0000 0000 0000 0000 0000 0000 0000
00000190: 0000 0000 0000 0000 0000 0000 0000 0000
000001a0: 0000 0000 0000 0000 0000 0000 0000 0000
000001b0: 0000 0000 0000 0000 0000 0000 0000 0000
000001c0: 0000 0000 0000 0000 0000 0000 0000 0000
000001d0: 0000 0000 0000 0000 0000 0000 0000 0000
000001e0: 0000 0000 0000 0000 0000 0000 0000 0000
000001f0: 0000 0000 0000 0000 0000 0000 0000 0000
0.0 0.0 0.0 0.0 0.0 0.0 0.0 0.0
0.0 0.0 0.0 0.0 0.0 0.0 0.0 0.0
0.0 0.0 0.0 0.0 0.0 0.0 0.0 0.0
0.0 0.0 0.0 0.0 0.0 0.0 0.0 0.0
0.0 0.0 0.0 0.0 0.0 0.0 0.0 0.0
0.0 0.0 0.0 0.0 0.0 0.0 0.0 0.0
0.0 0.0 0.0 0.0 0.0 0.0 0.0 0.0
0.0 0.0 0.0 0.0 0.0 0.0 0.0 0.0
0.0 0.0 0.0 0.0 0.0 0.0 0.0 0.0
0.0 0.0 0.0 0.0 0.0 0.0 0.0 0.0
0.0 0.0 0.0 0.0 0.0 0.0 0.0 0.0
0.0 0.0 0.0 0.0 0.0 0.0 0.0 0.0
0.0 0.0 0.0 0.0 0.0 0.0 0.0 0.0
0.0 0.0 0.0 0.0 0.0 0.0 0.0 0.0
0.0 0.0 0.0 0.0 0.0 0.0 0.0 0.0
0.0 0.0 0.0 0.0 0.0 0.0 0.0 0.0

res1.0.bn1.running_mean f4 [128]
00000000: 584f 533c 96ac 0d3c 8816 4d3b ebc6 7c3d
00000010: ff7a cabc cae7 0c3b 616c 97bc ad42 473c
00000020: 1df2 833c dd57 07bd c7cb 8e3b 038d 25bc
00000030: 397d 64bc 2bd3 913b c418 36bc 5572 c43c
00000040: a1ba 003c c40b 80bc 32f6 ecbc db0a 88bb
00000050: 21e0 4a3c 2bf0 f2bc f855 153c 96d2 10bc
00000060: 32ca 8fbc 08c7 3c3c d429 103c 5f12 94bc
00000070: 0d5e d43c 7673 183b 4355 cc3b e1ae a13b
00000080: d3a9 923a 5ed9 8e3c 4872 fe3b 785f 82bb
00000090: 91cc 0b3d b2c4 a13c 1ca0 3dbb 07f7 733c
000000a0: 8bf5 0c3c b179 203b b324 1cbc bb79 903c
000000b0: 2b19 263c e81c f63b 261d 8fbc a1ea c53b
000000c0: 2776 49bc b0c4 adbc e7e8 0bbc ccdf b03c
000000d0: 801e 50bc 3677 59bc 0588 e73b b221 693c
000000e0: 3a33 92bc 7f80 f33a 4797 0c3c 3a77 7fba
000000f0: 2793 c33c 8ab9 ef3c 023e 4dbc 001c 683c
00000100: 579c 1b3c a54e 3dbc c21e 013b 1487 c1bb
00000110: 038e b8bc 6e64 dbbc f4e0 dfbb 5004 3cbc
00000120: 411f 6eba e869 3b3c 4f54 ae3b 503b 8fbc
00000130: 7c50 bbbb a125 a33a 6aee 60bc 4267 92bc
00000140: bb2a 4c3c 3e87 b2bc 83ee 6d3c 776d 35ba
00000150: 7425 02bc bac4 073d e2c4 03bc e076 933c
00000160: 586c fe3c f50d e1bc be68 d5bc 836c 513c
00000170: 399c 25bc c0ba b6bc b859 bb3b 6dd3 64bc
00000180: 5a8e 023b 7588 dbbc ba9c 35bb a04f 4cbc
00000190: 5d73 73bb f7ea 78bc 3fd6 e03b 9202 19bb
000001a0: 4b5f d6bc 84b3 00bd 7975 893a 20ba 5fbc
000001b0: 33ce 8cbb 7c51 b8bc 7c3b 533c 3825 7db9
000001c0: dc3b 103c 454d 923c 6879 46bd 124e b6bb
000001d0: 3fb0 593c 49a8 a43c 0170 fcbb 83bc e7bb
000001e0: a51b 993c 18fd b93c 4946 aaba ada1 2d3c
000001f0: 4d4c 79bc 758c 4d3c 2847 d5bc 12c8 f2bb
0.012897335 0.008647105 0.0031293947 0.06171314 -0.024716852 0.0021500462 -0.018484296 0.012161893
0.01610666 -0.033042777 0.0043577882 -0.010104421 -0.013945871 0.004450222 -0.011114303 0.023980299
0.007856996 -0.01563061 -0.028925989 -0.0041516847 0.012382538 -0.029655537 0.009114735 -0.00883927
-0.017552469 0.011522062 0.008799035 -0.018075166 0.025923753 0.002326218 0.00623575 0.0049341773
0.0011189528 0.017437633 0.007765088 -0.003978666 0.034130637 0.019747112 -0.0028934544 0.014890439
0.008603464 0.0024486596 -0.009530234 0.01763617 0.010137836 0.00751077 -0.017469954 0.006039933
-0.012296236 -0.021211952 -0.008539415 0.02159109 -0.012702584 -0.013273051 0.0070657753 0.014229225
-0.017846692 0.0018577724 0.008580989 -0.0009745244 0.023873879 0.029263277 -0.012526991 0.014166832
0.009497724 -0.011554395 0.001970217 -0.005905995 -0.022528654 -0.026781287 -0.0068322364 -0.011475638
-0.00090836367 0.011438824 0.005320109 -0.017484337 -0.0057163816 0.0012447127 -0.013728717 -0.017871503
0.01246136 -0.021793004 0.014522198 -0.00069209136 -0.0079435 0.033146597 -0.008042546 0.01800102
0.031057522 -0.027472476 -0.026050922 0.012782219 -0.010108047 -0.022305846 0.0057174824 -0.013966423
0.0019921274 -0.026798466 -0.0027711825 -0.012470156 -0.003714762 -0.015192739 0.0068614776 -0.002334748
-0.026168486 -0.0314212 0.001048728 -0.0136552155 -0.004297042 -0.022499792 0.0128926 -0.00024141825
0.008803334 0.01785911 -0.048455626 -0.005563506 0.013286649 0.020099776 -0.0077037816 -0.007072033
0.01868994 0.022703692 -0.0012990917 0.010597629 -0.015215945 0.012545695 -0.026034907 -0.007409104

res1.0.bn1.running_var f4 [128]
00000000: f995 903a 672f 5c3a 2f12 1b3a b2db 313a
00000010: e826 f439 a522 ce39 b58e a339 74a0 c439
00000020: dafa 013a a610 7c3a 3fd9 6f3a 58a0 413a
00000030: 59bf bb39 6c89 e339 a113 2c3a d1db 173a
00000040: 444f 263a 0e61 453a 5361 f039 fbd4 573a
00000050: 1344 b139 0e9f 2a3a 5df0 be39 3e23 093a
00000060: 6c74 fb39 8bd0 f839 3f79 e339 f9af 843a
00000070: 787f 173a 4e5e bb39 e765 b739 30a1 9139
00000080: 9655 1e3a ebaf d239 3cb8 8139 07eb 2f3a
00000090: a187 233a 3a61 493a b6d0 ab39 42e5 c739
000000a0: 4d03 9a39 cdd1 e839 1dde f939 2dad 9139
000000b0: 6d0c f93a 8b7c 933a a40d e03a 204b 833a
000000c0: 5fbe 5539 de83 ee39 8e8a b739 066e 213a
000000d0: 095d 8239 d576 693a 9d22 f139 923a 9a39
000000e0: 3b17 df39 c602 9d39 c6cd b439 8e9b a939
000000f0: 19fa c439 609b a239 5239 8c39 0ad0 073a
00000100: 7161 e439 a28c 133a b30f 053a 7766 373a
00000110: 3e44 5f3a 9762 9239 d0d3 2a3a 670a 7639
00000120: c661 273a b2e3 c339 0fb5 9b39 8591 ab39
00000130: fd11 223a 04c8 b939 96c1 a139 5787 a139
00000140: 2393 df39 b600 a839 0792 dc39 ebd3 1a3a
00000150: 58be 773a b86d 653a c25f dd39 f3c0 a739
00000160: c355 233a 4137 ae39 1d6d 1e3a fd71 8d39
00000170: b380 0f3a 367d ab39 5eed ce39 3773 283a
00000180: 6fbb dd39 4fdd cf39 cd13 643a 4dd3 7139
00000190: 4d96 8139 a79f 813a 7595 623a 8c56 d739
000001a0: 7720 9b3a 7b86 bf39 2c13 bb39 4e83 9f39
000001b0: 4e5e f939 c73b d839 d048 cb39 ffdf d339
000001c0: 1b87 f639 a862 193a 6da2 583a d4b2 9339
000001d0: abc8 a639 dc09 9539 995d d439 6595 c939
000001e0: 4a05 1a3a 37c3 a739 cf45 e139 00f4 073a
000001f0: bf31 013a 6003 0e3a c8fb f139 bc0f 023a
0.0011031023 0.00083993975 0.00059154903 0.00067847513 0.00046568294 0.00039317194 0.00031196108 0.0003750358
0.0004958339 0.0009615518 0.00091494987 0.0007386259 0.00035809985 0.000433992 0.0006564204 0.0005792948
0.0006344209 0.0007529416 0.0004584888 0.00082333357 0.0003381079 0.00065086863 0.0003641871 0.0005231387
0.00047961192 0.00047457623 0.0004338715 0.0010123245 0.0005779187 0.00035737682 0.00034980403 0.0002777665
0.0006039975 0.0004018539 0.00024742063 0.0006710742 0.0006238167 0.00076820294 0.00032771163 0.00038127048
0.00029375628 0.00044406802 0.00047658468 0.0002778558 0.0019000896 0.0011252327 0.0017093909 0.0010016896
0.00020384182 0.00045493146 0.0003500771 0.00061580574 0.0002486485 0.0008905952 0.0004599289 0.00029416807
0.00042551183 0.0002994744 0.0003448559 0.0003235009 0.0003757037 0.0003101481 0.00026745588 0.00051808415
0.00043560148 0.0005628561 0.0005075887 0.00069961644 0.0008516944 0.00027920745 0.0006516548 0.00023464263
0.0006385114 0.00037362945 0.00029698803 0.00032724082 0.000618249 0.00035434973 0.00030852546 0.0003080915
0.000426435 0.00032043987 0.0004207047 0.0005906212 0.00094506657 0.0008752006 0.0004222375 0.0003199648
0.0006230736 0.00033229034 0.0006043481 0.00026978544 0.0005474195 0.0003270895 0.00039468234 0.000642586
0.00042292054 0.00039647004 0.00087004603 0.00023062267 0.0002471678 0.0009889499 0.00086434867 0.00041072478
0.0011835237 0.00036530555 0.00035681704 0.00030424673 0.00047563243 0.00041243268 0.00038773427 0.00040411946
0.00047021438 0.0005851188 0.00082639494 0.00028171262 0.00031811497 0.0002842684 0.00040505527 0.00038449015
0.0005875422 0.0003199817 0.00042967356 0.00051862 0.0004928372 0.0005417373 0.00046154694 0.0004961451
