MonocularDepthEstimation/savedmodels/Masks/64-4epochs/checkpoint-2.pt (torch_old, 510109 bytes, 74 tensors)

prep.DepthwiseConv2d.depthwise.weight f4 [3, 1, 3, 3]
000000 a3 09 20 3d fd 73 6e 3d fe f4 1b be f4 28 de bf
       0.03907169 0.058216084 -0.15230176 -1.7356248
000010 23 e7 c4 3c b1 c2 e6 3f a9 77 00 c0 74 78 a5 3e
       0.024035996 1.8028165 -2.0073035 0.3231846
000020 f7 9e d3 3f 16 58 f7 3c e6 56 19 3d 9a c1 fc bd
       1.6532887 0.03019337 0.03743639 -0.12341614
000030 e1 74 dc bf 7e 39 3d 3e e0 8d d3 3f 95 87 e5 bf
       -1.7223169 0.18478963 1.6527672 -1.7932001
000040 62 e8 6b 3e 8f b3 c1 3f 78 88 0d 3e e3 1a 8d 3d
       0.23037866 1.5132922 0.1382159 0.06889894
000050 9b 16 7e be 74 15 0d c0 f4 0f 62 37 53 d7 13 40
       -0.24813311 -2.2044344 1.3474364e-05 2.3100173
000060 ba bf 0e c0 38 11 01 3f c2 02 d2 3f
       -2.230452 0.504169 1.6407092

prep.DepthwiseConv2d.pointwise.weight f4 [64, 3, 1, 1]
000000 65 bd 64 be 34 07 5a be 74 ec a4 be 3a da b9 be
       -0.22337873 -0.2129181 -0.3221165 -0.36299306
000010 7f 06 09 3d d9 e6 1e be 13 cb 81 be 2f e5 6b be
       0.03345346 -0.15517749 -0.25350246 -0.23036645
000020 5b 1e a5 3d 8e 0a 8c 3c a9 42 0f 3e ef 6e d2 3e
       0.080624305 0.017094877 0.13990273 0.4110026
000030 cd 2d 3c 3f 60 bf 8c bf 27 80 0e bf db a2 11 3e
       0.73507386 -1.0995903 -0.55664295 0.1422228
000040 6d 2d d1 bd c1 9d 3a 3f 16 ed 02 be 4d 2d e1 bd
       -0.102137424 0.72896963 -0.12785754 -0.109949686
000050 35 22 97 3e 11 64 44 bd f4 48 2c 3d b2 ef e4 bc
       0.29518285 -0.047946993 0.04206176 -0.027946327
000060 71 d6 99 3e 77 76 47 be a8 4a 91 3d 0c 45 6c 3e
       0.30046418 -0.19478785 0.07094318 0.23073214
000070 4b 21 d0 3c e8 4c 8c 3d d4 4f 3b 3e 17 ab b6 3c
       0.0254065 0.06850606 0.18292171 0.022298379
000080 6a 4f 3d be 74 95 b2 3e eb 09 b4 3e 99 4f 2d be
       -0.18487325 0.3487965 0.35163817 -0.16924895
000090 c2 bd 16 3e ce 85 3f 3e 51 13 64 3e 20 12 05 bf
       0.14720824 0.18703386 0.22272994 -0.5198078
0000a0 3c 64 f4 3e 09 9d 4f 3f 27 80 12 3e 75 4b d3 bd
       0.47732723 0.8109899 0.14306699 -0.10317127
0000b0 a6 9e 22 3f 02 fd 97 bc 9d 0e 9b 3e 4e c7 39 be
       0.6352333 -0.01855326 0.30284587 -0.18142435
0000c0 7b 07 e1 be ad 9e 1e 3f af 32 ec be c7 6c 4c bd
       -0.4395102 0.6196087 -0.4613242 -0.049908426
0000d0 b5 04 3e 3e f3 8c e7 3b c5 90 d3 3e 97 5b 90 3e
       0.18556483 0.007066363 0.41321388 0.28194878
0000e0 88 b8 87 bf 66 e0 31 bf 99 93 2c 3f 56 9d 9f 3e
       -1.060319 -0.6948303 0.67412716 0.31174725
0000f0 2f 6e a7 3e 62 77 e3 be 6a 0a 38 3f 88 50 23 be
       0.3270125 -0.4442702 0.7189089 -0.15948689
000100 73 97 43 3e 3f d8 00 be 95 57 bb be 6e 55 7f 3c
       0.19100742 -0.12582491 -0.36590257 0.015584333
000110 35 c1 28 bf cf 83 90 bd a6 4a 65 be 72 08 42 3c
       -0.6591981 -0.070563905 -0.22391757 0.011842834
000120 a2 83 85 3e b8 e8 9f bc 41 47 cd 3d 2f 6c 56 3f
       0.2607699 -0.019520149 0.10023356 0.83758825
000130 2e 75 9c bf b2 dd eb 3e 40 a8 ab 3d d3 a9 3b 3e
       -1.222326 0.46067578 0.083817005 0.18326502
000140 6e 58 ea 3e f1 85 1e be 2e db aa 3e cd 5a 7c 3e
       0.45770591 -0.15480782 0.33370346 0.24644013
000150 1e 02 11 be bc 6a 81 be 30 c3 83 be cd 16 9e bc
       -0.14160964 -0.25276744 -0.25734854 -0.019297982
000160 46 5a ea bc 0d 8e 67 3e 24 e8 bc 3d 71 86 29 be
       -0.028607499 0.22612782 0.09223965 -0.16555192
000170 dc 6e 99 bd 7b b0 86 3e d7 9f 5e be 02 ad 34 be
       -0.07491848 0.2630652 -0.21740662 -0.17644122
000180 04 a2 b9 3d ca 67 1a bf 44 db 0c be 04 0a 8f bf
       0.09064105 -0.6031462 -0.13755518 -1.1174932
000190 c1 9a 2b bf b1 ce 20 3e 39 dd 84 be d1 80 db bd
       -0.6703301 0.15703847 -0.2595003 -0.10717929
0001a0 cd 13 86 3f 7b 81 32 be 90 ec 26 3e d1 e0 a6 be
       1.0474793 -0.17432205 0.16301179 -0.32593396
0001b0 e1 fd 2e 3e 0c db 85 bc c1 94 9a bf 4a 3f 63 3e
       0.17089035 -0.016339801 -1.2076646 0.22192112
0001c0 3f e0 69 bd f4 a9 25 bd 16 93 00 bc a1 d1 8a 3f
       -0.057098623 -0.040445283 -0.007847568 1.0845224
0001d0 6e 26 e2 bd a1 64 19 3f 37 ba 66 3f 1e 37 81 bf
       -0.11042486 0.5991917 0.9012789 -1.0094945
0001e0 2e 61 98 bd 8d 68 9a be 75 af 58 be 37 fb 18 3e
       -0.074404106 -0.3015789 -0.21160682 0.14939581
0001f0 c0 b7 17 bf 75 a0 b0 3e 45 e5 9f be 04 d8 c2 3d
       -0.59264755 0.3449742 -0.31229606 0.09513858
000200 af 4e d9 be 55 8d 61 3f 6e 7b ad 3b 14 e5 5b bf
       -0.42442843 0.8810628 0.005294255 -0.8589642
000210 aa e5 9d bf 1f cb fd 3d 74 4e 97 3f ba 7a 07 3d
       -1.2335713 0.12392258 1.1820817 0.033076026
000220 0d 8e 5d 3e 38 ad 06 3e 24 14 2c be 54 7a f6 3d
       0.2163622 0.13152015 -0.16804558 0.12035051
000230 86 dd 18 3d 20 a0 07 3f c5 65 e2 3e a7 c6 11 3e
       0.037320636 0.52978706 0.4421827 0.14235936
000240 9a 82 96 be 2a 9f 0e be df 18 13 3e e7 b7 d0 3d
       -0.29396516 -0.13927904 0.14364956 0.101913266
000250 66 ec 76 bd 0c 40 02 bf 36 f8 24 3d df 33 0e be
       -0.06028404 -0.5087898 0.040275775 -0.13886975
000260 93 3f 9e 3d 53 19 be 3e 00 7a 1c 3e 11 b9 8b 3e
       0.077269696 0.37128696 0.15280914 0.27289632
000270 6c 61 37 3e c2 8d 0e 3e ed d6 eb 3e 4b d8 52 bf
       0.17908257 0.13921264 0.46062413 -0.82361287
000280 e5 72 01 3f 5c 2d cd be 66 43 c5 3d c9 a0 9f 3e
       0.5056594 -0.4007367 0.09631996 0.31177357
000290 76 65 51 3e 96 c9 2c 3e 48 2b b2 be 9b 0a b4 3d
       0.2044886 0.16873774 -0.34798646 0.08791085
0002a0 38 d4 d0 3e 76 6e 9e 3e cc 67 ed bd ee 7b 8e 3c
       0.4078691 0.3094365 -0.11592063 0.017393079
0002b0 8c 36 f9 3d ae 9c d1 3c e7 9c f0 3d a1 97 4d be
       0.12168607 0.025587406 0.11748677 -0.20077373
0002c0 a3 2e 26 3e 71 47 9b 3e 0c fa 57 bd d0 a8 c1 3e
       0.16228728 0.30327943 -0.052728698 0.37824106
0002d0 a1 ab 4e be fd 48 b3 3d 01 c3 ba 3d ea f1 27 3f
       -0.20182659 0.08754156 0.09119225 0.65603507
0002e0 c8 cc b5 3e 9c 2d a6 be e0 27 ea 3e b7 f8 b4 3e
       0.35507798 -0.32456672 0.45733547 0.35346004
0002f0 ba cb 81 3f d1 b7 0e bf d9 21 a0 be 77 69 ea 3e
       1.0140297 -0.5574923 -0.31275824 0.45783588

prep.DepthwiseConv2d.pointwise.bias f4 [64]
000000 71 87 34 3d 7a cd b0 3d f2 ca f3 3d 65 6b c2 3d
       0.04407448 0.086329415 0.11903943 0.0949314
000010 f2 46 51 bc da 5e e8 bc 29 6f 77 bc b4 57 e7 bc
       -0.012773262 -0.028365541 -0.015102186 -0.028240062
000020 c9 8e 05 3b 13 ea d1 3d 5c f3 57 3c 3f ad 55 3d
       0.0020379296 0.10249724 0.01318058 0.052167173
000030 82 ee 92 bd 70 1f 14 bd 95 69 26 3e 0a 81 ad bd
       -0.07174398 -0.036162794 0.16251214 -0.08471878
000040 4e 99 18 bc 78 3b 8a bd 3e 3b 6c bd 66 e5 b0 bb
       -0.009313894 -0.06749624 -0.057673685 -0.00539844
000050 fb e2 05 bc 6a 84 42 bb 86 19 15 3b 94 55 7c bc
       -0.008171792 -0.0029680976 0.002275081 -0.015401263
000060 01 c1 a2 bc 1a 83 2d 3c 96 c4 93 3e 2e fa 59 bc
       -0.019867422 0.010590339 0.2886092 -0.013304276
000070 ec 4f cf 3d c5 d7 6c bc 2d 8c b0 bb f6 d6 13 bb
       0.10122666 -0.01445574 -0.005387804 -0.0022558547
000080 8e 17 8f bc 36 6d 1d bc 9a d0 f9 bc 53 2a 38 be
       -0.017467286 -0.009608557 -0.030494977 -0.17984895
000090 0f af 2b bd 5a b6 15 be c2 c1 9a bc e2 a2 0a bb
       -0.041914996 -0.14620343 -0.018891219 -0.0021154215
0000a0 b9 a2 85 3d 06 73 09 3b 76 a7 05 bd a3 6f c8 bb
       0.065251775 0.00209731 -0.032630406 -0.0061168238
0000b0 d0 a5 9e 3c 01 59 81 3d 07 74 65 3b f6 e9 a6 3d
       0.019366175 0.06315804 0.0035011785 0.08150093
0000c0 75 f3 c5 3d a7 e0 eb bc d0 ad 3b 3d f0 85 96 3d
       0.09665576 -0.028793646 0.045820057 0.07349765
0000d0 1c ee 54 3d 56 0c ee bb 1d 15 73 bd 66 cb d2 3d
       0.05198489 -0.007264654 -0.059346307 0.102927014
0000e0 71 5b 01 3e 0e a8 5d 3b e1 d4 e8 3d 96 6b d3 3d
       0.12632538 0.0033822092 0.113687284 0.10323255
0000f0 cf 67 f6 bc 09 0c 4a bd cb dd c7 bc b0 56 af 3d
       -0.030078797 -0.049327884 -0.024397751 0.08561456

cb1.DepthwiseConv2d.depthwise.weight f4 [64, 1, 3, 3]
000000 00 05 7d be b9 20 86 be 79 6a 1d 3d df 8a c4 bd
       -0.24708939 -0.2619684 0.03843162 -0.095968
000010 8c 7e 0d be 6b a9 d9 3d 2b 56 b3 bd b9 fd ff 3c
       -0.13817805 0.10628017 -0.087566696 0.031248914
000020 0b 74 eb 3d 98 b4 32 3d 3d 38 7b 3a de 91 d8 bc
       0.11496743 0.04362926 0.00095832703 -0.026436742
000030 83 f8 c4 3d 89 01 05 bc c4 c9 7f bc 34 06 9c be
       0.09617712 -0.008118042 -0.0156120695 -0.30473483
000040 c6 37 f1 bc 4d 39 c9 3d 44 29 31 be 27 9a 4d 3d
       -0.02944554 0.098253824 -0.17300898 0.05019584
000050 4b 2c 07 3d 81 3a 3c bd ab 97 d5 3c cc 53 8e 3d
       0.033001225 -0.04595423 0.026073297 0.06949577
000060 01 25 43 be 15 56 42 3e b8 f4 fd 3d b0 d0 54 3e
       -0.19057085 0.1897815 0.12400192 0.20782733
000070 66 56 9c 3c 0a f7 9d be fb 50 21 3d 76 e5 ad 3d
       0.019084167 -0.30852538 0.03938387 0.08491032
000080 b4 01 95 bd b9 5b 74 bd e8 17 60 3e fe 86 dd 3c
       -0.072757155 -0.059657786 0.2188412 0.027041908
000090 c4 c8 03 bf 22 4e f2 bd ea d3 e2 be 97 74 d4 be
       -0.5147822 -0.11831309 -0.44302303 -0.414952
0000a0 9b 9f 78 be ce 7e 1e be 5f ff 0d be 0b 0d 76 bd
       -0.24279635 -0.1547806 -0.13866948 -0.060071032
0000b0 51 02 c4 bd 1f a7 68 3d a8 0a 14 3e 36 32 25 3e
       -0.09570754 0.056800004 0.1445719 0.16132435
0000c0 1a 29 21 3e f5 2a 7d 3e 94 a6 65 bd 77 aa 9a 3e
       0.15738335 0.24723418 -0.056067064 0.3020818
0000d0 bd 9c b1 3e c5 c5 1c 3e 85 e0 bb bd ce 53 4a bd
       0.34689894 0.15309818 -0.09173683 -0.04939633
0000e0 6e bf 40 3d a5 77 c5 bd 5c 10 07 bd 0b c0 e2 bd
       0.04705756 -0.09641961 -0.032974586 -0.110717855
0000f0 7f df 0a be f9 d3 ae bc e4 3a d4 bd 10 71 50 3c
       -0.1356182 -0.02134131 -0.10362795 0.012722269
000100 07 65 81 3c f9 34 af 3b b7 fd bd 3c 1a ff c3 3d
       0.015795244 0.005346891 0.02319227 0.09570141
000110 11 45 d9 3d ad 46 00 bd 48 cf 9b bd c7 c5 85 bc
       0.106088765 -0.0313174 -0.07607895 -0.01632966
000120 ef 92 d3 3d 31 72 05 3e 77 0e 1e 3e 2d 04 8f 3c
       0.1033076 0.13031842 0.15435205 0.017458046
000130 c5 76 af 3d 27 d9 d9 3d 4a 5e 98 bc 48 48 11 bd
       0.08567575 0.10637122 -0.018599648 -0.035469323
000140 a2 fd 23 3d c4 e1 b3 bd ad d6 31 be a3 72 94 bd
       0.040036805 -0.08783296 -0.17367049 -0.07248428
000150 2e 50 8c bd 3f 40 27 bd d6 ab 0b ba 77 14 96 bd
       -0.068512306 -0.040832754 -0.0005328035 -0.07328122
000160 b5 29 b9 bd 54 83 52 3d 8c 26 90 3d b2 c8 be bd
       -0.09041158 0.051394776 0.07038602 -0.09315623
000170 97 99 26 be 1b 75 4a 3d d2 6c a5 3d 0f 4b ea bd
       -0.16269527 0.049428087 0.080773965 -0.114400975
000180 66 0f 84 3d 47 77 dc bc ba 15 96 bd fe ab 06 3e
       0.064482495 -0.026912345 -0.07328363 0.13151547
000190 ef 1e 4d 3e 4c 44 a9 3d 79 5a 76 3e 97 d9 9c 3e
       0.20031331 0.0826498 0.2405795 0.30634758
0001a0 e1 31 2b 3d 14 5c 98 bd bf 8c fc 3a fe c5 01 be
       0.041795615 -0.074394375 0.001926802 -0.12673184
0001b0 ba d6 4d be 32 25 e2 bd 2c 9a 5e 3d d9 70 e9 bd
       -0.20101443 -0.11042251 0.05434625 -0.11398477
0001c0 20 1e c1 bc 3a d4 ea bd 9b ca 31 bd 38 34 79 bc
       -0.023573935 -0.1146626 -0.04340611 -0.015210204
0001d0 41 4e ea bd 6a 7a fd be b5 48 65 3e 96 0d 81 3d
       -0.11440707 -0.49507457 0.22391017 0.063014194
0001e0 ef 10 df be f3 9f e0 3c 47 37 4e be e5 3f aa be
       -0.43567607 0.02742002 -0.20138274 -0.33251873
0001f0 23 79 8d be 01 a9 8d be 36 28 0a 3c d6 72 fd bd
       -0.27631482 -0.27668002 0.008432439 -0.12375419
000200 40 d3 66 bd e7 6c d6 3d 06 c1 e9 bd cb 71 92 bd
       -0.056353807 0.1046999 -0.114137694 -0.071506105
000210 59 05 bb 3e ef 28 f6 3c f8 15 d6 3e 58 c6 9c bd
       0.36527517 0.030048816 0.41813636 -0.076550186
000220 0d 51 5e 3d f7 04 07 bd ee 37 bb bd 2e 58 0a be
       0.054276515 -0.03296372 -0.09141527 -0.135102
000230 bd 7a 00 be cc 50 bc bd 1c 0d 3a be 15 21 84 bd
       -0.12546821 -0.09195098 -0.18169063 -0.064516224
000240 bc c7 f8 3e d3 1e 8d 3d 54 49 42 bd 97 26 d9 3e
       0.48589885 0.06890645 -0.047433212 0.42412254
000250 24 19 23 3e ab 9d f9 3c 6f 66 82 3e 12 cb 4b 3d
       0.15927559 0.03047069 0.25468776 0.04975421
000260 33 ba b7 bd 0a 13 6d bd 48 f5 ad 3d a5 a2 6f 3d
       -0.089710616 -0.057879485 0.08494049 0.05850472
000270 45 13 8b bd 3d 33 70 bd a6 fe 94 3c 3d 29 f6 bc
       -0.06790785 -0.058642615 0.018187832 -0.03004896
000280 f6 b2 d4 3c 54 7e 4e 3d be bc 42 be 63 67 83 be
       0.025964241 0.050413445 -0.19017312 -0.25664815
000290 97 7b 98 be 9b 03 b2 be b8 8c f9 be ce 69 a8 be
       -0.29781792 -0.34768376 -0.48740172 -0.32893223
0002a0 5b 08 81 be fe 47 26 be e8 e2 61 bd 1d 1a 9f be
       -0.25201687 -0.162384 -0.055148035 -0.3107461
0002b0 d4 18 af bc c6 e3 9b be 59 aa b5 be 82 2c cc be
       -0.021374144 -0.30447215 -0.35481527 -0.39877707
0002c0 bd bc 91 be ee 92 92 bd 39 60 24 3c c0 f5 75 be
       -0.28464308 -0.07156931 0.010032707 -0.24019527
0002d0 e6 25 bd 3d 19 3d 95 3e 1e 5e bf 3e 43 69 24 bc
       0.09235744 0.29148176 0.37376493 -0.010034862
0002e0 d3 02 36 bd ea c1 97 3e ce b8 37 3e 3f 01 d9 3d
       -0.044436287 0.29640132 0.17941591 0.10595941
0002f0 62 74 94 3d b1 c3 d0 3d 12 02 a8 3d b0 cf 77 3d
       0.07248761 0.10193575 0.0820352 0.0605008
000300 13 4c c4 3d 80 f1 42 3d 56 59 d6 3d a6 d4 90 3d
       0.095848225 0.047593594 0.10466258 0.070718095
000310 47 3e 90 bd 22 bd 19 3e 98 70 35 3e 6e 80 03 3e
       -0.070431285 0.15013555 0.17718732 0.12841961
000320 14 18 c6 3e ff 0e 3f 3e 85 0a 67 3e e7 e4 02 3e
       0.38690245 0.18658064 0.22562607 0.12782632
000330 04 f8 8b bd 25 f3 84 be 7a 1d 89 be 96 a4 74 3d
       -0.068344146 -0.25966755 -0.267803 0.059727274
000340 bd af c4 3d 94 ae b9 bb f5 db a8 3d 3d d4 92 3d
       0.09603832 -0.0056665633 0.082450785 0.071693875
000350 88 04 f6 3b 0a 31 d4 bd 79 99 c6 39 15 e1 9c bd
       0.0075078644 -0.10360916 0.0003787985 -0.076601185
000360 56 53 02 bd 10 f1 d3 bc 4d 26 a4 3d 79 8b 26 3d
       -0.031817757 -0.025871783 0.08015118 0.040660355
000370 5d 4d 1f be 25 8a e8 b9 13 fd b9 3d 4c 7f 16 bd
       -0.15556855 -0.00044353414 0.09081473 -0.036742494
000380 f2 22 9d 3d f6 06 d0 be fc f1 86 bd e7 20 ec be
       0.07672681 -0.4063031 -0.065891236 -0.46118852
000390 04 8f ea be f7 47 b5 be b1 3e ca be 67 b0 c7 bd
       -0.45812237 -0.35406467 -0.39500955 -0.09750443
0003a0 27 fc bd 3d bb 82 49 be c0 03 f9 3d e1 24 13 3e
       0.0927661 -0.19678776 0.121589184 0.14369537
0003b0 ab 2f 77 be 39 4f 10 3e 17 ca 37 3e f8 4f 24 be
       -0.24139278 0.14092721 0.17948185 -0.1604613
0003c0 1c d1 10 3e 41 4f fd bd 04 f9 93 be ac 85 3e bd
       0.14142269 -0.12368632 -0.2890092 -0.0465142
0003d0 5a 26 35 be 68 cf 7c be cb 60 89 bd b5 eb 2a be
       -0.17690411 -0.24688494 -0.06707915 -0.16691478
0003e0 c1 be 03 be b2 07 02 be ad a4 a9 bc 19 0e 52 bd
       -0.12865736 -0.12698248 -0.020708406 -0.051282976
0003f0 27 78 04 bd 0c f2 c8 3c 91 c6 0c bd d9 51 0c 3e
       -0.03234115 0.02452948 -0.034369055 0.13703097

cb1.DepthwiseConv2d.pointwise.weight f4 [128, 64, 1, 1]
000000 0e 4c 99 bc 57 e4 28 be ad f2 19 3d 00 17 fd 3d
       -0.018713024 -0.16493355 0.03758495 0.123579025
000010 f2 18 9f bd 03 ee 11 be 13 87 11 bd a8 84 3e 3d
       -0.0776843 -0.1425095 -0.035529207 0.04651323
000020 8a 41 89 bd cb ef 1e 3e e2 f3 2b be dd 8d c5 3c
       -0.06701954 0.15521161 -0.16792253 0.024115497
000030 7d 4b 94 bd 98 fd 49 be 5b a3 45 3e 55 37 f2 3c
       -0.07240961 -0.19725645 0.19300596 0.0295674
000040 f7 ec 93 3d c0 ae ce 3c bd 0a 78 3d 78 be c5 3d
       0.07222932 0.025229812 0.060557116 0.0965547
000050 f4 08 2f bc 38 9b 92 3e 0c ef 8a 3d 9a 2d fe 3d
       -0.010683287 0.28634048 0.06783876 0.124110416
000060 eb 77 40 3d 06 fc 02 be ba e1 d4 bd da 99 80 3d
       0.046989363 -0.12791452 -0.103946164 0.06279345
000070 a3 69 a7 3d 46 19 53 be 97 31 95 bd ed 1d 35 be
       0.081744455 -0.2061511 -0.07284849 -0.17687197
000080 af 13 cf 3a 26 45 74 be 4a 4c 96 bd 3e 45 01 3e
       0.0015798713 -0.23854503 -0.0733877 0.1262407
000090 46 f4 6a 3e f9 00 09 3e f0 7a c1 3d bc 15 0d 3e
       0.22944745 0.13379277 0.094472766 0.13777822
0000a0 b2 bc 7d 3d e7 06 66 bd c7 29 86 39 1b b3 ab bc
       0.061947532 -0.056158926 0.00025589598 -0.020959428
0000b0 e0 2c 01 3e d9 de ef bd 16 5c 87 3b 1d 48 c2 3d
       0.12614775 -0.11712427 0.0041308505 0.09486411
0000c0 09 82 c2 bd 71 22 81 bc 55 10 6d 3d 58 07 74 3e
       -0.094974585 -0.015763493 0.057876904 0.23830926
0000d0 85 01 a9 bc ff f0 a5 3d 20 2e ba 3c 62 af c4 3d
       -0.020630607 0.08102607 0.022727072 0.09603764
0000e0 eb a0 26 3c c1 07 bb 3b 92 b0 b5 3d 2b a8 a5 3b
       0.010170202 0.0057077114 0.08871569 0.0050554476
0000f0 98 d6 a5 3d 91 05 15 bd 45 16 97 be 52 7a 89 3d
       0.08097571 -0.03638226 -0.29509178 0.06712784
000100 0a 7d 23 bd 29 42 f9 bd 42 73 dd bd 84 d5 8f 3d
       -0.03991417 -0.12170822 -0.10812999 0.07023147
000110 20 a8 07 3e c3 2d 17 bd 87 b4 7a 3e 5b 0d 24 be
       0.13247728 -0.036908876 0.24482928 -0.1602072
000120 8c d9 41 3e 84 e3 18 be ea f8 9e be 67 d9 ad bd
       0.18930644 -0.1493054 -0.3104928 -0.08488732
000130 44 46 77 bd ae b4 26 3b 17 34 36 3e 41 73 fb bd
       -0.060369745 0.0025437283 0.17793308 -0.12277842
000140 05 d9 07 bd 69 6d d0 bd 8a b4 f7 3c 59 6d b6 bd
       -0.03316595 -0.10177118 0.030237455 -0.08907575
000150 05 2c 03 bc c5 8f 9a 3c f3 ec be 3d 88 69 8d 3d
       -0.008006101 0.018867383 0.09322538 0.06904894
000160 eb 47 04 bc 78 68 3c 3c 8a 9a ec bd c6 49 2e 3c
       -0.008073787 0.011499517 -0.115529135 0.010637706
000170 79 36 95 3c 16 d1 2c 3e a2 6b 33 be 96 3c 50 3d
       0.018214451 0.16876635 -0.17521527 0.05083903
000180 2e 85 29 be 74 8f 9c 3e 95 30 80 3d 5d 36 10 3e
       -0.1655471 0.30578196 0.06259266 0.14083238
000190 b8 c1 68 3e 9a 14 23 be ef 20 8d bd 2a fa 07 be
       0.22730148 -0.15925828 -0.06891047 -0.13279024
0001a0 2d 27 77 3d 95 82 3f bb 19 ce c2 3d 1a 80 69 be
       0.060340095 -0.002922212 0.09511966 -0.22802773
0001b0 14 ca 64 3b c6 a3 68 3e 7c 6c 2b 3e e9 b4 69 3d
       0.0034910487 0.22718725 0.16740602 0.057057295
0001c0 31 8b 01 3e f2 91 b8 bd 37 5f f0 bd cd 28 dd bc
       0.12650754 -0.09012212 -0.11736911 -0.026996994
0001d0 de 7d 73 3e 7b cc cf 3d 1c 90 06 be 4f 07 b2 bc
       0.23778483 0.101464234 -0.13140911 -0.021732
0001e0 0c 92 e2 3d 2e 3a 12 be 08 7e f2 bd 8f 5b 8e bd
       0.110630125 -0.14280006 -0.11840445 -0.06951057
0001f0 78 4f f3 bc 6e 00 75 3d 71 e7 af bd 3c 6c 63 bd
       -0.02970098 0.059814863 -0.08589066 -0.055523142
000200 24 fe 3a 3e 3a 22 32 3e 5e 52 10 3c ba 28 59 be
       0.1826101 0.17395869 0.0088087 -0.21206942
000210 a4 9e 3f 3e 13 9f d2 bc ea 0e 63 3d 1a 4b eb bb
       0.1871286 -0.025710618 0.055434145 -0.0071805837
000220 40 e6 14 be 3f d4 8f 3d f4 ec ac 3d 51 b4 00 be
       -0.14540958 0.070229046 0.08443633 -0.12568785
000230 ac 61 22 bd c9 22 6b 3b 11 02 44 bd 2b d8 ad 3d
       -0.03964393 0.0035878888 -0.047853533 0.084884964
000240 19 0c 10 be 3a e0 fd 3c 69 d9 7e 3e df 89 d2 3d
       -0.14067115 0.030990709 0.24887623 0.10280203
000250 16 68 d3 3d f9 92 08 3e b3 1f 9b 3d 5c e1 f5 bd
       0.10322587 0.13337316 0.075744055 -0.120058745
000260 20 ea 72 3e 6d 40 60 3e 1c 97 19 3d e3 6f 18 3e
       0.23722124 0.21899576 0.037497625 0.14886431
000270 04 e7 60 3d c6 df 9c bc de 05 fb bd da 61 36 3e
       0.054907814 -0.019149672 -0.122569785 0.17810765
000280 14 a1 d7 bc e9 85 81 3e 5c fd d2 bd 7f 85 4c be
       -0.026321925 0.25297478 -0.10302231 -0.199728
000290 e3 bd 85 3b fc 42 07 bd 9e a2 47 3e 46 51 d9 be
       0.004081474 -0.033022866 0.19495627 -0.4244482
0002a0 e2 e4 57 3e 1c 4d 26 bd f2 f2 fc 3d fe b9 f2 bd
       0.21083406 -0.04060088 0.12351026 -0.118518814
0002b0 7f 48 6d bd 97 ff ad bd 0c c7 fb bd 71 aa 4a 3d
       -0.057930466 -0.084960155 -0.122938246 0.04947895
0002c0 9e 07 29 bd 17 55 d9 3b 54 03 d0 bd 79 1a d1 3b
       -0.04126703 0.006632458 -0.10156885 0.0063813296
0002d0 2f 87 27 3e 06 69 50 be 02 e4 42 3d 59 1f 11 3e
       0.16360162 -0.20352563 0.047580726 0.14172114
0002e0 73 3e 57 3d 22 c8 00 bd 08 b1 b8 3d e9 38 e7 bc
       0.05254979 -0.03144086 0.09018141 -0.028225379
0002f0 bd ab 06 be 6e aa 31 3b 6f 64 18 be ff 7a 17 be
       -0.1315145 0.002710964 -0.14882062 -0.14793013
000300 9b 87 9d 3e 27 69 bf bd 85 ec 2b 3c e2 dd 0d 3d
       0.3076752 -0.09346228 0.010493402 0.034635432
000310 a4 68 65 3d f0 95 b6 3d 7a ad be 3d a6 f3 88 3d
       0.056007996 0.08915317 0.09310432 0.06687097
000320 9e 51 98 bd 55 a2 16 3e bf 52 e6 bd 38 96 9b 3c
       -0.07437442 0.14710362 -0.11246251 0.018992528
000330 03 d0 b5 3d 9f 88 6d be ca b3 b4 3d b5 1e 98 3d
       0.08877566 -0.23196648 0.088233545 0.07427732
000340 68 55 a7 be e2 a9 9f be ec 3d 27 bd e0 bb b1 3d
       -0.32682347 -0.31184298 -0.040830538 0.086784124
000350 e7 2a 6f bd f1 fe 57 be 55 2e 46 be 0d 28 2c bd
       -0.058390524 -0.21093346 -0.19353612 -0.042030383
000360 b8 04 bf 3c e8 c9 9e bd 4b c2 14 bd d4 10 62 3d
       0.02331768 -0.07753354 -0.036318105 0.05519183
000370 ac b5 87 bd ff 56 cd 3c 87 14 82 3e c0 31 e0 3d
       -0.06626448 0.025065897 0.25406286 0.10946989
000380 28 dc a0 bc cf 7c d2 3d b8 9b 5d be 89 a9 5e 3e
       -0.019636229 0.102777116 -0.21641433 0.2174436
000390 d0 47 cb bd 5d dc e9 3d 49 45 d7 bc 60 4b 78 be
       -0.099258065 0.11418984 -0.026278155 -0.24247503
0003a0 c9 c8 59 be 65 b7 4c bc c5 97 4f 3e bc 1c d2 3c
       -0.21268 -0.012494897 0.20272739 0.025648467
0003b0 68 6a 18 3e 95 05 5f 3e 1a ca 3d bd 37 28 38 3d
       0.14884341 0.21779473 -0.046335317 0.044960227
0003c0 c3 59 a8 3b 0a 58 85 bd 0d a1 1e bd 57 89 80 3a
       0.0051376536 -0.06510933 -0.03872781 0.0009806555
0003d0 40 2e d4 bd 43 aa 7f be cc 6f 4b bd 53 fc 2a bd
       -0.10360384 -0.24967293 -0.049667165 -0.04174454
0003e0 ce d4 e3 bb 90 2d 0a 3d 34 81 d9 3c 32 eb 55 bc
       -0.0069528585 0.033734858 0.026550867 -0.013056563
0003f0 61 15 ca 3d a2 65 28 be a2 94 2a 3d b1 41 8f b9
       0.09867359 -0.1644502 0.041645654 -0.0002732403

cb1.DepthwiseConv2d.pointwise.bias f4 [128]
000000 59 fa 79 be 81 3a d8 3b 8e 61 20 3e 19 75 31 be
       -0.24411906 0.006598771 0.15662214 -0.17329825
000010 97 ee b2 bd 1f 18 0f be 5d 7a 36 3e 3a e6 ad 3e
       -0.08736914 -0.13974045 0.17820115 0.3396471
000020 89 ac 76 bd 00 af 17 3e 9d ec bb 3c 7e 0f e7 be
       -0.060223136 0.14812851 0.022939974 -0.45129007
000030 9c a4 2d bd 74 fc 66 3d 79 0a 0e bc c3 da 28 3e
       -0.04239331 0.0563931 -0.008669489 0.16489701
000040 e6 c6 b9 3c e5 62 fe bc 99 b8 a6 3d 0a 34 13 3d
       0.02267785 -0.031053016 0.08140678 0.0359383
000050 8f b5 b2 bc ae 0c 7e bd c4 a3 03 bd 73 5d 94 3d
       -0.02181509 -0.06202381 -0.0321386 0.072443865
000060 a5 fc 10 3d f3 35 98 3d a8 1e d5 3c 0c 2b 9a 3d
       0.03539719 0.07432165 0.026015595 0.07527742
000070 d4 88 26 be 47 6d bb 3b 9d 24 ae bd f8 e1 1c 3d
       -0.16263133 0.005719814 -0.08503077 0.038301438
000080 72 23 f7 3d d4 a4 f1 bd b3 b7 54 3d be c0 3d be
       0.120673075 -0.117990166 0.051933 -0.18530557
000090 60 e0 20 3d 9e 3d c2 3c 36 48 ae bd f8 22 18 3e
       0.03927648 0.023711022 -0.08509867 0.1485709
0000a0 cd bc 88 3d 75 ae bb 3c 8a bb a8 3e 6d 75 bc 3d
       0.06676636 0.022910336 0.3295558 0.09202085
0000b0 ee f0 85 3d 1d e7 24 3f 56 35 7c be a0 cf f2 bb
       0.06540094 0.6441515 -0.24629721 -0.0074100047
0000c0 19 1d 55 bd e2 a8 12 3e 9f c3 94 bd ff 2c 24 3d
       -0.052029703 0.14322236 -0.07263874 0.040081974
0000d0 af bd 11 bd 84 4a c3 bd 42 f6 43 3e 9a b3 17 3d
       -0.035581287 -0.09535697 0.19136909 0.037036516
0000e0 be 2b 87 bd d0 e9 b8 3c ab c9 f6 bd d4 e2 8c 3e
       -0.0660014 0.022572428 -0.12050184 0.27516806
0000f0 f0 3c 8a bc 69 88 0b bc c3 40 69 3d 85 62 1e 3e
       -0.01687476 -0.008516409 0.056946527 0.1546727
000100 9c 21 bd 3d 4f bd ad bd ba 3e e8 3d 99 10 c4 bb
       0.09234926 -0.084833734 0.11340089 -0.005983424
000110 67 98 25 be 74 79 20 bd 0d ba b2 bd 87 cf 92 bc
       -0.16171418 -0.039178327 -0.087268926 -0.017921222
000120 7e 0f 53 be e5 d8 be bd cb 35 a3 3e bf 02 80 bd
       -0.20611379 -0.09318713 0.31876978 -0.06250524
000130 0c 7c ed bc ac b3 bc 3d 8f 5f aa 3d 0b 13 ec bc
       -0.028989814 0.09213957 0.083190076 -0.028817674
000140 4a 94 8e 3e 30 e0 5c 3d e3 bf b4 bd d4 eb 38 bc
       0.2784751 0.05392474 -0.08825662 -0.011286695
000150 2f f3 a5 3e 50 1c 6e bd 42 e1 c4 3c dd 0e a7 be
       0.32412097 -0.05813247 0.024033193 -0.32628527
000160 ab e0 fa 3c 43 9a c7 3d 04 6b ce 3b 91 d3 a8 3e
       0.030624708 0.0974622 0.0062993784 0.32973912
000170 85 9c 0a 3d ab b7 e9 3e a6 67 56 3e fb fd b9 bd
       0.033840675 0.4564794 0.20937976 -0.09081646
000180 04 45 d2 3d ed cd cd bd e4 d6 a4 3e 78 07 82 bb
       0.1026707 -0.10049043 0.321952 -0.0039681755
000190 43 d3 93 bd 02 ba ef bd c2 9d 2c 3d 63 98 96 3d
       -0.07218029 -0.117054 0.042142637 0.07353284
0001a0 1a 8d b2 bd 97 b7 6e bd e9 e7 bf bd d1 57 f7 bd
       -0.08718319 -0.058280554 -0.09370405 -0.120772965
0001b0 eb cd 59 3d a9 78 27 bd 1a 3f 7c bd 2a fa fa bd
       0.053174894 -0.040886555 -0.061583616 -0.12254746
0001c0 de 25 47 be 1f 7f f9 bb 15 df c0 3c d3 9b 76 3b
       -0.19448039 -0.007614031 0.023543874 0.00376295
0001d0 5b 14 5b 3e 59 79 0a 3e 6b 24 7a 3d d7 74 6b bd
       0.21394484 0.13522853 0.061069887 -0.057484474
0001e0 3b 57 01 3d 6e 29 58 3d 98 98 80 3c 5c c3 16 be
       0.03157733 0.052773885 0.015697762 -0.14722961
0001f0 49 5a 19 3e 8e f3 16 3e 1b f0 04 bd 27 30 dc bb
       0.14975847 0.14741346 -0.032455545 -0.0067196074

res1.0.conv1.depthwise.weight f4 [128, 1, 3, 3]
000000 ab 57 6b bd d9 2c 33 bd c2 5a b7 3c 6b b9 27 3d
       -0.057456654 -0.043743942 0.022382144 0.040948313
000010 fb 72 65 bc 63 a7 60 bd ed 06 59 bd db 4d 1b 3d
       -0.014004464 -0.054847132 -0.05298512 0.037916046
000020 94 43 be 3c 14 c1 83 bc 43 fb 95 bc cd 0e c4 bc
       0.023225583 -0.016083278 -0.018308287 -0.023932839
000030 93 0d c4 bd db 94 0d 3b 28 ac ad 3c 9d 0b 30 bc
       -0.095729016 0.0021603617 0.021200255 -0.010744956
000040 89 17 c7 3b 5e 9b 4f 3c 77 f9 04 bd c4 5c 1d 3d
       0.0060758037 0.01267132 -0.03246447 0.038418546
000050 84 6f ed bc 98 89 26 3c 2a d7 07 3d 73 47 d9 bc
       -0.028983839 0.010164641 0.03316418 -0.026523327
000060 9b e6 fb 3c 18 ad 3e 3a 66 79 d9 bc 79 8f c9 3c
       0.03074961 0.0007273718 -0.026547145 0.024604546
000070 f1 08 2c 3c 5d ff e0 bc c0 29 0d bd 2b a9 57 bd
       0.010500179 -0.027465517 -0.034463644 -0.052651566
000080 9b 19 d8 3c 70 38 35 3d 27 45 08 be ab a8 2c 3d
       0.026379397 0.044243276 -0.1330763 0.04215304
000090 ea 0d 90 3d bd d4 55 3b 0a 31 96 bc e1 75 3a bd
       0.07033904 0.0032628023 -0.01833393 -0.045522574
0000a0 b5 a0 ec bb 52 7b 71 bd a9 6e d5 3b 67 76 83 bd
       -0.007221306 -0.058955498 0.006513436 -0.06419068
0000b0 9f c3 b9 bc f2 c0 9d 3b 10 dc e5 3b f9 5d 22 ba
       -0.022676287 0.0048142606 0.007014759 -0.00061938126
0000c0 08 6b 62 bd cf a7 20 3d cb 91 3f 3d 51 b0 8a ba
       -0.055277854 0.039222535 0.0467699 -0.0010581111
0000d0 8e 20 f4 bc 14 89 c0 bc a0 2e 63 3b 2a 49 00 ba
       -0.02980068 -0.023502864 0.0034665242 -0.0004893715
0000e0 aa b6 3b 3c 63 1c 88 3d 81 8f 70 bd 2d de 8e bd
       0.011457125 0.06646039 -0.058730606 -0.069759704
0000f0 a9 7b 56 3d 5f d6 a3 3b 31 ae ee bc c0 76 47 bc
       0.052364025 0.0049999203 -0.029135795 -0.012174308
000100 81 d5 7b 3c f8 c3 82 bb d6 5f a3 ba 7c 2e a2 3d
       0.0153707275 -0.0039906465 -0.0012464474 0.079190224
000110 1d a6 33 bc 04 11 18 3d 21 76 8f 3c b8 c5 aa 3d
       -0.010964897 0.037125602 0.017512383 0.08338493
000120 e3 06 1e 3d df e0 9e bd f1 39 87 bc a8 83 14 bd
       0.038580786 -0.077577345 -0.01650712 -0.03625837
000130 6e 6f d8 3c 84 15 aa 3d b5 e4 80 bc cc 74 93 bd
       0.026420321 0.08304885 -0.015734056 -0.072000116
000140 bc 51 7c 3d f6 9c 2c 3d a1 19 d9 bc c4 26 16 3d
       0.061601385 0.042141877 -0.026501479 0.036658064
000150 ff a8 3b 3d ab 7b 36 bd b5 60 95 bd 75 c1 37 bb
       0.045815464 -0.044551533 -0.07293836 -0.0028038893
000160 7e 66 9e bc de b0 3e 3c c2 a1 46 bc 2a 93 c9 3c
       -0.019335981 0.011638848 -0.012123527 0.024606306
000170 70 36 ac bc da 20 f8 3c 01 e8 70 3d 54 f2 b0 bd
       -0.021022052 0.030289102 0.058815006 -0.086399704
000180 52 07 12 3d fb 0f 44 3d 95 84 d7 bb 74 e1 e7 3a
       0.035651512 0.047866803 -0.0065770843 0.0017691092
000190 a7 d6 89 ba da 5f 10 3c 37 55 72 3b ec 1a 02 bd
       -0.0010516242 0.008811915 0.0036977062 -0.031763956
0001a0 bd 1e 0b 3d 1d 5e ad 3c 43 95 46 3c b2 70 8f bc
       0.03396486 0.02116304 0.012120548 -0.017509792
0001b0 e9 29 d7 bc 21 ba ad b8 e8 e0 87 3d b6 b8 f9 bc
       -0.026265102 -8.283952e-05 0.06634694 -0.030483585
0001c0 a3 5f b3 bc 5e 14 86 3d d1 9a 1b 3d a1 d1 9a bd
       -0.02189619 0.065468535 0.03798944 -0.07559515
0001d0 25 9f d5 bc 55 f6 90 bc 53 db 65 bd 80 6a 18 bd
       -0.026076863 -0.017695585 -0.056117367 -0.03721094
0001e0 46 39 5f 3c 1e 8c 57 bd 7d 19 90 bc 07 d2 a8 bb
       0.013624495 -0.05262386 -0.017590279 -0.0051519903
0001f0 cb a1 aa 3c c7 a2 17 bd 31 d0 cc 3c 63 e2 4d 3d
       0.020829102 -0.03702047 0.025001617 0.050264727
000200 e0 a4 2b bc 92 7b be bc a9 01 1e 3c 87 d4 1f 3c
       -0.010476321 -0.023252282 0.0096439505 0.00975526
000210 d0 8a ef 3c 74 a7 25 3d 8c a7 73 3d 7d 3a 58 bd
       0.029240996 0.0404429 0.059485957 -0.052790154
000220 3e d5 45 bc 29 19 00 bd 1e 88 47 bc 18 47 da 3c
       -0.012074767 -0.031273995 -0.012178449 0.026645228
000230 d1 57 2d 3d ae 79 37 3d 1b b5 38 bc df 2a 04 3d
       0.042320076 0.044793777 -0.011273648 0.032267448
000240 0a a7 98 ba a9 b8 b6 bc 07 2e 5b 3d 90 83 91 3c
       -0.0011646461 -0.02230485 0.053510692 0.01776293
000250 20 df 2d bc 84 94 a5 3c fb 4c b1 bc 52 ea 9c bd
       -0.010612279 0.02021242 -0.021643152 -0.076618806
000260 5d 9c 1c 3d 2e 8d 2d bb 43 dd 3c 3d 0f 3a f7 bb
       0.038235057 -0.0026481855 0.04610945 -0.007544763
000270 aa e9 ef bc 08 56 03 3c e1 cc 88 3d c9 0c 60 bd
       -0.029286224 0.008016117 0.066797026 -0.054699693
000280 ff 22 70 3b 4c b9 4d 3d f9 63 2c bb 91 22 0c bd
       0.0036641953 0.05022554 -0.0026304706 -0.034212653
000290 10 48 39 bc f3 e4 84 3d b3 3a 79 3b c3 b3 0a bd
       -0.011308685 0.06488981 0.0038029372 -0.03386284
0002a0 78 07 52 bc cc 45 bf bc 19 1a 06 bd 0b 75 23 bd
       -0.0128191635 -0.023348711 -0.032739732 -0.039906543
0002b0 47 73 0e bd 9c 4b 41 bc 3d ff e7 3c 0a cd ce 3b
       -0.034777906 -0.011797812 0.02831995 0.0063110637
0002c0 61 87 78 3c 80 5e a0 3b 5e 6d bd bc b8 67 da 3c
       0.015168996 0.004894078 -0.02312344 0.026660785
0002d0 7a a2 e7 3c 84 fc 45 bc 8a 15 e6 3c 8b 1c 00 bd
       0.028275717 -0.01208413 0.028086443 -0.03127722
0002e0 54 cd cb bc df a4 9e 3b ce a3 ed 3c c8 a8 0f 3d
       -0.024878182 0.0048414315 0.029008772 0.03507307
0002f0 81 89 3e 3b e3 68 64 3d 96 79 3f bd 7b 97 14 3d
       0.0029073658 0.05576409 -0.046746813 0.036277276
000300 f2 04 c9 3d 3e dd e1 bd 03 c8 86 bd 40 06 b1 bc
       0.09815396 -0.11028527 -0.06581118 -0.021609426
000310 5f ca 8a bc 8b 79 e7 3c 7a 46 c8 bc 6b 73 c3 bc
       -0.016942201 0.028256198 -0.024447668 -0.023858747
000320 91 e7 9f bc 18 5c 04 bd 82 49 18 3d 67 8d a5 3c
       -0.0195196 -0.03231439 0.037179478 0.020209027
000330 2c 6a 69 bd 33 3a 1b bd 2d c0 6f 3d ad 1c f7 bd
       -0.05698602 -0.0378973 0.058532882 -0.12066016
000340 8c e2 81 bd ab 8d 2c 3c 7a cf a2 3c 2e 60 b6 bc
       -0.063420385 0.010531823 0.019874323 -0.022262659
000350 14 0a 8f 3b 97 f8 9a bc 7e 9f bf bc 6b 21 70 ba
       0.004365215 -0.018917365 -0.023391481 -0.0009160253
000360 e7 d9 4c 3d 0d 08 8c bd d3 8f 09 3d c9 0e ee 3a
       0.050012495 -0.06837473 0.033584427 0.0018162365
000370 1e e0 a1 3d 6b 38 b1 3c 47 96 80 bc ee 99 82 3c
       0.07904075 0.021633347 -0.015696658 0.01594254
000380 01 d4 06 bd 3c be 66 bc f6 7d 4b 3d 05 b3 ac 3b
       -0.032917026 -0.014083441 0.049680673 0.005270364
000390 ec be c5 bc 46 0e 32 3b 5d e5 24 3d 1b 65 8d 3d
       -0.02413889 0.0027169152 0.0402578 0.0690405
0003a0 07 3a 9a bd 52 4c 13 bd 6c b9 54 bd 8c 49 cd bd
       -0.07530599 -0.035961457 -0.051934645 -0.100237936
0003b0 d8 9f 77 bc 6c 81 d2 bd 98 ea 4d bc cd 1a d2 bd
       -0.015113793 -0.102785915 -0.012568139 -0.10259018
0003c0 52 d5 7c ba 7d 08 6b 3b 8e 95 51 3d a5 9f 12 3d
       -0.00096448243 0.0035863214 0.051168017 0.03579678
0003d0 e2 4d 73 bc df b0 d3 bc 90 14 ff bb 30 bd ab 3c
       -0.014850112 -0.025841175 -0.0077844337 0.020964235
0003e0 6f eb 16 3d 87 ab ac bc 2b 78 15 3c 1c 7f 84 bc
       0.03684562 -0.021077884 0.009122889 -0.016173892
0003f0 ad c8 e9 3c ea 5b b7 bd d3 06 41 bd 62 02 ce 3c
       0.028538072 -0.08953078 -0.04712565 0.02514762

res1.0.conv1.pointwise.weight f4 [128, 128, 1, 1]
000000 6f f3 62 3e f2 c8 1f be 8b d1 28 be 91 d6 4b 3d
       0.22163175 -0.15603998 -0.16486184 0.049765173
000010 70 96 0b 3e 8a d4 bf bd 2e 1b 37 be 31 79 27 bd
       0.13631606 -0.093667105 -0.17881462 -0.04088706
000020 cd b9 87 3c 25 e5 89 bb 47 b2 5b 3e cb 3e 74 bc
       0.016568089 -0.0042082244 0.21454726 -0.014907549
000030 74 3a 0b 3d f3 92 e6 bd 46 d1 7a bd ef 2b 41 be
       0.033991292 -0.11258497 -0.061234735 -0.18864416
000040 6b 70 19 bc 36 f4 55 bd ea 10 14 3e 31 bc 98 bd
       -0.009365181 -0.05223485 0.14459577 -0.0745777
000050 26 af 70 be f5 6e 92 bc df 3a 0e 3d 48 98 76 be
       -0.23504314 -0.017875174 0.034724113 -0.24081528
000060 da 3a 47 bd 54 5b c3 bd b6 b8 9f bd 76 9c b1 3d
       -0.04864011 -0.09538904 -0.07798903 0.08672421
000070 d8 ad 68 bd bc 93 7b 3e 51 7b 2d 3d eb b4 cf bd
       -0.056806415 0.24568075 0.04235393 -0.10141929
000080 71 19 1b bd 67 e7 b3 3d 37 51 06 be 93 45 8c bd
       -0.03786606 0.08784371 -0.13116919 -0.06849208
000090 ab 5c 44 be 65 29 8e 3d 04 3a c0 3d bd c4 d1 bd
       -0.19175975 0.06941489 0.093860656 -0.10242603
0000a0 cd 1e 5c 3e 09 a4 9c 3e 38 0f 8a 3d ce c6 15 bc
       0.21496125 0.305939 0.06741184 -0.009141637
0000b0 fb e3 85 bc 05 a3 9e 3d 18 2f 33 be 16 4c 95 3d
       -0.016344061 0.07745937 -0.17498434 0.07289903
0000c0 46 d5 47 bd b6 93 41 3d f6 a1 6b 3d 3b 14 08 3d
       -0.048787378 0.04726001 0.057527505 0.03322242
0000d0 be 96 0a 3d ba a9 fa bd a5 8d be bd 60 bf 0f bd
       0.033835165 -0.12239404 -0.0930436 -0.03509462
0000e0 d3 4c 37 3b ec 3a ff 3d e2 6f 0d be 52 19 a0 3d
       0.0027969375 0.1246241 -0.13812211 0.078173295
0000f0 9c d2 5d be de b9 d2 bd 4d 9c 1e 3e 31 00 ee bd
       -0.21662372 -0.102893576 0.15489312 -0.1162113
000100 5e d9 12 3e ba 37 01 bd 75 c7 41 3e fa 82 e7 bd
       0.14340732 -0.031547286 0.18923743 -0.11304279
000110 53 1c 58 3e 35 61 33 3d 64 c3 e0 3d 61 a0 d8 bd
       0.21104555 0.043793876 0.10974768 -0.10577465
000120 d4 e9 3c 3e 90 49 e5 bd 0e ec 90 be 7a e4 23 bd
       0.18448573 -0.111956716 -0.28305095 -0.040012814
000130 ff ca a4 3d 8f ab bc be 40 4d 5a 3d 68 42 e1 3d
       0.08046531 -0.3684964 0.053296328 0.10998994
000140 b6 ff c1 3d 85 13 4e bd 52 b9 69 be 4b 95 ac bd
       0.09472601 -0.050311584 -0.228246 -0.08426913
000150 38 22 3b 3e 67 46 0b be 03 45 25 3d 24 2a c0 bd
       0.18274772 -0.13601075 0.040349018 -0.09383038
000160 90 12 ed 3c 5d 23 c4 3c e8 62 fb bc 19 0d ba 3c
       0.028939515 0.023942644 -0.03068681 0.022711324
000170 6f dc 02 be 8b cf 6f bd 63 6d 16 be a8 b6 cc 3d
       -0.12779401 -0.058547538 -0.14690165 0.099957764
000180 5f 88 1b 3e b9 bd 2f bd 1c d9 1d 3e 9e 17 15 be
       0.1518874 -0.042905543 0.15414852 -0.1455979
000190 dd 09 25 3e 8b a9 11 3d 02 b5 19 be 55 b0 6b bd
       0.16117044 0.03556208 -0.15010455 -0.05754121
0001a0 6d cc d0 3d a6 70 70 bd a0 10 44 bc 61 ed 1d 3d
       0.10195241 -0.05870118 -0.011966854 0.03855646
0001b0 fa f3 5e 3c 1a 10 03 bd b2 71 e4 bd 69 3e 17 3e
       0.013607973 -0.031997778 -0.11154498 0.14769901
0001c0 70 dd e2 3c 56 69 39 bc 60 df 0d be f9 d4 e9 bd
       0.02769348 -0.011316618 -0.13854742 -0.114175744
0001d0 56 82 06 3e 53 13 9a be 61 6f b3 bd 50 a7 7f 3b
       0.13135657 -0.30092868 -0.08761478 0.0039009638
0001e0 0e 67 c7 bd aa c3 80 be b6 9a fa bc 68 e2 18 3e
       -0.09736453 -0.2514928 -0.03059135 0.14930117
0001f0 87 a9 63 be 59 f9 8c bd 7f 28 0a 3e 36 92 97 3d
       -0.22232638 -0.06883497 0.1349201 0.074009344
000200 8b 91 93 bc ea 57 ea 3d 3a 7e ce bc f2 3c 2f bd
       -0.018013736 0.114425495 -0.025206674 -0.04278273
000210 60 3e ff 3d ca 04 dc bd ca 98 39 3d 03 a0 86 3d
       0.12463069 -0.10743101 0.045311727 0.065734886
000220 0b 2f 66 be cb 64 49 3d 81 e4 0e 3d 8f 8b 5f 3d
       -0.22478883 0.04916839 0.034885887 0.054576453
000230 74 06 d8 3d c3 b5 c7 bd bb 71 d0 bc 95 8b 1a 3d
       0.10548106 -0.09751465 -0.025444856 0.037730772
000240 39 99 08 be aa 77 30 be 7e 0f 4f bd 58 db 22 3e
       -0.133397 -0.17233148 -0.050551884 0.15903986
000250 63 ed cc 3d 49 0a 3e bc 44 d1 2f 3e f2 72 2c 3c
       0.100062154 -0.011599132 0.17169672 0.010525452
000260 1e 4c c2 3d e0 ea f0 bd 00 89 89 3e 94 a9 03 bd
       0.094871745 -0.11763549 0.26862335 -0.032144144
000270 8e 15 9e bd a3 b1 ba 3c 71 9f 19 be 60 75 ed bd
       -0.07718955 0.022789782 -0.15002228 -0.11594653
000280 2a 4d 4a 3d ba aa 9b be 45 a1 7d 3d 42 55 68 bc
       0.049389996 -0.30403692 0.061921377 -0.014180483
000290 12 90 dd bd 24 d7 9f 3d 75 4d 12 3e e8 21 2c 3e
       -0.10818495 0.07804707 0.1428736 0.16809809
0002a0 4b fe 56 be 51 b8 8d 3d 33 27 a7 bd 81 42 43 bc
       -0.20995443 0.06919921 -0.081617735 -0.011917711
0002b0 0c f8 8f bd fb 5d 0f bc cc e8 fb bd f4 68 a4 bd
       -0.07029733 -0.008750434 -0.12300262 -0.08027831
0002c0 c8 ae 4d 3d fa b4 a8 bc 12 7e 08 3d 1f b5 67 be
       0.050215513 -0.020594109 0.033323355 -0.22627686
0002d0 04 ca a5 3c c8 2a 76 3d 23 31 5f be ba fb 28 3e
       0.02023793 0.060099393 -0.21796088 0.16502276
0002e0 e6 54 5c 3e cb a4 7e 3c c5 88 eb 3c 31 f5 3f 3e
       0.21516761 0.015542219 0.02875174 0.18745877
0002f0 79 12 96 bd 24 94 a8 3e 0e 1f 52 3c 8f 5f 03 3e
       -0.07327742 0.32925522 0.012824787 0.12829421
000300 b9 0f 16 3e b7 09 b9 3d 59 54 0d 3e 27 e1 34 be
       0.14654435 0.09035056 0.13801707 -0.17664014
000310 94 0f 8a bd 0d 72 7b 3c 14 81 a5 bd 69 4c 70 3c
       -0.067412525 0.015347016 -0.0808126 0.014666655
000320 86 b5 06 be 72 7d 17 be cb fa cd 3d d0 48 d0 3d
       -0.13155183 -0.14793947 0.100576006 0.10170138
000330 75 fb d1 3d 6e 98 b8 3c ff c6 9e bd 21 8e f9 3d
       0.1025304 0.022533622 -0.07752799 0.12185312
000340 a1 5d 17 bd 53 bd 2c 3e 0e 62 c0 bd 05 96 2b 3e
       -0.036954526 0.16869096 -0.093937024 0.16756447
000350 53 0a 4b be 9c 16 a1 be 4b a5 1b be 58 28 f8 bb
       -0.19828157 -0.31462562 -0.15199773 -0.0075731687
000360 5b c4 18 3e 88 ee 8b 3d de 92 ba 3c 11 f8 8d 3c
       0.14918654 0.068326056 0.02277511 0.017330201
000370 72 0f 26 3e 92 c7 34 3e a9 5b de bd 48 52 ee 3d
       0.1621683 0.17654255 -0.108573265 0.11636788
000380 97 86 de bb 4c 4c 1c 3d 35 c0 11 be b3 9c d8 bd
       -0.0067909467 0.0381587 -0.14233477 -0.10576763
000390 8f 71 aa 3d ef 82 90 bd cf 46 c2 3d 76 86 4e 3d
       0.08322441 -0.070562236 0.09486162 0.0504212
0003a0 63 70 a1 3d ff cf 70 3d 36 de e5 bd 0c 6f 7e 3d
       0.07882764 0.05879211 -0.11224024 0.06211762
0003b0 37 8b 16 3e d9 84 2e be 82 7b 97 be a8 24 7b 3d
       0.14701544 -0.17042865 -0.29586416 0.061314255
0003c0 78 0f 8d bc bd 28 10 be f1 01 e5 3c df 2d 84 bd
       -0.01721929 -0.1407804 0.027955027 -0.06454062
0003d0 3c 65 73 3d 25 eb 5f be 88 51 b8 bd b5 df 8f bc
       0.059422716 -0.21867044 -0.08999926 -0.017562727
0003e0 7f c2 b1 3d e8 c6 ff bc 31 4e c1 bd 96 76 a1 bd
       0.08679675 -0.031222776 -0.09438742 -0.078839466
0003f0 7f 8c 1e 3d b7 4c aa bc be c3 82 3d 93 ad 1f be
       0.038708206 -0.020788534 0.06384991 -0.15593557

res1.0.conv1.pointwise.bias f4 [128]
000000 00 00 00 00 00 00 00 00 00 00 00 00 00 00 00 00
       0.0 0.0 0.0 0.0
000010 00 00 00 00 00 00 00 00 00 00 00 00 00 00 00 00
       0.0 0.0 0.0 0.0
000020 00 00 00 00 00 00 00 00 00 00 00 00 00 00 00 00
       0.0 0.0 0.0 0.0
000030 00 00 00 00 00 00 00 00 00 00 00 00 00 00 00 00
       0.0 0.0 0.0 0.0
000040 00 00 00 00 00 00 00 00 00 00 00 00 00 00 00 00
       0.0 0.0 0.0 0.0
000050 00 00 00 00 00 00 00 00 00 00 00 00 00 00 00 00
       0.0 0.0 0.0 0.0
000060 00 00 00 00 00 00 00 00 00 00 00 00 00 00 00 00
       0.0 0.0 0.0 0.0
000070 00 00 00 00 00 00 00 00 00 00 00 00 00 00 00 00
       0.0 0.0 0.0 0.0
000080 00 00 00 00 00 00 00 00 00 00 00 00 00 00 00 00
       0.0 0.0 0.0 0.0
000090 00 00 00 00 00 00 00 00 00 00 00 00 00 00 00 00
       0.0 0.0 0.0 0.0
0000a0 00 00 00 00 00 00 00 00 00 00 00 00 00 00 00 00
       0.0 0.0 0.0 0.0
0000b0 00 00 00 00 00 00 00 00 00 00 00 00 00 00 00 00
       0.0 0.0 0.0 0.0
0000c0 00 00 00 00 00 00 00 00 00 00 00 00 00 00 00 00
       0.0 0.0 0.0 0.0
0000d0 00 00 00 00 00 00 00 00 00 00 00 00 00 00 00 00
       0.0 0.0 0.0 0.0
0000e0 00 00 00 00 00 00 00 00 00 00 00 00 00 00 00 00
       0.0 0.0 0.0 0.0
0000f0 00 00 00 00 00 00 00 00 00 00 00 00 00 00 00 00
       0.0 0.0 0.0 0.0
000100 00 00 00 00 00 00 00 00 00 00 00 00 00 00 00 00
       0.0 0.0 0.0 0.0
000110 00 00 00 00 00 00 00 00 00 00 00 00 00 00 00 00
       0.0 0.0 0.0 0.0
000120 00 00 00 00 00 00 00 00 00 00 00 00 00 00 00 00
       0.0 0.0 0.0 0.0
000130 00 00 00 00 00 00 00 00 00 00 00 00 00 00 00 00
       0.0 0.0 0.0 0.0
000140 00 00 00 00 00 00 00 00 00 00 00 00 00 00 00 00
       0.0 0.0 0.0 0.0
000150 00 00 00 00 00 00 00 00 00 00 00 00 00 00 00 00
       0.0 0.0 0.0 0.0
000160 00 00 00 00 00 00 00 00 00 00 00 00 00 00 00 00
       0.0 0.0 0.0 0.0
000170 00 00 00 00 00 00 00 00 00 00 00 00 00 00 00 00
       0.0 0.0 0.0 0.0
000180 00 00 00 00 00 00 00 00 00 00 00 00 00 00 00 00
       0.0 0.0 0.0 0.0
000190 00 00 00 00 00 00 00 00 00 00 00 00 00 00 00 00
       0.0 0.0 0.0 0.0
0001a0 00 00 00 00 00 00 00 00 00 00 00 00 00 00 00 00
       0.0 0.0 0.0 0.0
0001b0 00 00 00 00 00 00 00 00 00 00 00 00 00 00 00 00
       0.0 0.0 0.0 0.0
0001c0 00 00 00 00 00 00 00 00 00 00 00 00 00 00 00 00
       0.0 0.0 0.0 0.0
0001d0 00 00 00 00 00 00 00 00 00 00 00 00 00 00 00 00
       0.0 0.0 0.0 0.0
0001e0 00 00 00 00 00 00 00 00 00 00 00 00 00 00 00 00
       0.0 0.0 0.0 0.0
0001f0 00 00 00 00 00 00 00 00 00 00 00 00 00 00 00 00
       0.0 0.0 0.0 0.0

res1.0.bn1.weight f4 [128]
000000 00 00 00 00 00 00 00 00 00 00 00 00 00 00 00 00
       0.0 0.0 0.0 0.0
000010 00 00 00 00 00 00 00 00 00 00 00 00 00 00 00 00
       0.0 0.0 0.0 0.0
000020 00 00 00 00 00 00 00 00 00 00 00 00 00 00 00 00
       0.0 0.0 0.0 0.0
000030 00 00 00 00 00 00 00 00 00 00 00 00 00 00 00 00
       0.0 0.0 0.0 0.0
000040 00 00 00 00 00 00 00 00 00 00 00 00 00 00 00 00
       0.0 0.0 0.0 0.0
000050 00 00 00 00 00 00 00 00 00 00 00 00 00 00 00 00
       0.0 0.0 0.0 0.0
000060 00 00 00 00 00 00 00 00 00 00 00 00 00 00 00 00
       0.0 0.0 0.0 0.0
000070 00 00 00 00 00 00 00 00 00 00 00 00 00 00 00 00
       0.0 0.0 0.0 0.0
000080 00 00 00 00 00 00 00 00 00 00 00 00 00 00 00 00
       0.0 0.0 0.0 0.0
000090 00 00 00 00 00 00 00 00 00 00 00 00 00 00 00 00
       0.0 0.0 0.0 0.0
0000a0 00 00 00 00 00 00 00 00 00 00 00 00 00 00 00 00
       0.0 0.0 0.0 0.0
0000b0 00 00 00 00 00 00 00 00 00 00 00 00 00 00 00 00
       0.0 0.0 0.0 0.0
0000c0 00 00 00 00 00 00 00 00 00 00 00 00 00 00 00 00
       0.0 0.0 0.0 0.0
0000d0 00 00 00 00 00 00 00 00 00 00 00 00 00 00 00 00
       0.0 0.0 0.0 0.0
0000e0 00 00 00 00 00 00 00 00 00 00 00 00 00 00 00 00
       0.0 0.0 0.0 0.0
0000f0 00 00 00 00 00 00 00 00 00 00 00 00 00 00 00 00
       0.0 0.0 0.0 0.0
000100 00 00 00 00 00 00 00 00 00 00 00 00 00 00 00 00
       0.0 0.0 0.0 0.0
000110 00 00 00 00 00 00 00 00 00 00 00 00 00 00 00 00
       0.0 0.0 0.0 0.0
000120 00 00 00 00 00 00 00 00 00 00 00 00 00 00 00 00
       0.0 0.0 0.0 0.0
000130 00 00 00 00 00 00 00 00 00 00 00 00 00 00 00 00
       0.0 0.0 0.0 0.0
000140 00 00 00 00 00 00 00 00 00 00 00 00 00 00 00 00
       0.0 0.0 0.0 0.0
000150 00 00 00 00 00 00 00 00 00 00 00 00 00 00 00 00
       0.0 0.0 0.0 0.0
000160 00 00 00 00 00 00 00 00 00 00 00 00 00 00 00 00
       0.0 0.0 0.0 0.0
000170 00 00 00 00 00 00 00 00 00 00 00 00 00 00 00 00
       0.0 0.0 0.0 0.0
000180 00 00 00 00 00 00 00 00 00 00 00 00 00 00 00 00
       0.0 0.0 0.0 0.0
000190 00 00 00 00 00 00 00 00 00 00 00 00 00 00 00 00
       0.0 0.0 0.0 0.0
0001a0 00 00 00 00 00 00 00 00 00 00 00 00 00 00 00 00
       0.0 0.0 0.0 0.0
0001b0 00 00 00 00 00 00 00 00 00 00 00 00 00 00 00 00
       0.0 0.0 0.0 0.0
0001c0 00 00 00 00 00 00 00 00 00 00 00 00 00 00 00 00
       0.0 0.0 0.0 0.0
0001d0 00 00 00 00 00 00 00 00 00 00 00 00 00 00 00 00
       0.0 0.0 0.0 0.0
0001e0 00 00 00 00 00 00 00 00 00 00 00 00 00 00 00 00
       0.0 0.0 0.0 0.0
0001f0 00 00 00 00 00 00 00 00 00 00 00 00 00 00 00 00
       0.0 0.0 0.0 0.0

res1.0.bn1.bias f4 [128]
000000 00 00 00 00 00 00 00 00 00 00 00 00 00 00 00 00
       0.0 0.0 0.0 0.0
000010 00 00 00 00 00 00 00 00 00 00 00 00 00 00 00 00
       0.0 0.0 0.0 0.0
000020 00 00 00 00 00 00 00 00 00 00 00 00 00 00 00 00
       0.0 0.0 0.0 0.0
000030 00 00 00 00 00 00 00 00 00 00 00 00 00 00 00 00
       0.0 0.0 0.0 0.0
000040 00 00 00 00 00 00 00 00 00 00 00 00 00 00 00 00
       0.0 0.0 0.0 0.0
000050 00 00 00 00 00 00 00 00 00 00 00 00 00 00 00 00
       0.0 0.0 0.0 0.0
000060 00 00 00 00 00 00 00 00 00 00 00 00 00 00 00 00
       0.0 0.0 0.0 0.0
000070 00 00 00 00 00 00 00 00 00 00 00 00 00 00 00 00
       0.0 0.0 0.0 0.0
000080 00 00 00 00 00 00 00 00 00 00 00 00 00 00 00 00
       0.0 0.0 0.0 0.0
000090 00 00 00 00 00 00 00 00 00 00 00 00 00 00 00 00
       0.0 0.0 0.0 0.0
0000a0 00 00 00 00 00 00 00 00 00 00 00 00 00 00 00 00
       0.0 0.0 0.0 0.0
0000b0 00 00 00 00 00 00 00 00 00 00 00 00 00 00 00 00
       0.0 0.0 0.0 0.0
0000c0 00 00 00 00 00 00 00 00 00 00 00 00 00 00 00 00
       0.0 0.0 0.0 0.0
0000d0 00 00 00 00 00 00 00 00 00 00 00 00 00 00 00 00
       0.0 0.0 0.0 0.0
0000e0 00 00 00 00 00 00 00 00 00 00 00 00 00 00 00 00
       0.0 0.0 0.0 0.0
0000f0 00 00 00 00 00 00 00 00 00 00 00 00 00 00 00 00
       0.0 0.0 0.0 0.0
000100 00 00 00 00 00 00 00 00 00 00 00 00 00 00 00 00
       0.0 0.0 0.0 0.0
000110 00 00 00 00 00 00 00 00 00 00 00 00 00 00 00 00
       0.0 0.0 0.0 0.0
000120 00 00 00 00 00 00 00 00 00 00 00 00 00 00 00 00
       0.0 0.0 0.0 0.0
000130 00 00 00 00 00 00 00 00 00 00 00 00 00 00 00 00
       0.0 0.0 0.0 0.0
000140 00 00 00 00 00 00 00 00 00 00 00 00 00 00 00 00
       0.0 0.0 0.0 0.0
000150 00 00 00 00 00 00 00 00 00 00 00 00 00 00 00 00
       0.0 0.0 0.0 0.0
000160 00 00 00 00 00 00 00 00 00 00 00 00 00 00 00 00
       0.0 0.0 0.0 0.0
000170 00 00 00 00 00 00 00 00 00 00 00 00 00 00 00 00
       0.0 0.0 0.0 0.0
000180 00 00 00 00 00 00 00 00 00 00 00 00 00 00 00 00
       0.0 0.0 0.0 0.0
000190 00 00 00 00 00 00 00 00 00 00 00 00 00 00 00 00
       0.0 0.0 0.0 0.0
0001a0 00 00 00 00 00 00 00 00 00 00 00 00 00 00 00 00
       0.0 0.0 0.0 0.0
0001b0 00 00 00 00 00 00 00 00 00 00 00 00 00 00 00 00
       0.0 0.0 0.0 0.0
0001c0 00 00 00 00 00 00 00 00 00 00 00 00 00 00 00 00
       0.0 0.0 0.0 0.0
0001d0 00 00 00 00 00 00 00 00 00 00 00 00 00 00 00 00
       0.0 0.0 0.0 0.0
0001e0 00 00 00 00 00 00 00 00 00 00 00 00 00 00 00 00
       0.0 0.0 0.0 0.0
0001f0 00 00 00 00 00 00 00 00 00 00 00 00 00 00 00 00
       0.0 0.0 0.0 0.0
