MonocularDepthEstimation/savedmodels/Masks/64-4epochs/checkpoint-1.pt (torch_old, 510012 bytes, 74 tensors)

prep.DepthwiseConv2d.depthwise.weight f4 [3, 1, 3, 3]
-0.16981342 0.16408606 -0.030125974 -1.4096367 -0.08402073 1.5167549 -1.6093948 0.35176238
1.2665615 -0.18517211 0.123493165 0.019531244 -1.4969707 0.2256683 1.2941216 -1.3771116
0.16408232 1.2067946 -0.12270437 0.12591594 -0.07507401 -1.863201 0.08537927 1.8841214
-1.7939341 0.36193058 1.3201859
00000000: 92e3 2dbe 2d06 283e bfca f6bc fa6e b4bf
00000010: 0f13 acbd 0625 c23f a600 cebf 331a b43e
00000020: b01e a23f c29d 3dbe fce9 fc3d fdff 9f3c
00000030: bc9c bfbf 9715 673e c7a5 a53f 3145 b0bf
00000040: 3205 283e 3f78 9a3f 6e4c fbbd 1cf0 003e
00000050: 67c0 99bd 5f7d eebf 54db ae3d e42a f13f
00000060: a29f e5bf f74e b93e dafb a83f

prep.DepthwiseConv2d.pointwise.weight f4 [64, 3, 1, 1]
-0.16245323 -0.18777193 -0.19497111 -0.28056097 0.06433678 -0.13839898 -0.20378524 -0.21673596
0.039608028 -0.024008887 0.13507538 0.2911782 0.5998978 -0.85103863 -0.5183749 0.16668658
-0.09856493 0.6285391 -0.11458934 -0.06934431 0.26305825 -0.052591402 0.026379572 -0.024107672
0.24010997 -0.136974 0.06761436 0.17720893 0.04385937 0.067839265 0.16849123 -0.010702975
-0.14834844 0.20569412 0.30262896 -0.18985637 0.06988256 0.1298697 0.16974926 -0.3972219
0.4864061 0.629509 0.17403664 -0.08970794 0.5606072 -0.058805518 0.28762037 -0.14947933
-0.32934293 0.42830473 -0.46221504 -0.061436575 0.17321146 0.0015968062 0.3391015 0.24191523
-0.82452816 -0.47699443 0.48706397 0.25719345 0.29253933 -0.33946353 0.57403785 -0.14925712
0.11319755 -0.087869294 -0.3138449 0.13741502 -0.596657 -0.013973646 -0.16355954 0.068796314
0.2215433 -0.07489737 0.05995816 0.7114953 -0.98813903 0.3841913 0.07016249 0.21577972
0.42723182 -0.108217984 0.23309603 0.21557975 -0.118194945 -0.17409539 -0.14431426 -0.018329458
-0.003378191 0.20458254 0.119741835 -0.14465173 -0.035376728 0.21626405 -0.18399635 -0.14618357
0.08180268 -0.438065 -0.115131244 -1.022686 -0.64858794 0.019578878 -0.1702765 -0.13842183
0.87319475 -0.1898829 0.22695595 -0.24679945 0.21239366 -0.031824417 -0.9662064 0.21926685
-0.045391195 -0.022336101 -0.01601273 0.86236846 -0.020312782 0.5240024 0.73445404 -0.8121375
-0.06436426 -0.23683964 -0.18889403 0.15081519 -0.42720866 0.20332949 -0.2691228 0.15936475
-0.37156788 0.7562694 -0.019241026 -0.70853347 -1.0147419 0.11601526 0.95479965 0.03693849
0.18728247 0.07452495 -0.15751083 0.118727006 0.056452595 0.3440041 0.32420596 0.20134942
-0.23807095 -0.08931396 0.081800826 0.10578786 -0.014180451 -0.4213787 0.033105094 -0.120022886
0.07576527 0.23979926 0.07979073 0.15627599 0.15668781 0.08374771 0.36961442 -0.6419165
0.36314085 -0.3787455 0.008225703 0.24972627 0.11839522 0.15452434 -0.34799156 0.087105885
0.3167452 0.347194 -0.09435311 0.020164441 0.09465132 0.004829223 0.09388026 -0.23579563
0.16778593 0.2578431 -0.04295991 0.3342981 -0.1848199 0.07743522 0.09513827 0.45702863
0.38686323 -0.28357413 0.36768773 0.404541 1.0384682 -0.41822702 -0.28635994 0.32684904
00000000: 245a 26be 4947 40be 82a6 47be b0a5 8fbe
00000010: 00c3 833d 76b8 0dbe 14ad 50be 08f0 5dbe
00000020: 073c 223d 49ae c4bc 3351 0a3e 4f15 953e
00000030: e792 193f abdd 59bf 38b4 04bf e3af 2a3e
00000040: 69dc c9bd f0e7 203f d1ad eabd 6404 8ebd
00000050: 92af 863e 156a 57bd f919 d83c 747d c5bc
00000060: 63df 753e ea42 0cbe 6679 8a3d 4276 353e
00000070: e2a5 333d 50ef 8a3d f788 2c3e 885b 2fbc
00000080: a7e8 17be 7ba1 523e 2ff2 9a3e b569 42be
00000090: 961e 8f3d 90fc 043e c0d2 2d3e ab60 cbbe
000000a0: 380a f93e 8027 213f a936 323e ccb8 b7bd
000000b0: f483 0f3f 0ede 70bd fa42 933e 1c11 19be
000000c0: a39f a8be c24a db3e 73a7 ecbe eba4 7bbd
000000d0: 585e 313e ed4b d13a b69e ad3e a0b8 773e
000000e0: 4714 53bf 9d38 f4be 7360 f93e dcae 833e
000000f0: b7c7 953e 2ace adbe 25f4 123f dcd6 18be
00000100: 1ed4 e73d d1f4 b3bd 47b0 a0be 86b6 0c3e
00000110: 83be 18bf b8f1 64bc 277c 27be 15e5 8c3d
00000120: 3fdc 623e cb63 99bd b096 753d 8e24 363f
00000130: aef6 7cbf b9b4 c43e 5ab1 8f3d 5cf5 5c3e
00000140: 21be da3e 64a1 ddbd bab0 6e3e f0c0 5c3e
00000150: 3110 f2bd 1046 32be 1ec7 13be a927 96bc
00000160: a464 5dbb 167e 513e 353b f53d 951f 14be
00000170: 30e7 10bd 5374 5d3e 8a69 3cbe 25b1 15be
00000180: 2a88 a73d 0e4a e0be eec9 ebbd 60e7 82bf
00000190: dc09 26bf e263 a03c f65c 2ebe 74be 0dbe
000001a0: b189 5f3f aa70 42be 2467 683e ffb8 7cbe
000001b0: b97d 593e 525a 02bd 4d59 77bf 7d87 603e
000001c0: 1eec 39bd 33fa b6bc 212d 83bc 2ec4 5c3f
000001d0: fe66 a6bc 0525 063f 2e05 3c3f 3ee8 4fbf
000001e0: 69d1 83bd 1786 72be 706d 41be 4c6f 1a3e
000001f0: 18bb dabe 9b35 503e 77ca 89be 8330 233e
00000200: 253e bebe df9a 413f 5b9f 9dbc 7362 35bf
00000210: 10e3 81bf 6999 ed3d c06d 743f d04c 173d
00000220: fac6 3f3e 89a0 983d 854a 21be 2527 f33d
00000230: d63a 673d 4e21 b03e 53fe a53e 8b2e 4e3e
00000240: dfc8 73be 3dea b6bd 3187 a73d 4ea7 d83d
00000250: 1f55 68bc f3be d7be 3599 073d 8fce f5bd
00000260: d22a 9b3d f08d 753e 5269 a33d d006 203e
00000270: c572 203e eb83 ab3d 1a3e bd3e a454 24bf
00000280: 99ed b93e eeea c1be 19c5 063c 3eb8 7f3e
00000290: 3179 f23d a13b 1e3e f32b b2be 9264 b23d
000002a0: 6d2c a23e 69c3 b13e 343c c1bd e62f a53c
000002b0: 8dd8 c13d 753e 9e3b 4b44 c03d 6974 71be
000002c0: 13d0 2b3e 0304 843e bbf6 2fbd 1f29 ab3e
000002d0: 6e41 3dbe 5b96 9e3d dad7 c23d a8ff e93e
000002e0: f012 c63e a130 91be 9141 bc3e ff1f cf3e
000002f0: 87ec 843f da21 d6be c59d 92be c258 a73e

prep.DepthwiseConv2d.pointwise.bias f4 [64]
0.039125998 0.013339606 0.03061897 0.04070286 -0.023203878 -0.011638022 -0.008835356 -0.031892415
-0.0003863485 0.101632275 0.0010701211 0.0047655855 -0.026841944 -0.019642554 0.095270865 -0.0751276
-0.025539018 -0.041690085 -0.06943255 -0.000986699 0.0019674068 2.1839192e-05 -0.018397117 -0.024440309
-0.025528012 0.007044063 0.15124688 0.00077542977 0.0785156 -0.0026058885 0.002329326 -0.0083796205
-0.016794166 0.007059385 -0.006640666 -0.117555484 -0.026413988 -0.09142819 0.006053545 -0.024291025
-0.003968089 -0.004249653 -0.10184953 0.0136094 0.045100357 0.036460105 -0.037038125 0.04856204
0.08661307 -0.032504722 0.045370534 0.022277506 0.03713367 -0.013741868 -0.02248134 0.073487304
0.07158808 -0.0045148707 0.09536269 0.07012233 -0.021202492 -0.020531416 -0.021040836 0.07634487
00000000: 9542 203d 5d8e 5a3c a2d4 fa3c 0bb8 263d
00000010: 0f16 bebc 67ad 3ebc 2bc2 10bc 9fa1 02bd
00000020: d18e cab9 9524 d03d 4e43 8c3a a128 9c3b
00000030: a3e3 dbbc 6ce9 a0bc 5f1d c33d 80dc 99bd
00000040: 3437 d1bc 39c3 2abd a732 8ebd 2054 81ba
00000050: 9cef 003b 4f33 b737 8db5 96bc 0b37 c8bc
00000060: 1f20 d1bc e2d1 e63b 76e0 1a3e 3646 4b3a
00000070: c9cc a03d 8ec7 2abb 9ba7 183b ad4a 09bc
00000080: eb93 89bc 6a52 e73b f299 d9bb eec0 f0bd
00000090: 2662 d8bc b43e bbbd d15c c63b f9fd c6bc
000000a0: be06 82bb ac40 8bbb 7d96 d0bd f6f9 5e3c
000000b0: 27bb 383d 3157 153d 4ab5 17bd fde8 463d
000000c0: 3162 b13d ac23 05bd 74d6 393d 517f b63c
000000d0: 7a19 183d 9225 61bc ca2a b8bc 8380 963d
000000e0: c59c 923d 7bf1 93bb 844d c33d 4c9c 8f3d
000000f0: d9b0 adbc 8031 a8bc d55d acbc b35a 9c3d

cb1.DepthwiseConv2d.depthwise.weight f4 [64, 1, 3, 3]
-0.19430673 -0.16599298 0.038446236 -0.062225115 -0.044756535 0.059185326 -0.052847955 0.06775355
0.0840061 -0.016312981 0.029109078 0.01883393 0.021139488 0.003944888 -0.0036832197 -0.19884169
0.06666528 0.051608875 -0.14072736 0.0711191 -0.07751126 -0.014357429 0.0044069104 -0.0037194423
-0.106722936 0.14117856 0.074623235 0.16775055 0.014496177 -0.1936094 0.03214439 0.0031115077
-0.010787784 0.036235355 0.17993924 -0.026979113 -0.46383837 -0.18853503 -0.3732009 -0.35813203
-0.21402642 -0.14301051 -0.19951127 -0.060221907 -0.12785892 0.034192372 0.05326971 0.13601841
0.23321024 0.17327483 0.02043144 0.3143919 0.29843828 0.079236805 -0.041122552 -0.030180467
0.04417792 -0.0644211 -0.018161979 -0.11591814 -0.102385 0.020509258 -0.07006312 0.010702211
0.017248739 0.0068847197 0.023459481 0.09665794 0.106114894 -0.032254584 -0.07610044 -0.015658941
0.05254868 0.07161754 0.15284418 0.024147013 0.06306652 0.084634766 0.021076038 -0.01721335
-0.021460755 -0.1165814 -0.15227978 -0.031861857 -0.07498162 0.0039046602 0.03668048 -0.050922856
-0.019732775 0.02680395 0.05148393 -0.11073968 -0.1278383 0.034666106 0.064755425 -0.10514174
0.04821597 -0.0436414 -0.09235135 0.076467745 0.13024828 0.05359317 0.19670127 0.25374162
0.051436707 0.0072065387 -0.026856782 -0.10642487 -0.12698263 -0.020054277 0.008571992 -0.10117675
0.007090956 -0.09735943 -0.01834801 0.022363886 -0.022869207 -0.37922767 0.19926018 -0.006053299
-0.36430874 0.049644683 -0.18434596 -0.27678773 -0.15575138 -0.20168406 -0.015074962 -0.09412946
-0.034742255 0.109300904 -0.05369232 0.030396827 0.3286302 0.16361105 0.27332002 -0.07322872
0.079561315 -0.030960605 -0.08673766 -0.102273464 -0.12340567 -0.07985961 -0.15856516 -0.055091623
0.38081 0.06427307 -0.025952626 0.33017835 0.12544033 0.068168536 0.13402866 0.025508912
-0.09780904 -0.038040575 0.079468876 0.04551712 -0.05363588 -0.06646249 0.012325112 -0.0065333294
0.027170694 0.043924928 -0.18811178 -0.207748 -0.23683345 -0.35159168 -0.41918942 -0.25366807
-0.18743698 -0.1818843 -0.011312194 -0.2183688 -0.09688438 -0.18121137 -0.26186788 -0.27764845
-0.19884385 -0.17243752 -0.04349209 -0.25921923 0.037588 0.19141445 0.3075679 0.03409611
-0.016617095 0.27537706 0.18948396 0.14092414 0.13331321 0.07364568 0.07520725 0.043276694
0.07077933 0.03311057 0.08865625 0.058671545 -0.0647913 0.1202802 0.23339449 0.15823825
0.33878785 0.12340052 0.21058716 0.13934015 -0.07237962 -0.1326584 -0.20721468 0.040531244
0.056466814 -0.008608543 0.062372595 0.03094827 0.009314312 -0.062065054 0.026919758 -0.05662725
-0.0486353 -0.02690547 0.053176463 0.0041356226 -0.10601312 0.017301919 0.06976592 -0.0176299
0.06878801 -0.3468054 0.044324283 -0.31450155 -0.49649322 -0.2583705 -0.33837834 -0.14661393
-0.109047145 -0.24006541 0.152799 0.045733787 -0.12388386 0.13864957 0.057843693 -0.16738346
0.11077213 -0.08674222 -0.23796502 -0.07842955 -0.1265782 -0.15761836 -0.07140912 -0.11764076
-0.09027903 -0.11166707 -0.02383941 -0.07828887 -0.06607523 0.010371906 0.03569038 0.06386647
00000000: 58f8 46be 10fa 29be cd79 1d3d c3df 7ebd
00000010: a152 37bd 506c 723d 1977 58bd 60c2 8a3d
00000020: 640b ac3d cda2 85bc 2976 ee3c 9d49 9a3c
00000030: b82c ad3c 1e44 813b 2c62 71bb 289d 4bbe
00000040: ce87 883d d463 533d d51a 10be e4a6 913d
00000050: 39be 9ebd 6c3b 6bbc d867 903b e3c1 73bb
00000060: 8e91 dabd 1d91 103e 11d4 983d cdc6 2b3e
00000070: 6081 6d3c 8b41 46be d6a9 033d 70ea 4b3b
00000080: 3fbf 30bc 866b 143d fe41 383e 4d03 ddbc
00000090: 397c edbe 540f 41be 3014 bfbe 155d b7be
000000a0: be29 5bbe 5971 12be af4c 4cbe 3fab 76bd
000000b0: 73ed 02be 4d0d 0c3d 5731 5a3d 6948 0b3e
000000c0: aace 6e3e f56e 313e d65f a73c faf7 a03e
000000d0: e7cc 983e e846 a23d 1f70 28bd 073d f7bc
000000e0: e8f3 343d 36ef 83bd 6ec8 94bc 7d66 edbd
000000f0: 3aaf d1bd 0803 a83c 417d 8fbd 5458 2f3c
00000100: 3a4d 8d3c 3799 e13b 192e c03c 99f4 c53d
00000110: c452 d93d 621d 04bd 8cda 9bbd 2e47 80bc
00000120: 493d 573d 38ac 923d 2f83 1c3e f5cf c53c
00000130: 0529 813d fe54 ad3d a8a7 ac3c 0303 8dbc
00000140: 77ce afbc 3bc2 eebd 3bef 1bbe 9481 02bd
00000150: f78f 99bd 54e5 7f3b 453e 163d 7c94 50bd
00000160: a1a6 a1bc f593 db3c d0e0 523d 7ccb e2bd
00000170: 0be8 02be 0cfe 0d3d 7e9e 843d 8d54 d7bd
00000180: 1c7e 453d 53c1 32bd b422 bdbd 1f9b 9c3d
00000190: ce5f 053e 8384 5b3d 0f6c 493e 6cea 813e
000001a0: 4caf 523d d424 ec3b c102 dcbc 48f5 d9bd
000001b0: bc07 02be de48 a4bc 8a71 0c3c c235 cfbd
000001c0: 405b e83b 6164 c7bd 914e 96bc 7834 b73c
000001d0: 3458 bbbc 212a c2be dc0a 4c3e c15a c6bb
000001e0: ad86 babe 3958 4b3d 30c5 3cbe 1fb7 8dbe
000001f0: 4a7d 1fbe 4486 4ebe f9fc 76bc f2c6 c0bd
00000200: e54d 0ebd 27d9 df3d 7aec 5bbd c402 f93c
00000210: 3842 a83e a889 273e 9af0 8b3e f0f8 95bd
00000220: 0bf1 a23d 18a1 fdbc 84a3 b1bd c074 d1bd
00000230: 1dbc fcbd 6f8d a3bd e85e 22be c1a7 61bd
00000240: 87f9 c23e 99a1 833d 9a9a d4bc 230d a93e
00000250: 6e73 003e f29b 8b3d cf3e 093e 11f8 d03c
00000260: 1b50 c8bd 6fd0 1bbd 94c0 a23d 2970 3a3d
00000270: 4cb1 5bbd 7c1d 88bd 44ef 493c 8a15 d6bb
00000280: 1395 de3c a0ea 333d 60a0 40be e4bb 54be
00000290: 7884 72be d303 b4be ff9f d6be c8e0 81be
000002a0: 7bef 3fbe e13f 3abe c856 39bc 129c 5fbe
000002b0: 516b c6bd 798f 39be 8c13 86be f027 8ebe
000002c0: b99d 4bbe 7693 30be c324 32bd 62b8 84be
000002d0: e0f5 193d 2602 443e 8a79 9d3e 5da8 0b3d
000002e0: 9320 88bc 39fe 8c3e 1508 423e 6b4e 103e
000002f0: 4283 083e 8cd3 963d 4206 9a3d e742 313d
00000300: c1f4 903d f39e 073d 6891 b53d 9351 703d
00000310: 4db1 84bd 7755 f63d f7fe 6e3e 3509 223e
00000320: 9a75 ad3e 69b9 fc3d 29a4 573e 2faf 0e3e
00000330: c43b 94bd 9bd7 07be 1630 54be 1704 263d
00000340: bf49 673d d90a 0dbc 687a 7f3d 3a87 fd3c
00000350: 0e9b 183c ed37 7ebd d386 dc3c faf1 67bd
00000360: cf35 47bd dc68 dcbc 90cf 593d 1e84 873b
00000370: 681d d9bd c1bc 8d3c 6fe1 8e3d 946c 90bc
00000380: bae0 8c3d 7a90 b1be 618d 353d 5906 a1be
00000390: 5c34 febe 2349 84be ed3f adbe f621 16be
000003a0: 1c54 dfbd b5d3 75be 5777 1c3e 5a53 3b3d
000003b0: d2b6 fdbd 27fa 0d3e 82ed 6c3d 9266 2bbe
000003c0: 80dc e23d e8a5 b1bd 1aad 73be ac9f a0bd
000003d0: b79d 01be b566 21be f23e 92bd a4ed f0bd
000003e0: 36e4 b8bd b4b1 e4bd de4a c3bc ea55 a0bd
000003f0: 7352 87bd edee 293c 1330 123d 6ccc 823d

cb1.DepthwiseConv2d.pointwise.weight f4 [128, 64, 1, 1]
0.009635645 -0.15889174 0.033543825 0.113546416 -0.021601308 -0.1299492 -0.03253726 0.04730231
-0.066028774 0.170958 -0.17005716 0.003773426 -0.04892445 -0.24807064 0.22342531 0.025194112
0.05706199 0.02338956 0.07735887 0.16540447 0.020627866 0.29201925 0.07618899 0.12764058
0.053680897 -0.05747094 -0.13792291 0.065329775 0.07385338 -0.21048474 -0.07235397 -0.1701892
0.010981907 -0.15995361 -0.08320606 0.12538862 0.23856387 0.1311795 0.052551363 0.1299043
0.06981942 -0.039940182 -0.0010797867 -0.015515907 0.061181605 -0.1040504 0.0049214847 0.034955543
-0.08026509 -0.039335836 0.06069867 0.20222469 -0.014237785 0.05807736 0.013033202 0.098444805
0.0015271829 -0.0019148078 0.09161816 -0.039718606 0.086600155 -0.124118306 -0.26887223 0.14011341
-0.046975296 -0.11655781 -0.11057001 0.07070644 0.13270868 -0.04863201 0.25601536 -0.16306745
0.186353 -0.15594685 -0.3145469 -0.09063778 -0.054695964 0.06693158 0.14863643 -0.13255085
-0.03528724 -0.10346139 0.03421767 -0.08569415 -0.0628557 0.017812092 0.06563238 0.07220997
-0.0077159083 0.033157367 -0.07369867 0.00896604 0.03088814 0.17165373 -0.17849731 0.047210503
-0.20504259 0.22376525 0.05330185 0.14782384 0.1827943 -0.1588969 -0.080571875 -0.08422587
0.04768014 -0.0301321 0.09023087 -0.21388832 0.07801942 0.23263519 0.16894889 0.08088718
0.12542844 -0.0682484 -0.11901387 -0.035224117 0.23557189 0.12564236 -0.14576595 -0.02583462
0.095800936 -0.14519982 -0.123626485 -0.056770585 -0.034374237 0.045840584 -0.07612 -0.037587073
0.16666579 0.15464945 -0.008168629 -0.17667235 0.15882853 -0.05857235 0.049159262 -0.0076267677
-0.13928162 0.08806029 0.083541445 -0.1347781 -0.054295696 0.04427471 -0.07932123 0.08173875
-0.16332401 0.02953093 0.18823785 0.10487311 0.117006674 0.14221822 0.05108258 -0.12398646
0.23168744 0.13215537 0.050814867 0.1913163 0.054547623 -0.018359637 -0.12606567 0.17177476
-0.035644393 0.1379636 -0.11479982 -0.1843405 0.009711588 -0.038834497 0.20955399 -0.3350318
0.20932686 -0.07356517 0.1123757 -0.1908951 -0.05507572 -0.09989842 -0.11884096 0.095038906
-0.04336902 -0.0051101116 -0.10414342 0.024927549 0.13849992 -0.18141092 0.06434362 0.12564652
0.102501914 -0.031003965 0.09712762 0.005115488 -0.13896672 0.023858057 -0.08890287 -0.1304498
0.2775765 -0.09935454 -0.008319478 0.042069018 0.08369522 0.045404624 0.10450345 0.06774803
-0.069291584 0.14269696 -0.115039065 0.03538529 0.080806345 -0.21583718 0.07851707 0.07679406
-0.29133633 -0.31683093 0.033629507 0.11951816 -0.10484819 -0.21731345 -0.20787494 -0.041204557
0.023686511 -0.026282664 -0.044240892 0.058157515 -0.03893184 0.02382103 0.25789824 0.11129385
-0.09523685 0.07966502 -0.17077072 0.22999772 -0.09181574 0.11421898 -0.007069372 -0.22325389
-0.24395292 0.04019714 0.16886419 0.034556083 0.14920399 0.22513448 -0.047613963 0.053254288
0.021607142 -0.02346568 -0.03926694 0.006711194 -0.10623274 -0.2731831 -0.039574295 -0.035110272
-0.0049474374 0.034114968 0.028827155 -0.012786454 0.09982556 -0.11218755 0.0029794327 0.006619225
00000000: d3de 1d3c 84b4 22be 4065 093d 068b e83d
00000010: 3af5 b0bc 6711 05be ca45 05bd 11c0 413d
00000020: 183a 87bd 9d0f 2f3e 7723 2ebe 954b 773b
00000030: 0165 48bd 3b06 7ebe 9bc9 643e e263 ce3c
00000040: d5b9 693d 769b bf3c 546e 9e3d ca5f 293e
00000050: c5fb a83c 8c83 953e f908 9c3d 36b4 023e
00000060: 80e0 5b3d a666 6bbd aa3b 0dbe 9ecb 853d
00000070: 7140 973d 5089 57be 512e 94bd 1446 2ebe
00000080: 75ed 333c e1ca 23be f067 aabd e065 003e
00000090: 164a 743e eb53 063e 1940 573d a205 053e
000000a0: 7cfd 8e3d 5198 23bd a187 8dba 6e36 7ebc
000000b0: 9099 7a3d 6018 d5bd 6844 a13b 8b2d 0f3d
000000c0: 0662 a4bd 9d1e 21bd 2b9f 783d fd13 4f3e
000000d0: 9945 69bc 87e2 6d3d 3689 553c 6e9d c93d
000000e0: c12b c83a 4afa faba 4da2 bb3d faaf 22bd
000000f0: 6c5b b13d bd31 febd 9fa9 89be e479 0f3e
00000100: 2b69 40bd dcb5 eebd 8872 e2bd 8ace 903d
00000110: c9e4 073e 5c32 47bd 7214 833e 27fb 26be
00000120: 52d3 3e3e 88b0 1fbe 4b0c a1be 4da0 b9bd
00000130: e008 60bd 6d13 893d 2634 183e 69bb 07be
00000140: 5a89 10bd 91e3 d3bd d427 0c3d 6a80 afbd
00000150: 7dba 80bd aaea 913c 456a 863d d2e2 933d
00000160: bbd5 fcbb 05d0 073d 54ef 96bd 4ce6 123c
00000170: 2009 fd3c ffc5 2f3e 00c8 36be cd5f 413d
00000180: aff6 51be b822 653e 0a53 5a3d 225f 173e
00000190: 6e2e 3b3e deb5 22be de02 a5bd 9d7e acbd
000001a0: 404c 433d 98d7 f6bc f6ca b83d 8a05 5bbe
000001b0: a5c8 9f3d eb37 6e3e f000 2d3e 2ea8 a53d
000001c0: 5070 003e d1c5 8bbd 8bbd f3bd 2a47 10bd
000001d0: c239 713e 64a8 003e ab43 15be 20a3 d3bc
000001e0: 4833 c43d 43af 14be e22f fdbd 4688 68bd
000001f0: 00cc 0cbd 56c3 3b3d cde4 9bbd e7f4 19bd
00000200: 70aa 2a3e 6d5c 1e3e b7d5 05bc 99e9 34be
00000210: f2a3 223e 8fe9 6fbd 395b 493d f7e9 f9bb
00000220: d79f 0ebe f458 b43d c717 ab3d 4503 0abe
00000230: 2a65 5ebd 6659 353d 2b73 a2bd a566 a73d
00000240: 693e 27be d9ea f13c 6cc1 403e b7c7 d63d
00000250: 32a1 ef3d a7a1 113e f83b 513d 9dec fdbd
00000260: 793f 6d3e bd53 073e 4023 503d 6ce8 433e
00000270: 546d 5f3d f366 96bc 5c17 01be b9e5 2f3e
00000280: dbff 11bd 5446 0d3e 2b1c ebbd c2c3 3cbe
00000290: 5a1d 1f3c ec10 1fbd 5295 563e 4a89 abbe
000002a0: c859 563e 56a9 96bd 3b25 e63d 017a 43be
000002b0: 1497 61bd 8b97 ccbd e462 f3bd c2a3 c23d
000002c0: b7a3 31bd b972 a7bb 2549 d5bd dc34 cc3c
000002d0: ecd2 0d3e c9c3 39be 96c6 833d 7ba9 003e
000002e0: 86ec d13d 07fc fdbc d8ea c63d d39f a73b
000002f0: 4b4d 0ebe f971 c33c b512 b6bd a294 05be
00000300: 821e 8e3e 657a cbbd 6b4e 08bc 9050 2c3d
00000310: 6668 ab3d 33fa 393d e805 d63d 7bbf 8a3d
00000320: bfe8 8dbd 271f 123e 9a99 ebbd 2af0 103d
00000330: cc7d a53d 6c04 5dbe 8fcd a03d 3446 9d3d
00000340: 092a 95be aa37 a2be 18bf 093d f0c5 f43d
00000350: a6ba d6bd 6b87 5ebe 2bdd 54be 1cc6 28bd
00000360: 370a c23c be4e d7bc f035 35bd 9336 6e3d
00000370: fe76 1fbd 5224 c33c 3d0b 843e 08ee e33d
00000380: 8a0b c3bd 6a27 a33d 85de 2ebe 8684 6b3e
00000390: e409 bcbd a4eb e93d 31a6 e7bb ab9c 64be
000003a0: cbce 79be c2a5 243d bcea 2c3e ae8a 0d3d
000003b0: eec8 183e a789 663e dc06 43bd 2b21 5a3d
000003c0: 7601 b13c 193b c0bc 5fd6 20bd 93e9 db3b
000003d0: 8d90 d9bd a8de 8bbe a818 22bd cacf 0fbd
000003e0: 1d1e a2bb 23bc 0b3d ed26 ec3c 467e 51bc
000003f0: 5871 cc3d 96c2 e5bd 9642 433b 15e6 d83b

cb1.DepthwiseConv2d.pointwise.bias f4 [128]
-0.12864007 -0.0025766643 0.09869667 -0.10972659 -0.06111806 -0.057676937 0.033610065 0.23926465
-0.063408785 0.04080492 0.01987406 -0.37171823 -0.05837345 0.018521106 -0.008527797 0.11408989
-0.02661403 -0.030855555 0.052199185 -0.0109419925 -0.04141526 -0.05676683 -0.020558022 0.048578884
-0.011296316 0.065648384 0.0432431 0.03866741 -0.08973141 0.014029589 -0.027536163 0.002701009
0.03447722 -0.0418477 0.031079825 -0.098870486 0.12493982 0.026099715 -0.05655421 0.036969412
0.016477967 -0.0220792 0.23393928 0.0524196 0.06893074 0.5569216 -0.14802477 0.012270186
-0.013457431 0.11182643 -0.060354993 0.040546965 -0.012244935 -0.05498078 0.1545091 -0.030002367
-0.03274662 0.02127946 -0.06496084 0.21391438 -0.0063264645 -0.040359963 0.042186167 0.10600607
0.05620231 -0.050615866 0.06357365 0.0042922418 -0.04299248 -0.023654176 -0.071046464 -0.049712256
-0.12596509 -0.044589996 0.24037492 -0.03242872 -0.024068817 0.097071745 0.031637236 -0.034165032
0.14115694 0.07132028 -0.07308836 0.009700223 0.2250057 -0.040936213 -0.006199194 -0.26242915
0.077617325 0.08397147 -0.028213223 0.20910566 0.0038248247 0.40623337 0.12084719 -0.03274141
0.06682213 -0.09389397 0.29833418 -0.025902329 -0.043281417 -0.07963425 0.023798382 -0.015612208
-0.064575896 -0.05708687 -0.03962284 -0.08222422 0.07534688 0.08057091 -0.012065858 -0.14780878
-0.20800398 -0.0070967926 -0.015101473 0.016844017 0.090360016 0.1256119 0.051149983 -0.033534374
0.02027624 0.040031947 0.0040092194 -0.07563055 0.085440226 0.090905815 -0.032113116 -0.12438327
00000000: 39ba 03be 41dd 28bb 7b21 ca3d 56b8 e0bd
00000010: ee56 7abd a73e 6cbd b5aa 093d cb01 753e
00000020: 77dc 81bd 0f23 273d edce a23c da51 bebe
00000030: 0019 6fbd 93b9 973c 2cb8 0bbc f6a7 e93d
00000040: ab05 dabc cac4 fcbc d0ce 553d 0b46 33bc
00000050: 0ca3 29bd 5684 68bd 4c69 a8bc a7fa 463d
00000060: 2f14 39bc a972 863d ad1f 313d b861 1e3d
00000070: 1ac5 b7bd 5cdc 653c 8593 e1bc 6903 313b
00000080: fc37 0d3d 7e68 2bbd 1e9b fe3c 9c7c cabd
00000090: 73e0 ff3d 12cf d53c 63a5 67bd 3d6d 173d
000000a0: cdfc 863c 70df b4bc c78d 6f3e efb5 563d
000000b0: 8f2b 8d3d 6a92 0e3f ce93 17be e408 493c
000000c0: 8f7c 5cbc 4105 e53d cc36 77bd 9314 263d
000000d0: fb9e 48bc 8733 61bd a237 1e3e 86c7 f5bc
000000e0: 5221 06bd 4352 ae3c 300a 85bd 5f0c 5b3e
000000f0: 3b4e cfbb 7d50 25bd 67cb 2c3d b619 d93d
00000100: 6534 663d 9552 4fbd e732 823d efa5 8c3b
00000110: e218 30bd 67c6 c1bc cf80 91bd 149f 4bbd
00000120: fefc 00be 00a4 36bd d824 763e fad3 04bd
00000130: f82b c5bc 8dcd c63d 0c96 013d a2f0 0bbd
00000140: 728b 103e 5e10 923d 5aaf 95bd afed 1e3c
00000150: e567 663e bbac 27bd 9c22 cbbb 1d5d 86be
00000160: d5f5 9e3d 3cf9 ab3d 6b1f e7bc cb1f 563e
00000170: e9a9 7a3b d2fd cf3e bb7e f73d db1b 06bd
00000180: 0ada 883d 7b4b c0bd 42bf 983e 1f31 d4bc
00000190: db47 31bd 4817 a3bd d3f4 c23c 59ca 7fbc
000001a0: 5e40 84bd ecd3 69bd 8f4b 22bd 2c65 a8bd
000001b0: 774f 9a3d 5c02 a53d e0af 45bc 2f5b 17be
000001c0: fffe 54be 368c e8bb 2b6c 77bc 77fc 893c
000001d0: ac0e b93d 68a0 003e a582 513d 575b 09bd
000001e0: 5b1a a63c 8af8 233d c55f 833b 31e4 9abd
000001f0: 49fb ae3d d42c ba3d 0b89 03bd a8bc febd

res1.0.conv1.depthwise.weight f4 [128, 1, 3, 3]
-0.058480747 -0.044526253 0.0227733 0.04166543 -0.014248936 -0.05582502 -0.053897817 0.03856797
0.023644565 -0.016376644 -0.01863425 -0.02435659 -0.09742402 0.0021970326 0.021571413 -0.010940534
0.0061817416 0.012899494 -0.033051204 0.039070472 -0.02950538 0.01034392 0.033750914 -0.026979676
0.031300586 0.000740596 -0.027003493 0.025028298 0.010679458 -0.027954461 -0.035050377 -0.05356426
0.026835745 0.045025587 -0.13542323 0.04287286 0.07159391 0.0033198458 -0.018659893 -0.046304885
-0.0073516914 -0.05999858 0.006627523 -0.065364145 -0.023067443 0.004896387 0.007136995 -0.00063058623
-0.056255743 0.039939653 0.047617402 -0.0010764465 -0.03032222 -0.023926616 0.0035276422 -0.00049786555
0.011653643 0.06763386 -0.059773687 -0.07095021 0.05327672 0.00508956 -0.029657336 -0.012386184
0.015646456 -0.004063988 -0.0012688574 0.08062446 -0.011160475 0.03777753 0.01781806 0.08481917
0.039244466 -0.078946285 -0.016800487 -0.036910295 0.02687667 0.08448309 -0.016015138 -0.07330397
0.06269733 0.042860683 -0.026957827 0.03730999 0.04660045 -0.045333844 -0.07424221 -0.0028527838
-0.01967238 0.01185051 -0.012335403 0.025030058 -0.02138061 0.030815473 0.059858087 -0.087964326
0.03630344 0.048714306 -0.0066911713 0.0017996682 -0.0010699596 0.008970945 0.0037628987 -0.03235069
0.034551594 0.021530816 0.012332424 -0.01781518 -0.02672145 -8.429173e-05 0.06752041 -0.031022111
-0.022287345 0.066642 0.038641367 -0.076899 -0.02653321 -0.018021548 -0.057095256 -0.037862867
0.013868967 -0.053536557 -0.017904611 -0.00524163 0.021187661 -0.037672397 0.0254469 0.051175408
-0.010655601 -0.023673488 0.009809746 0.009932187 0.029762536 0.041160017 0.06052904 -0.05370285
-0.012286643 -0.031811893 -0.012390325 0.027108254 0.04305508 0.045576088 -0.011469225 0.03285418
-0.0011850188 -0.022696005 0.054452475 0.018088892 -0.010798963 0.020570979 -0.022034308 -0.07792266
0.038886983 -0.0026944124 0.046918932 -0.007675148 -0.029807765 0.0081628 0.06797049 -0.05567758
0.003729388 0.051133208 -0.0026752905 -0.034799386 -0.011504263 0.06606328 0.0038697836 -0.034449574
-0.0130473375 -0.023772463 -0.033326466 -0.04062366 -0.03536464 -0.012009688 0.028808894 0.0064251507
0.015433709 0.0049837176 -0.023533909 0.02712492 0.028764661 -0.012296006 0.028575387 -0.031815525
-0.02531397 0.004926275 0.029530313 0.035689794 0.0029600856 0.05674198 -0.047594316 0.0369292
0.09984897 -0.112241045 -0.066984646 -0.022000581 -0.017235568 0.028745143 -0.02487142 -0.024282498
-0.01987436 -0.032901123 0.037831403 0.020567587 -0.057978738 -0.038549226 0.059575964 -0.122746326
-0.06459385 0.010711193 0.020232882 -0.022653814 0.004440203 -0.019243328 -0.023815233 -0.00093232346
0.050903775 -0.0695482 0.03417116 0.0018488328 0.08047499 0.022024503 -0.015973065 0.016235907
-0.03350376 -0.0143279135 0.050546426 0.005360454 -0.024562642 0.0027658097 0.04097492 0.070213966
-0.07660984 -0.036613382 -0.05284734 -0.10203687 -0.015375056 -0.10461131 -0.012795959 -0.10441557
-0.0009814912 0.0036500127 0.052080713 0.036448706 -0.015110882 -0.026297523 -0.007916508 0.021322794
0.037497547 -0.021437919 0.00928587 -0.016467258 0.029037436 -0.0910954 -0.047973152 0.025603969
00000000: 8289 6fbd 2961 36bd 128f ba3c 5fa9 2a3d
00000010: 5f74 69bc c7a8 64bd f5c3 5cbd 73f9 1d3d
00000020: 3fb2 c13c 5028 86bc dba6 98bc 7987 c7bc
00000030: 3f86 c7bd 17fc 0f3b 88b6 b03c ed3f 33bc
00000040: 3590 ca3b 6658 533c b360 07bd 5c08 203d
00000050: 44b5 f1bc 8c79 293c 663e 0a3d 7b04 ddbc
00000060: 0b35 003d 8e24 423a 6e36 ddbc 2508 cd3c
00000070: e5f8 2e3c c100 e5bc fc90 0fbd 3366 5bbd
00000080: a3d6 db3c c06c 383d 63ac 0abe 749b 2f3d
00000090: d49f 923d c591 593b a2dc 98bc 31aa 3dbd
000000a0: 75e6 f0bb 12c1 75bd b12b d93b a3dd 85bd
000000b0: eff7 bcbc df71 a03b 74dd e93b ed4d 25ba
000000c0: 6c6c 66bd c397 233d 770a 433d 8d17 8dba
000000d0: 4e66 f8bc c001 c4bc 0430 673b 3183 02ba
000000e0: ecee 3e3c 9f83 8a3d 41d5 74bd 584e 91bd
000000f0: b138 5a3d 53c6 a63b f1f3 f2bc 6cef 4abc
00000100: ff2c 803c 342b 85bb ca4f a6ba 701e a53d
00000110: 6dda 36bc 9cbc 1a3d 2ef7 913c acb5 ad3d
00000120: cebe 203d 97ae a1bd 2da1 89bc 402f 17bd
00000130: 762c dc3c 7805 ad3d 2e32 83bc 6420 96bd
00000140: 7567 803d af8e 2f3d a9d6 dcbc 5cd2 183d
00000150: 1de0 3e3d fbaf 39bd 4d0c 98bd c5f5 3abb
00000160: f927 a1bc a428 423c 6e1a 4abc d60b cd3c
00000170: 6426 afbc bb70 fc3c c12d 753d a426 b4bd
00000180: eab2 143d a788 473d 9d41 dbbb d8e2 eb3a
00000190: e33d 8cba dffa 123c f79a 763b 2882 04bd
000001a0: f985 0d3d 6561 b03c ef0d 4a3c 24f1 91bc
000001b0: f1e6 dabc c7c5 b0b8 2448 8a3d 1522 febc
000001c0: f393 b6bc 9a7b 883d 6946 1e3d 397d 9dbd
000001d0: 2d5c d9bc eda1 93bc b7dc 69bd 1816 1bbd
000001e0: aa3a 633c 2649 5bbd b1ac 92bc fbc1 abbb
000001f0: bf91 ad3c 5f4e 1abd 0476 d03c 4e9d 513d
00000200: d494 2ebc e7ee c1bc 0fb9 203c 9dba 223c
00000210: 90d0 f33c 6897 283d 4ced 773d 85f7 5bbd
00000220: ea4d 49bc 304d 02bd ca00 4bbc 2112 de3c
00000230: 865a 303d fead 3a3d 6be9 3bbc 1b92 063d
00000240: a252 9bba f9ec b9bc 8f09 5f3d 282f 943c
00000250: 22ee 30bc 7884 a83c 4b81 b4bc ea95 9fbd
00000260: f547 1f3d bd94 30bb 112e 403d cf7f fbbb
00000270: 6a2f f4bc 44bd 053c 1d34 8b3d 2d0e 64bd
00000280: bf68 743b 0e71 513d ed53 2fbb cd89 0ebd
00000290: 607c 3cbc 2f4c 873d 329c 7d3b ff1a 0dbd
000002a0: 80c4 55bc 78be c2bc 5581 08bd ff64 26bd
000002b0: 83da 10bd 48c4 44bc a100 ec3c 128a d23b
000002c0: abdd 7c3c 744e a33b 2fca c0bc 1535 de3c
000002d0: dea3 eb3c 3075 49bc ee16 ea3c ff50 02bd
000002e0: 3e5f cfbc 976c a13b 8ee9 f13c 762f 123d
000002f0: fffd 413b 476a 683d 42f2 42bd 1343 173d
00000300: 9e7d cc3d a2de e5bd 3f2f 89bd 903a b4bc
00000310: 9b31 8dbc ef7a eb3c 26bf cbbc 17ec c6bc
00000320: 8ecf a2bc 54c3 06bd 1af5 1a3d 5b7d a83c
00000330: 1d7b 6dbd cbe5 1dbd ed05 743d 6d62 fbbd
00000340: c849 84bd 007e 2f3c 6ebf a53c 7e94 b9bc
00000350: 1f7f 913b 2fa4 9dbc 2a18 c3bc 2b67 74ba
00000360: 7a80 503d 496f 8ebd 0ff7 0b3d 8954 f23a
00000370: 12d0 a43d bb6c b43c f2d9 82bc 2a01 853c
00000380: 3d3b 09bd a0bf 6abc c509 4f3d bfa6 af3b
00000390: 9837 c9bc 9642 353b 51d5 273d 57cc 8f3d
000003a0: 9fe5 9cbd eaf7 15bd 7476 58bd b5f8 d0bd
000003b0: a9e7 7bbc 743e d6bd 24a6 51bc d5d7 d5bd
000003c0: 61a5 80ba 0d35 6f3b 9652 553d 3d4b 153d
000003d0: a293 77bc e76d d7bc 3eb4 01bc 24ad ae3c
000003e0: 0797 193d 939e afbc c323 183c 58e6 86bc
000003f0: ebdf ed3c 3a90 babd 7f7f 44bd 6abf d13c

res1.0.conv1.pointwise.weight f4 [128, 128, 1, 1]
0.2255433 -0.15886639 -0.16773032 0.050637428 0.138663 -0.09536211 -0.18194386 -0.04160418
0.016861456 -0.004281566 0.21835043 -0.015168319 0.034578025 -0.11454075 -0.06232851 -0.19203417
-0.009528163 -0.053147547 0.14720348 -0.07588155 -0.23921546 -0.018201137 0.035310846 -0.2449876
-0.049487613 -0.097084045 -0.07939913 0.08828883 -0.05778716 0.2500962 0.043092016 -0.103244685
-0.038517985 0.08940833 -0.13351612 -0.069665544 -0.19514976 0.07058836 0.09555566 -0.10425142
0.21879397 0.3111544 0.06858531 -0.009304618 -0.016637428 0.07881652 -0.17811358 0.07420288
-0.04963488 0.048107512 0.058556322 0.03380915 0.0344219 -0.124576874 -0.0947313 -0.035713732
0.002845832 0.1267416 -0.14046904 0.07960183 -0.22053528 -0.10471897 0.15760484 -0.118297465
0.14601502 -0.03211935 0.19262744 -0.114998564 0.21469633 0.044576187 0.111703455 -0.10760004
0.18772767 -0.11391249 -0.28825876 -0.040729932 0.081899546 -0.37494066 0.054222796 0.11194572
0.09642102 -0.05122428 -0.23223701 -0.08570541 0.18587697 -0.13835768 0.041066136 -0.095525384
0.029461056 0.024366396 -0.031238038 0.023102479 -0.13014095 -0.05959062 -0.14950936 0.101735145
0.1544951 -0.043687854 0.15678579 -0.14820561 0.16403891 0.036214005 -0.15271226 -0.05857094
0.1037778 -0.05974426 -0.01217873 0.039217707 0.013852445 -0.03258451 -0.11350076 0.15030672
0.028182425 -0.011512196 -0.14089435 -0.116174765 0.1337035 -0.3061441 -0.089179404 0.0039675157
-0.09905954 -0.2559586 -0.031136611 0.15190887 -0.22623794 -0.070008434 0.13726704 0.075313196
-0.0183397 0.11644116 -0.025663022 -0.043559797 0.12674856 -0.109343834 0.046094038 0.06690835
-0.22870038 0.050015893 0.03548181 0.05555434 0.10730645 -0.09920966 -0.025901204 0.038382698
-0.13574393 -0.17546073 -0.05146458 0.16190833 0.10184757 -0.011807484 0.17482597 0.010704732
0.09656675 -0.11972165 0.27331722 -0.032730877 -0.07851971 0.023180937 -0.15262999 -0.118032694
0.0502375 -0.30925232 0.062998496 -0.0144249555 -0.110140726 0.079462975 0.1454813 0.17096657
-0.21360521 0.07037268 -0.08305197 -0.012129587 -0.07154757 -0.008902633 -0.12520628 -0.081712544
0.05112241 -0.020952668 0.03391009 -0.23018841 0.02059649 0.061142474 -0.22187243 0.16789123
0.21901508 0.01580786 0.029265348 0.19084878 -0.07458127 0.33499217 0.013052961 0.13064115
0.14915206 0.09191518 0.140364 -0.17976938 -0.06858599 0.015622856 -0.08224684 0.014927425
-0.13389876 -0.15054718 0.10240095 0.10352677 0.10435579 0.022924777 -0.07889199 0.12400215
-0.03760645 0.17157741 -0.09563203 0.17043294 -0.20171066 -0.32036257 -0.15460543 -0.007704817
0.15179424 0.06949952 0.023166265 0.017623568 0.16503677 0.1796718 -0.11052904 0.11845404
-0.006913183 0.038810626 -0.14494248 -0.10759302 0.084658645 -0.07184191 0.096556626 0.051333897
0.08026188 0.05983519 -0.11419602 0.063183196 0.14962314 -0.17347306 -0.30107957 0.062413
-0.017512657 -0.14330152 0.028443972 -0.06571408 0.060465798 -0.222582 -0.09156388 -0.017873997
0.088361375 -0.031756073 -0.09608243 -0.0802737 0.03938463 -0.021147093 0.06502338 -0.15875153
00000000: d3f4 663e dfad 22be 7fc1 2bbe 3169 4f3d
00000010: acfd 0d3e 364d c3bd 7e4f 3abe 2569 2abd
00000020: 0921 8a3c 614c 8cbb 4197 5f3e 8b84 78bc
00000030: b0a1 0d3d 5794 eabd 2e4c 7fbd 9ba4 44be
00000040: 031c 1cbc 3eb1 59bd 82bc 163e c967 9bbd
00000050: e6f4 74be 8d1a 95bc 1ba2 103d 08de 7abe
00000060: 86b3 4abd 00d4 c6bd 039c a2bd c6d0 b43d
00000070: 3bb2 6cbd 9c0c 803e 4181 303d f371 d3bd
00000080: 09c5 1dbd b71b b73d 73b8 08be cfac 8ebd
00000090: 57d5 47be a190 903d b0b2 c33d c581 d5bd
000000a0: 870b 603e a14f 9f3e 7476 8c3d 6672 18bc
000000b0: 374b 88bc 8e6a a13d 6863 36be aef7 973d
000000c0: f24d 4bbd 620c 453d c1d8 6f3d 777b 0a3d
000000d0: fafd 0c3d 2922 ffbd 7c02 c2bd 9048 12bd
000000e0: 2381 3a3b 8dc8 013e 1ed7 0fbe 4906 a33d
000000f0: 00d4 61be e676 d6bd 2a63 213e f145 f2bd
00000100: f684 153e 948f 03bd 2140 453e 5e84 ebbd
00000110: 5bd9 5b3e 8595 363d c8c4 e43d 695d dcbd
00000120: af3b 403e f44a e9bd a796 93be 6ed4 26bd
00000130: f3ba a73d 39f8 bfbe b918 5e3d cc43 e53d
00000140: 6278 c53d 8dd0 51bd 8acf 6dbe 5186 afbd
00000150: 8856 3e3e a3ad 0dbe f734 283d d0a2 c3bd
00000160: 5058 f13c 099c c73c eae6 ffbc 6941 bd3c
00000170: ab43 05be 4b15 74bd fb18 19be 845a d03d
00000180: f733 1e3e 09f2 32bd 748c 203e 36c3 17be
00000190: d1f9 273e 2355 143d 9a60 1cbe 15e8 6fbd
000001a0: 7589 d43d 66b6 74bd 4c89 47bc bfa2 203d
000001b0: 5ef5 623c 5677 05bd 1673 e8bd 01ea 193e
000001c0: d4de e63c a69d 3cbc 9c46 10be 09ed edbd
000001d0: 92e9 083e ebbe 9cbe b1a3 b6bd ef01 823b
000001e0: badf cabd 010d 83be 3512 ffbc 008e 1b3e
000001f0: ebaa 67be 9560 8fbd bb8f 0c3e ce3d 9a3d
00000200: 233d 96bc b478 ee3d 423b d2bc c26b 32bd
00000210: 60ca 013e a9ef dfbd 1acd 3c3d 3f07 893d
00000220: 6f30 6abe 77dd 4c3d 6055 113d f38c 633d
00000230: 7cc3 db3d 6f2e cbbd c32e d4bc 2d37 1d3d
00000240: 7500 0bbe faab 33be 86cc 52bd 4ccb 253e
00000250: 7595 d03d 2d74 41bc 9405 333e e662 2f3c
00000260: cac4 c53d a030 f5bd 3cf0 8b3e d010 06bd
00000270: f1ce a0bd f3e5 bd3c 094b 1cbe 20bb f1bd
00000280: d6c5 4d3d 5256 9ebe 5b05 813d a656 6cbc
00000290: 7691 e1bd 7cbd a23d 0df9 143e dc11 2f3e
000002a0: 53bb 5abe 8d1f 903d 2717 aabd 2dbb 46bc
000002b0: 8887 92bd 59dc 11bc 1336 00be e858 a7bd
000002c0: bb65 513d eea4 abbc 4ee5 0a3d 83b6 6bbe
000002d0: f8b9 a83c 8870 7a3d 8732 63be aeeb 2b3e
000002e0: 7d45 603e 7c7f 813c e2bd ef3c dd6d 433e
000002f0: 11be 98bd 1884 ab3e 16dc 553c cbc6 053e
00000300: 51bb 183e 073e bc3d 95bb 0f3e 7715 38be
00000310: d076 8cbd 02f7 7f3c 0871 a8bd 2992 743c
00000320: c21c 09be 0a29 1abe 97b7 d13d d805 d43d
00000330: 7db8 d53d becc bb3c 2092 a1bd d7f4 fd3d
00000340: 3909 1abd fdb1 2f3e bada c3bd f985 2e3e
00000350: 3d8d 4ebe 9006 a4be e350 1ebe b178 fcbb
00000360: f36f 1b3e c455 8e3d 2ec7 bd3c 4d5f 903c
00000370: 66ff 283e e2fb 373e 0d5d e2bd 0898 f23d
00000380: fb87 e2bb e4f7 1e3d cd6b 14be bb59 dcbd
00000390: 8361 ad3d da21 93bd 7bbf c53d 7e43 523d
000003a0: 5760 a43d bf15 753d 9adf e9bd 3166 813d
000003b0: cf36 193e eca2 31be 1a27 9abe c6a4 7f3d
000003c0: b476 8fbc a2bd 12be 5503 e93c 1b95 86bd
000003d0: fcaa 773d 89ec 63be d885 bbbd 7d6c 92bc
000003e0: cff6 b43d a812 02bd ddc6 c4bd 8a66 a4bd
000003f0: c751 213d ab3c adbc fa2a 853d c38f 22be

res1.0.conv1.pointwise.bias f4 [128]
0.0 0.0 0.0 0.0 0.0 0.0 0.0 0.0
0.0 0.0 0.0 0.0 0.0 0.0 0.0 0.0
0.0 0.0 0.0 0.0 0.0 0.0 0.0 0.0
0.0 0.0 0.0 0.0 0.0 0.0 0.0 0.0
0.0 0.0 0.0 0.0 0.0 0.0 0.0 0.0
0.0 0.0 0.0 0.0 0.0 0.0 0.0 0.0
0.0 0.0 0.0 0.0 0.0 0.0 0.0 0.0
0.0 0.0 0.0 0.0 0.0 0.0 0.0 0.0
0.0 0.0 0.0 0.0 0.0 0.0 0.0 0.0
0.0 0.0 0.0 0.0 0.0 0.0 0.0 0.0
0.0 0.0 0.0 0.0 0.0 0.0 0.0 0.0
0.0 0.0 0.0 0.0 0.0 0.0 0.0 0.0
0.0 0.0 0.0 0.0 0.0 0.0 0.0 0.0
0.0 0.0 0.0 0.0 0.0 0.0 0.0 0.0
0.0 0.0 0.0 0.0 0.0 0.0 0.0 0.0
0.0 0.0 0.0 0.0 0.0 0.0 0.0 0.0
00000000: 0000 0000 0000 0000 0000 0000 0000 0000
00000010: 0000 0000 0000 0000 0000 0000 0000 0000
00000020: 0000 0000 0000 0000 0000 0000 0000 0000
00000030: 0000 0000 0000 0000 0000 0000 0000 0000
00000040: 0000 0000 0000 0000 0000 0000 0000 0000
00000050: 0000 0000 0000 0000 0000 0000 0000 0000
00000060: 0000 0000 0000 0000 0000 0000 0000 0000
00000070: 0000 0000 0000 0000 0000 0000 0000 0000
00000080: 0000 0000 0000 0000 0000 0000 0000 0000
00000090: 0000 0000 0000 0000 0000 0000 0000 0000
000000a0: 0000 0000 0000 0000 0000 0000 0000 0000
000000b0: 0000 0000 0000 0000 0000 0000 0000 0000
000000c0: 0000 0000 0000 0000 0000 0000 0000 0000
000000d0: 0000 0000 0000 0000 0000 0000 0000 0000
000000e0: 0000 0000 0000 0000 0000 0000 0000 0000
000000f0: 0000 0000 0000 0000 0000 0000 0000 0000
00000100: 0000 0000 0000 0000 0000 0000 0000 0000
00000110: 0000 0000 0000 0000 0000 0000 0000 0000
00000120: 0000 0000 0000 0000 0000 0000 0000 0000
00000130: 0000 0000 0000 0000 0000 0000 0000 0000
00000140: 0000 0000 0000 0000 0000 0000 0000 0000
00000150: 0000 0000 0000 0000 0000 0000 0000 0000
00000160: 0000 0000 0000 0000 0000 0000 0000 0000
00000170: 0000 0000 0000 0000 0000 0000 0000 0000
00000180: 0000 0000 0000 0000 0000 0000 0000 0000
00000190: 0000 0000 0000 0000 0000 0000 0000 0000
000001a0: 0000 0000 0000 0000 0000 0000 0000 0000
000001b0: 0000 0000 0000 0000 0000 0000 0000 0000
000001c0: 0000 0000 0000 0000 0000 0000 0000 0000
000001d0: 0000 0000 0000 0000 0000 0000 0000 0000
000001e0: 0000 0000 0000 0000 0000 0000 0000 0000
000001f0: 0000 0000 0000 0000 0000 0000 0000 0000

res1.0.bn1.weight f4 [128]
0.0 0.0 0.0 0.0 0.0 0.0 0.0 0.0
0.0 0.0 0.0 0.0 0.0 0.0 0.0 0.0
0.0 0.0 0.0 0.0 0.0 0.0 0.0 0.0
0.0 0.0 0.0 0.0 0.0 0.0 0.0 0.0
0.0 0.0 0.0 0.0 0.0 0.0 0.0 0.0
0.0 0.0 0.0 0.0 0.0 0.0 0.0 0.0
0.0 0.0 0.0 0.0 0.0 0.0 0.0 0.0
0.0 0.0 0.0 0.0 0.0 0.0 0.0 0.0
0.0 0.0 0.0 0.0 0.0 0.0 0.0 0.0
0.0 0.0 0.0 0.0 0.0 0.0 0.0 0.0
0.0 0.0 0.0 0.0 0.0 0.0 0.0 0.0
0.0 0.0 0.0 0.0 0.0 0.0 0.0 0.0
0.0 0.0 0.0 0.0 0.0 0.0 0.0 0.0
0.0 0.0 0.0 0.0 0.0 0.0 0.0 0.0
0.0 0.0 0.0 0.0 0.0 0.0 0.0 0.0
0.0 0.0 0.0 0.0 0.0 0.0 0.0 0.0
00000000: 0000 0000 0000 0000 0000 0000 0000 0000
00000010: 0000 0000 0000 0000 0000 0000 0000 0000
00000020: 0000 0000 0000 0000 0000 0000 0000 0000
00000030: 0000 0000 0000 0000 0000 0000 0000 0000
00000040: 0000 0000 0000 0000 0000 0000 0000 0000
00000050: 0000 0000 0000 0000 0000 0000 0000 0000
00000060: 0000 0000 0000 0000 0000 0000 0000 0000
00000070: 0000 0000 0000 0000 0000 0000 0000 0000
00000080: 0000 0000 0000 0000 0000 0000 0000 0000
00000090: 0000 0000 0000 0000 0000 0000 0000 0000
000000a0: 0000 0000 0000 0000 0000 0000 0000 0000
000000b0: 0000 0000 0000 0000 0000 0000 0000 0000
000000c0: 0000 0000 0000 0000 0000 0000 0000 0000
000000d0: 0000 0000 0000 0000 0000 0000 0000 0000
000000e0: 0000 0000 0000 0000 0000 0000 0000 0000
000000f0: 0000 0000 0000 0000 0000 0000 0000 0000
00000100: 0000 0000 0000 0000 0000 0000 0000 0000
00000110: 0000 0000 0000 0000 0000 0000 0000 0000
00000120: 0000 0000 0000 0000 0000 0000 0000 0000
00000130: 0000 0000 0000 0000 0000 0000 0000 0000
00000140: 0000 0000 0000 0000 0000 0000 0000 0000
00000150: 0000 0000 0000 0000 0000 0000 0000 0000
00000160: 0000 0000 0000 0000 0000 0000 0000 0000
00000170: 0000 0000 0000 0000 0000 0000 0000 0000
00000180: 0000 0000 0000 0000 0000 0000 0000 0000
00000190: 0000 0000 0000 0000 0000 0000 0000 0000
000001a0: 0000 0000 0000 0000 0000 0000 0000 0000
000001b0: 0000 0000 0000 0000 0000 0000 0000 0000
000001c0: 0000 0000 0000 0000 0000 0000 0000 0000
000001d0: 0000 0000 0000 0000 0000 0000 0000 0000
000001e0: 0000 0000 0000 0000 0000 0000 0000 0000
000001f0: 0000 0000 0000 0000 0000 0000 0000 0000

res1.0.bn1.bias f4 [128]
0.0 0.0 0.0 0.0 0.0 0.0 0.0 0.0
0.0 0.0 0.0 0.0 0.0 0.0 0.0 0.0
0.0 0.0 0.0 0.0 0.0 0.0 0.0 0.0
0.0 0.0 0.0 0.0 0.0 0.0 0.0 0.0
0.0 0.0 0.0 0.0 0.0 0.0 0.0 0.0
0.0 0.0 0.0 0.0 0.0 0.0 0.0 0.0
0.0 0.0 0.0 0.0 0.0 0.0 0.0 0.0
0.0 0.0 0.0 0.0 0.0 0.0 0.0 0.0
0.0 0.0 0.0 0.0 0.0 0.0 0.0 0.0
0.0 0.0 0.0 0.0 0.0 0.0 0.0 0.0
0.0 0.0 0.0 0.0 0.0 0.0 0.0 0.0
0.0 0.0 0.0 0.0 0.0 0.0 0.0 0.0
0.0 0.0 0.0 0.0 0.0 0.0 0.0 0.0
0.0 0.0 0.0 0.0 0.0 0.0 0.0 0.0
0.0 0.0 0.0 0.0 0.0 0.0 0.0 0.0
0.0 0.0 0.0 0.0 0.0 0.0 0.0 0.0
00000000: 0000 0000 0000 0000 0000 0000 0000 0000
00000010: 0000 0000 0000 0000 0000 0000 0000 0000
00000020: 0000 0000 0000 0000 0000 0000 0000 0000
00000030: 0000 0000 0000 0000 0000 0000 0000 0000
00000040: 0000 0000 0000 0000 0000 0000 0000 0000
00000050: 0000 0000 0000 0000 0000 0000 0000 0000
00000060: 0000 0000 0000 0000 0000 0000 0000 0000
00000070: 0000 0000 0000 0000 0000 0000 0000 0000
00000080: 0000 0000 0000 0000 0000 0000 0000 0000
00000090: 0000 0000 0000 0000 0000 0000 0000 0000
000000a0: 0000 0000 0000 0000 0000 0000 0000 0000
000000b0: 0000 0000 0000 0000 0000 0000 0000 0000
000000c0: 0000 0000 0000 0000 0000 0000 0000 0000
000000d0: 0000 0000 0000 0000 0000 0000 0000 0000
000000e0: 0000 0000 0000 0000 0000 0000 0000 0000
000000f0: 0000 0000 0000 0000 0000 0000 0000 0000
00000100: 0000 0000 0000 0000 0000 0000 0000 0000
00000110: 0000 0000 0000 0000 0000 0000 0000 0000
00000120: 0000 0000 0000 0000 0000 0000 0000 0000
00000130: 0000 0000 0000 0000 0000 0000 0000 0000
00000140: 0000 0000 0000 0000 0000 0000 0000 0000
00000150: 0000 0000 0000 0000 0000 0000 0000 0000
00000160: 0000 0000 0000 0000 0000 0000 0000 0000
00000170: 0000 0000 0000 0000 0000 0000 0000 0000
00000180: 0000 0000 0000 0000 0000 0000 0000 0000
00000190: 0000 0000 0000 0000 0000 0000 0000 0000
000001a0: 0000 0000 0000 0000 0000 0000 0000 0000
000001b0: 0000 0000 0000 0000 0000 0000 0000 0000
000001c0: 0000 0000 0000 0000 0000 0000 0000 0000
000001d0: 0000 0000 0000 0000 0000 0000 0000 0000
000001e0: 0000 0000 0000 0000 0000 0000 0000 0000
000001f0: 0000 0000 0000 0000 0000 0000 0000 0000

res1.0.bn1.running_mean f4 [128]
-6.5367644e-06 0.0017471737 -0.0007870482 0.043543693 -0.012257955 0.0046903887 -0.009572876 0.008314658
0.00699952 -0.025527613 7.238425e-05 -0.014898399 -0.014624904 0.008021023 -0.008673282 0.017112026
0.0026689111 -0.011563494 -0.019345528 0.00395385 0.007532524 -0.014766862 0.0091102915 -0.004319225
-0.0094286995 0.007850093 0.001752067 -0.019292057 0.017390642 -0.0038189793 0.005873008 0.0034979621
-0.005532468 0.015220241 0.005402476 -0.005136379 0.028613709 0.013854568 0.002232436 0.01038207
-0.003401339 0.0077484166 -0.0050868257 0.017147124 0.009493209 0.010337729 -0.011327299 0.003943303
-0.004651381 -0.013688408 -0.0044532423 0.007286192 -0.004724954 -0.015317487 0.0011544058 0.01291107
-0.013200942 -0.0034638296 0.0068416484 0.00020557144 0.01409092 0.021909254 -0.0039422624 0.010638416
0.003674936 -0.005673912 0.007136744 -0.0016603468 -0.015254222 -0.020150362 -0.00045248476 -0.0051602023
-0.00011270075 0.0058299256 0.0045214603 -0.016035628 -0.00042374685 0.0020051552 -0.007873907 -0.013718126
0.0117089795 -0.013977364 0.0105351955 -0.0043936353 -0.013012619 0.019910851 -0.0012513009 0.01226018
0.019917876 -0.01781916 -0.016667077 0.004696426 -0.013322628 -0.016510695 0.006930221 -0.010674947
0.006555413 -0.019264624 -0.0014739757 -0.0022865 -0.00037405 -0.005851815 0.002134513 -0.00353266
-0.009960441 -0.020552766 0.0015746752 -0.0079438435 -0.003598951 -0.014353281 0.0031819905 0.0011910939
0.0059330342 0.009461403 -0.030175809 0.002546705 0.009148542 0.016869625 -0.005574675 -0.008757563
0.014979526 0.018856557 -0.0064203176 0.0058392887 -0.0063528423 0.008225097 -0.013881663 -0.0053001293
00000000: 6156 dbb6 6c01 e53a e951 4eba df5a 323d
00000010: 97d5 48bc d5b1 993b 8dd7 1cbc 343a 083c
00000020: 3b5c e53b 491f d1bc 00cd 9738 6a18 74bc
00000030: 4b9d 6fbc 9c6a 033c 621a 0ebc 852e 8c3c
00000040: e6e8 2e3b cf74 3dbc 837a 9ebc 4c8f 813b
00000050: 64d3 f63b b5f0 71bc 5543 153c 4988 8dbb
00000060: d57a 1abc ad9d 003c 9da5 e53a 600a 9ebc
00000070: d276 8e3c d747 7abb 5d72 c03b 113e 653b
00000080: b549 b5bb 515e 793c 4107 b13b 124f a8bb
00000090: 4c67 ea3c 45fe 623c 104e 123b 8f19 2a3c
000000a0: 00e9 5ebb 6ee6 fd3b 63af a6bb 2078 8c3c
000000b0: 6889 1b3c 945f 293c 2396 39bc d336 813b
000000c0: 9d6a 98bb 5845 60bc 81ec 91bb 02c1 ee3b
000000d0: c9d3 9abb 32f6 7abc 6e4f 973a f488 533c
000000e0: c448 58bc 6b01 63bb e82f e03b aa8e 5739
000000f0: 9add 663c 097b b33c 182e 81bb c04c 2e3c
00000100: 32d7 703b 39ec b9bb 59db e93b fe9f d9ba
00000110: d8ec 79bc 5f12 a5bc 7a3b edb9 ea16 a9bb
00000120: c159 ecb8 f608 bf3b c228 943b 265d 83bc
00000130: 572a deb9 ec68 033b 8f01 01bc fec1 60bc
00000140: 05d7 3f3c 5001 65bc d09b 2c3c 7cf8 8fbb
00000150: e132 55bc 151c a33c b102 a4ba ecde 483c
00000160: d02a a33c 7df9 91bc 6589 88bc 7ae4 993b
00000170: 2747 5abc 7041 87bc e816 e33b f9e5 2ebc
00000180: cace d63b d8d0 9dbc 6b32 c1ba 1bd9 15bb
00000190: 241c c4b9 95c0 bfbb 30e3 0b3b 3384 67bb
000001a0: 1e31 23bc 465e a8bc 5565 ce3a e526 02bc
000001b0: 61dc 6bbb 062a 6bbc f188 503b 7b1e 9c3a
000001c0: e669 c23b 0004 1b3c 4233 f7bc 9fe6 263b
000001d0: c4e3 153c 2b32 8a3c c3ab b6bb e27b 0fbc
000001e0: b06c 753c 1179 9a3c 8761 d2bb 8157 bf3b
000001f0: 812b d0bb 8fc2 063c ea6f 63bc b5ac adbb

res1.0.bn1.running_var f4 [128]
0.00039937647 0.0002693777 0.00024688628 0.0002652404 0.00016135813 0.00015060819 8.684193e-05 6.250163e-05
0.00012340774 0.0002992931 0.0003212872 0.0002673928 0.00012039067 0.00019987716 0.0001960671 0.00017640338
0.00025091303 0.00026537475 0.00014181781 0.00031609618 7.373126e-05 0.00022056483 0.0001411652 0.0001809637
0.000103934 0.00014510532 0.00013111145 0.00032733148 0.00019477142 0.00024500288 0.00012883425 6.923566e-05
0.00020733084 9.337e-05 7.868953e-05 0.00023648523 0.00016702295 0.00023864371 0.000115952294 0.00013906664
7.5596356e-05 0.00017188657 0.00016312875 0.00011417608 0.0005685536 0.00030734955 0.00048823503 0.000272094
6.12318e-05 0.00010437212 0.00011053892 0.00015241989 0.00013180036 0.00031457486 0.00015926288 5.9633945e-05
0.00015362698 9.71832e-05 0.00013482486 9.265748e-05 0.00013224444 0.00011397308 0.00014401235 0.0001719584
0.00013464762 0.00014809104 0.00015122924 0.00017304711 0.00024828495 0.00014165626 0.00013692057 5.1031653e-05
0.00023919747 9.737131e-05 9.2006085e-05 0.00010136567 0.00029573616 7.976954e-05 8.59117e-05 0.000116202136
0.00014705038 0.0001235438 0.00012356444 0.00013852867 0.00033569982 0.00029549992 0.00019012002 0.00014607886
0.0001721171 0.00010658324 0.00023108002 6.0710056e-05 0.00020447081 0.00011394321 0.0001518279 0.0002206953
0.0001304635 0.00012148062 0.00039719988 9.9539495e-05 6.2011684e-05 0.00041942942 0.0003842527 0.00016666329
0.00036777253 0.00010617842 8.598082e-05 0.00010833901 0.00018994324 0.0001266667 0.000106760715 0.00023823757
0.00012540586 0.00022230751 0.00023868163 9.1658294e-05 0.000105320105 0.00010096353 0.00012547473 0.00010503177
0.00014583777 9.864406e-05 0.00014998752 0.00016233388 0.00026299813 0.00016647094 0.00028235008 0.00020269692
00000000: 6763 d139 433b 8d39 8470 8139 f70f 8b39
00000010: 3e32 2939 94ec 1d39 e81e b638 4f13 8338
00000020: 0367 0139 71ea 9c39 7072 a839 db30 8c39
00000030: 407a fc38 1e96 5139 5d97 4d39 ecf8 3839
00000040: fa8c 8339 ff21 8b39 eeb4 1439 b6b9 a539
00000050: 2ba0 9a38 6c47 6739 bf05 1439 13c1 3d39
00000060: 24f7 d938 6a27 1839 f67a 0939 b09d ab39
00000070: 8e3b 4c39 bb73 8039 ae17 0739 9d32 9138
00000080: f366 5939 a3cf c338 1f06 a538 05f9 7739
00000090: e222 2f39 6f3c 7a39 6a2b f338 6bd2 1139
000000a0: 7c89 9e38 733c 3439 8a0d 2b39 d171 ef38
000000b0: fc0a 153a c223 a139 ccf9 ff39 d7a7 8e39
000000c0: 9369 8038 5be2 da38 21d1 e738 e7d2 1f39
000000d0: e433 0a39 86ed a439 ceff 2639 761f 7a38
000000e0: ee16 2139 d5ce cb38 c65f 0d39 1b51 c238
000000f0: 19ab 0a39 d504 ef38 0502 1739 bb4f 3439
00000100: 3230 0d39 e348 1b39 4a93 1e39 fb73 3539
00000110: 3e2c 8239 9089 1439 5692 0f39 d20a 5638
00000120: 15d1 7a39 d333 cc38 64f3 c038 4894 d438
00000130: 090d 9b39 f249 a738 7e2b b438 8cb1 f338
00000140: 8931 1a39 898b 0139 1491 0139 0242 1139
00000150: de00 b039 54ed 9a39 f45a 4739 bf2c 1939
00000160: 557a 3439 7185 df38 124e 7239 eda2 7e38
00000170: 3767 5639 ccf4 ee38 fe33 1f39 726a 6739
00000180: 07cd 0839 69c3 fe38 443f d039 dcbf d038
00000190: 450c 8238 dde6 db39 8675 c939 56c2 2e39
000001a0: 98d1 c039 1bac de38 9a50 b438 1034 e338
000001b0: 802b 4739 d5d1 0439 b9e4 df38 69cf 7939
000001c0: 617f 0339 381b 6939 9d46 7a39 ac38 c038
000001d0: 4ddf dc38 62bc d338 de91 0339 8144 dc38
000001e0: 07ec 1839 20df ce38 f845 1d39 2b38 2a39
000001f0: 03e3 8939 b48e 2e39 6308 9439 0a8b 5439
