MonocularDepthEstimation/savedmodels/Masks/64-4epochs/finalmodelwithdata-Mask-64K.pt (torch_old, 514657 bytes, 107 tensors)

prep.DepthwiseConv2d.depthwise.weight f4 [3, 1, 3, 3]
00000000: 5136 193e 7557 393d 4bea 4abe 0191 08c0
00000010: df70 073e c598 ff3f 2234 21c0 eccb c43e
00000020: 963e 0940 eb1a 0d3e 5a85 733d 3a1d 43be
00000030: 593c 03c0 ea11 123e f1df f23f d47f 16c0
00000040: d1c9 c53e ad33 f83f 6a90 8c3e bd04 f83d
00000050: 1bc4 bcbe 2b60 20c0 1774 8abd e22c 2940
00000060: 333e 38c0 a994 323f 361c 0240
0.14962126 0.04524942 -0.19815938 -2.1338503 0.1322665 1.9968497 -2.518807 0.3843683
2.144445 0.137798 0.059453346 -0.19054118 -2.0505583 0.14264646 1.8974591 -2.351552
0.38630536 1.939077 0.2745393 0.12110279 -0.36868367 -2.5058696 -0.06760424 2.6433644
-2.8787963 0.6975809 2.0329719

prep.DepthwiseConv2d.pointwise.weight f4 [64, 3, 1, 1]
00000000: 11bd bebe 62f5 95be 10ca ffbe e66f 01bf
00000010: 0b96 c9bd ac36 99be 0dfb d2be 2704 6fbe
00000020: 87de 103e 86e2 f03d a12a 393e a913 083f
00000030: b5a1 5d3f ec48 9dbf 3603 0ebf fc80 193e
00000040: 9367 963b 8d14 6b3f b6c4 02be bd2e 16be
00000050: b17b b83e 53da 51bd c296 423d e7c8 2abd
00000060: de4e c23e bac8 b1be 75b8 033e 5251 9d3e
00000070: d8e8 d33d a4be e43d 31b4 5e3e b8c8 613d
00000080: 043e 5abe fb95 0a3f 5ec2 c03e 6557 48be
00000090: 56ed 863e ca97 a53e 7751 bf3e 6f71 14bf
000000a0: f743 c43e 85ab 7f3f c76f 263d 358a 80bb
000000b0: b4af 3a3f 9905 25bd d5f5 ad3e a6a5 49be
000000c0: 4257 23bf 1263 573f ed75 bcbe dd07 80bd
000000d0: 9ba0 2d3e 4e51 873b e6e1 0c3f 81ea 9c3e
000000e0: 9010 a3bf a2eb 6cbf 21d9 633f 91c6 b03e
000000f0: 8689 c23e b9d5 0fbf 7304 503f 9a36 34be
00000100: 17c4 983e 874c 4cbe 4951 92be 02b7 21be
00000110: 6288 46bf b4ce 46be b510 b7be a64a c7bd
00000120: d662 ab3e f465 1e3d ff06 c33d 1276 7b3f
00000130: 4fe5 babf 1d84 f23e a19f d53d 4b36 683e
00000140: 7ee0 fe3e d729 56be a890 d93e 5a71 8b3e
00000150: b232 85be a535 c0be e11a bbbe 3016 d93c
00000160: c58c 33bd 42c5 813e d1ec 443d ca49 4ebe
00000170: dab2 fdbd 584b a53e 15af 86be 7f09 72be
00000180: 2bcd 093e ea58 54bf f193 57be 9f82 94bf
00000190: 7873 2fbf 318d 943e 82e7 96be c5bd 97bd
000001a0: 1590 943f 5415 1abe 6f50 da3b 55d4 e0be
000001b0: a03c 203e aa6e 1cbd 27fa aabf be96 823e
000001c0: 0d9e 64bd d32a 95bd 50fe 93bc 1712 a53f
000001d0: dc93 7dbe 4122 373f 6d44 753f 8695 99bf
000001e0: 61d4 dcbd 6ea3 b4be 70ff 9ebe 5df1 013e
000001f0: c1d0 55bf 1acd 0d3f 1a3f c9be 2a05 64bb
00000200: b538 fabe 9ec2 7b3f 9d2a 523d 6a09 77bf
00000210: a99f b3bf d483 833d a7f9 b03f ba59 df3c
00000220: ae72 873e 4387 433e 8c08 69be 46c2 303e
00000230: 89cd 3e3d 8c94 323f 31e8 063f 1c47 193e
00000240: 4614 cbbe 28e1 4bbe f5c4 473e ecb8 c43d
00000250: 01b0 38be 37a9 2dbf 1543 8b3d f8fa 57be
00000260: 4e4d 7c3d f943 003f 1da3 a13e bfc0 d33e
00000270: 19fa 883e cf8a 763e 5476 253f 7b3d 70bf
00000280: 87b8 243f 8906 f8be 7508 813e da19 e33e
00000290: 21fb c03e 49fb 453e 5cc7 d3be 2d44 b83d
000002a0: f494 f23e 762a ad3e b08a fabd 2e8a 093d
000002b0: c426 2b3e 63f7 823d 7e20 133e bd85 2bbe
000002c0: 69c6 353e f149 bc3e c57a ba3c 3f6a c53e
000002d0: 66f2 69be 0508 1a3e 682d b43d 8fb7 5b3f
000002e0: bbd1 b13e 1284 c8be d09f f93e 16f4 c43e
000002f0: 9d4a 843f d60b 2dbf b003 e5be c510 323f
-0.3725362 -0.29288775 -0.4995885 -0.5056137 -0.098430716 -0.29924524 -0.41207162 -0.23341428
0.14147387 0.11761956 0.18082668 0.53155 0.8657487 -1.2287879 -0.5547365 0.1499061
0.0045899837 0.91828233 -0.12770352 -0.14666267 0.3603187 -0.0512336 0.047507055 -0.0416955
0.37950796 -0.34723455 0.12863334 0.30726105 0.10347146 0.11169174 0.21748425 0.05512306
-0.2131272 0.541351 0.3764829 -0.19564588 0.26352948 0.32342368 0.3736684 -0.57985586
0.38333103 0.99871093 0.040633943 -0.0039227256 0.7292435 -0.04028854 0.33976617 -0.19692096
-0.6380502 0.84135544 -0.3680872 -0.062515 0.16955797 0.0041295653 0.55032194 0.30647662
-1.273943 -0.9254705 0.8900319 0.34526494 0.37995547 -0.5618549 0.8125679 -0.17598954
0.29837105 -0.19951068 -0.2857764 -0.15792468 -0.77551854 -0.19414788 -0.35754934 -0.09731035
0.33473843 0.03867145 0.09522819 0.98227036 -1.460123 0.4736642 0.104308374 0.22676961
0.4978065 -0.20914398 0.42493176 0.27234918 -0.2601524 -0.37540928 -0.36543944 0.026499838
-0.04383542 0.25345808 0.04807741 -0.20145336 -0.12387629 0.32284045 -0.26305452 -0.23636435
0.13457172 -0.8294817 -0.21052529 -1.1602362 -0.68535566 0.2901397 -0.294735 -0.074092425
1.160647 -0.15047199 0.0066624205 -0.43911996 0.15648127 -0.038191475 -1.335759 0.25505632
-0.05581479 -0.07283559 -0.018065602 1.2896146 -0.24763435 0.7153664 0.95807534 -1.1998756
-0.107826956 -0.35280937 -0.31054258 0.12689729 -0.8352166 0.55391085 -0.39305955 -0.0034793117
-0.4887139 0.9834384 0.05131017 -0.9649874 -1.40331 0.064216286 1.3826188 0.027264465
0.2645468 0.19094567 -0.22757167 0.1726161 0.046582732 0.69757915 0.52698046 0.14968532
-0.39663905 -0.19910109 0.19508727 0.096055835 -0.1803589 -0.67836326 0.06799904 -0.2109183
0.06159716 0.5010372 0.31569758 0.4135799 0.2675331 0.24076389 0.6463368 -0.9384381
0.64344066 -0.48442486 0.25201765 0.4435566 0.37691596 0.19334139 -0.41363037 0.089973785
0.47379267 0.33821458 -0.12233484 0.033579044 0.16714007 0.063948415 0.14367864 -0.16750236
0.17751469 0.36775163 0.02276362 0.38557622 -0.22846374 0.15042122 0.08797723 0.85826963
0.34730324 -0.39163262 0.4875474 0.38467473 1.033527 -0.67596185 -0.44729376 0.6955684

prep.DepthwiseConv2d.pointwise.bias f4 [64]
00000000: 4695 c13d 1b7f 6a3e 9e00 a73e c7ba 873e
00000010: cd4a 06bd a5a5 96bd dedb 06bd d3ae edbc
00000020: 209b 00bc 2e53 803d 2199 e43c 0766 bb3d
00000030: b7f7 23be 85e4 4abd b51f c73e dd32 99bd
00000040: f6ef 4fbb c16c c4bd 1436 c6bd d802 82ba
00000050: a2d8 27bc d862 70bb 3452 2e3d 0d92 0bbd
00000060: 265e 6fbc 95bf c53b a087 f63e 274e 303c
00000070: 08d5 203e e4ba 9fbc 0cfb 8dbc 24c7 5bbc
00000080: 1eed 4fbd 63a5 753b 4f34 a7bc e3a1 c2be
00000090: ce7a 18be 576b 50be 132d bbbc 1f87 c0bc
000000a0: 589e 003e a049 0bbb 1b52 de3a bf58 40bc
000000b0: 1818 483d 96eb 2b3e 505d 80ba d9c3 ce3d
000000c0: 70fa 353e f65a adbc 8249 143d e877 f73d
000000d0: 3376 913d f49f 19bd 4342 fabd 9f66 0b3e
000000e0: 8e7b 9f3e 2fdc d53b cd23 f43d ec92 143e
000000f0: 05e3 d9bc fda7 c0bd 4dc1 4e3d a750 3b3d
0.094523 0.2290005 0.32617658 0.26509687 -0.03278618 -0.07355813 -0.032924525 -0.029014027
-0.007849485 0.06265865 0.027905049 0.091503195 -0.16012464 -0.04953434 0.38891378 -0.074804045
-0.0031728721 -0.09591056 -0.09678283 -0.000991906 -0.01024452 -0.003668001 0.042558864 -0.03407483
-0.014609849 0.0060348012 0.4815035 0.0107608205 0.15706265 -0.019498296 -0.017331623 -0.013414178
-0.050763242 0.0037482611 -0.020410685 -0.38014135 -0.14890596 -0.20353447 -0.022848641 -0.02350193
0.12560403 -0.00212536 0.0016961725 -0.011739909 0.048851103 0.16789088 -0.0009793434 0.10095949
0.17771316 -0.021161538 0.036202915 0.12083417 0.07102623 -0.03750606 -0.1221967 0.13613366
0.31148952 0.006526492 0.11920891 0.14509171 -0.02659751 -0.09407041 0.050477315 0.045731213

cb1.DepthwiseConv2d.depthwise.weight f4 [64, 1, 3, 3]
00000000: c485 93be 1d73 d8be dd84 333e 5f43 60bd
00000010: 778e 9abe 6566 0d3e 3a6a 32be 15f2 d7bd
00000020: 3df3 fa3d a83a 383e b667 97bd 2853 e5bd
00000030: 7f8a 733e db40 a43b d1fe 283d 4929 debe
00000040: a9f1 37be 3ead 833e 9f0c f4bd 7620 d03c
00000050: e3bd 533d fdec c6bd 0d31 743d 4b08 ae3c
00000060: 944a c3be fc78 e63e 90e9 2e3e e483 9e3e
00000070: 9080 2ebc 6c6d cfbe 0750 98bd cee4 3b3e
00000080: 20b3 bdbd a8d6 60be bc9a 983e 0e80 0e3e
00000090: 968c 07bf fed8 aebd 4395 d1be be55 c6be
000000a0: 1272 82be 01b1 09be ec21 debc c1f6 f2bd
000000b0: ddb7 eebd 54ab 8c3d fbdd 913e d3bf 263e
000000c0: bcbf 3b3e fda0 8d3e d189 9cbe 9119 a83e
000000d0: b85c a23e 1d1b 873e 5329 2cbe 5839 b1bd
000000e0: 2d0d f73c 733b 0bbe be3b 53bd bd50 dabd
000000f0: 0011 3abe beeb 50bd 7a38 b8bd 07af 2f3c
00000100: cbef 983c da04 02bb b972 b33c 5c80 cc3d
00000110: c0ff da3d 694d b7bc 0cca 95bd 7e07 a2bc
00000120: da97 123e 1e98 523e 95de 5d3e 77de 86bc
00000130: 2f6f c23d 9250 243e 14e8 9abd 8c66 cfbd
00000140: 9dc1 bb3d cf57 f5bd 8a84 cdbd cd26 ecbd
00000150: 0ea5 8abd 4e59 acbc 3067 9fbc 1c78 cabd
00000160: 4a3f 49be 4124 1e3e cea2 8c3d 062d 09be
00000170: 2cd5 63be e890 243c d489 7d3d 4658 d1bd
00000180: cb50 813d 40ae 12bd 08e4 44bc 3818 fa3d
00000190: 8d17 aa3e 92a6 2c3e 93c9 833e 0292 b93e
000001a0: 7815 8cba 8bf6 ecbd 2358 833d 06ac 42be
000001b0: 3ccd 90be b7a4 65be 881a dc3d d327 22be
000001c0: 6514 0cbe 7cfe 5fbe cbf2 bfbd d651 3ebc
000001d0: 8744 8dbe 7799 2fbf bdc6 4f3e 5092 753d
000001e0: d26d e0be 7656 c63d 5758 10be d2bd 80be
000001f0: 5788 d1be eca6 75be badf 2fbc ca5a 2dbe
00000200: e024 3abe 582c f3bb 4651 b4bd 2e5e 3ebe
00000210: f84a e63e a1be cabd 2228 233f 0ab5 b7bd
00000220: fa81 653d b227 2bbd e043 b8bd 8492 1cbe
00000230: 0baa 10be 7fd7 d8bd 6993 4bbe 9179 d4bd
00000240: 8095 2b3f 756a a23d c387 803c b91c fd3e
00000250: e8e7 133e dde8 adbd c854 8e3e ea6e a33d
00000260: cb28 9bbd a622 9cbd aa5c b03d 78a6 463d
00000270: 3ef6 90bd 9818 23bd 0595 993c eb54 42bd
00000280: f843 0a3d e8cc 2a3d a17c 7cbe 1920 96be
00000290: 18ae bcbe 7f6e a9be cff1 03bf e923 bdbe
000002a0: 9efd 8dbe e5c1 bebc a0c3 c5bd c774 98be
000002b0: afad dfbc fed7 eebe 0a56 abbe 0373 03bf
000002c0: b263 a7be 862f 71bd ca51 a33d 3d1f 69be
000002d0: 091d 8f3d 787c c33e da7c a63e 91de fcbc
000002e0: 0d3c c4bc b212 a03e a58d 6a3e 86ea ba3d
000002f0: d547 a53d 65cd f73d 8670 d83d 7f88 0c3e
00000300: 76f0 ad3d 3502 873d de89 3a3e d40f 7a3d
00000310: dd70 adbd 008c 4c3e 43bf e73d 4bbb 4c3e
00000320: ef46 c93e d315 613e 3b15 a63e 2f1d 223e
00000330: 5017 28be c161 8abe e5ea bdbe 5c0e 9b3d
00000340: a8c0 573e 5b2a 7ebd 1c1b 213e 4989 1e3e
00000350: c578 183d b148 7cbe 1869 06bd 078d 52bc
00000360: 90a0 80bd 4fba b1bc 3bb3 f13d f349 ca3d
00000370: 4edb 5ebe 0d03 1ebd 2ef0 113e b4c7 55bd
00000380: 6d25 353d a88a e7be 3389 96bd 13a3 07bf
00000390: a87f c9be ba9a ddbe 18d4 b0be 904b 01be
000003a0: 7072 4d3e 329a 67be ab6b d23d 2bac b33e
000003b0: e23b c8be f6f8 593d 2f07 883e 0750 abbd
000003c0: 4b95 883e 16f1 50be c6d7 d0be e8fc 0dbc
000003d0: b21c 41be b679 9fbe 6974 bebd 4278 02be
000003e0: 00f6 16be cfd1 6fbe b2a7 7eb9 dfff d23c
000003f0: 8f20 01be 4293 d23d f303 883b 48a2 853e
-0.28812993 -0.42275324 0.17531152 -0.05475175 -0.30186817 0.13808592 -0.17423335 -0.1054422
0.12253425 0.17991126 -0.07392828 -0.111975014 0.23783301 0.005012614 0.041258637 -0.43390873
-0.1796328 0.2571811 -0.1191647 0.025406104 0.051694762 -0.09713171 0.05961709 0.021244189
-0.38142836 0.4501418 0.17081285 0.3096 -0.010650769 -0.4051317 -0.07437139 0.18349001
-0.09262681 -0.21956885 0.29805553 0.13916036 -0.5294889 -0.08537482 -0.4093419 -0.3873729
-0.25477654 -0.13446428 -0.027115785 -0.11863471 -0.11656163 0.06868616 0.2848967 0.16284113
0.1833486 0.27661887 -0.30573896 0.32832006 0.31711364 0.26387873 -0.16812639 -0.086535156
0.03015765 -0.13596897 -0.051570646 -0.10659931 -0.18170547 -0.05100607 -0.08995147 0.010722882
0.01866903 -0.0019839318 0.02190529 0.0998542 0.10693312 -0.02237578 -0.07313928 -0.019778963
0.1431574 0.2056584 0.2166694 -0.016463501 0.09493863 0.1604636 -0.07563797 -0.10126981
0.09167788 -0.11979639 -0.100350454 -0.11530838 -0.06769763 -0.021038678 -0.019458383 -0.0988619
-0.19653049 0.15443517 0.0686699 -0.13396081 -0.22249287 0.010044314 0.06189902 -0.10221915
0.06314238 -0.03581071 -0.0120172575 0.122116506 0.33221093 0.16860417 0.25739726 0.36244208
-0.001068755 -0.11570462 0.06413295 -0.19010934 -0.2828158 -0.22426115 0.10747248 -0.15835504
-0.13679655 -0.21874422 -0.09372481 -0.011616191 -0.27591345 -0.68593544 0.20290656 0.059953988
-0.43833786 0.0968446 -0.14096199 -0.2514482 -0.40924332 -0.23989457 -0.010734493 -0.16929165
-0.18178129 -0.0074210577 -0.08804564 -0.18590614 0.44979072 -0.09899641 0.6373311 -0.08970077
0.05603216 -0.041785903 -0.08997321 -0.15290266 -0.14127366 -0.105879776 -0.19880451 -0.103747495
0.67024994 0.07930461 0.015689736 0.49435976 0.14443934 -0.08491681 0.27799058 0.079801396
-0.0757614 -0.07623796 0.08611424 0.0484986 -0.07078217 -0.039818376 0.018747816 -0.047444265
0.033756226 0.04169932 -0.24656917 -0.29321364 -0.36851573 -0.33092114 -0.51540846 -0.3694146
-0.27732557 -0.023285815 -0.09656453 -0.29776594 -0.027304498 -0.46649164 -0.3346408 -0.5134737
-0.3269325 -0.058883213 0.079745844 -0.22765823 0.0698796 0.381809 0.3251713 -0.030867847
-0.023954416 0.31264263 0.22905596 0.09126763 0.080703415 0.12099723 0.10568337 0.13723944
0.0849313 0.06592218 0.18216655 0.06105025 -0.084687926 0.19975281 0.11315777 0.19993322
0.3931193 0.21980982 0.32438073 0.15831445 -0.16415143 -0.27027705 -0.37093273 0.07571098
0.21069586 -0.062052112 0.15732998 0.15482058 0.03722455 -0.24637105 -0.03281507 -0.012851006
-0.06280625 -0.021695284 0.118017636 0.09877386 -0.21763346 -0.03857713 0.14251778 -0.052192405
0.044225145 -0.45222974 -0.073503874 -0.52983207 -0.39355206 -0.4328211 -0.34536815 -0.12626481
0.20063186 -0.22617415 0.10274442 0.3509229 -0.39108187 0.053215943 0.2656798 -0.083648734
0.26676401 -0.20404467 -0.40789622 -0.008666255 -0.18858603 -0.31147546 -0.09299547 -0.12741187
-0.14742279 -0.2341988 -0.00024285799 0.025756774 -0.12610076 0.102819934 0.0041508614 0.26100373

cb1.DepthwiseConv2d.pointwise.weight f4 [128, 64, 1, 1]
00000000: 702b 0abe 7d8a 5fbe 7ed7 473d 4b9a 093e
00000010: 2410 ee3c 3883 a0bd be46 20bd 8fef 383d
00000020: f550 abbd bde1 183e ea39 1fbe 1439 a53d
00000030: 061b 03be 1e4c 15be e238 7e3e f556 cb3c
00000040: d720 ab3c fc83 f23c 52df 333e e4fc 243d
00000050: 9a09 83bd 5b0c 903e 8dd2 a63c c923 fc3d
00000060: 473d b83c 9457 dfbd 2a02 22be 8f4d 643d
00000070: 2a22 df3d 0c74 43be c227 96bd 5879 2ebe
00000080: 6ad1 24bb 1acb 91be 981a d1bd b8fd f93d
00000090: 596c 263e 3e0f 0a3e 9313 103e 2f93 4a3d
000000a0: ba3f c23b 00c2 12be c5f1 d0bc ce09 f9bc
000000b0: 4545 013e 6f1a 01be e506 a33c d379 fb3d
000000c0: 3842 c4bd dead 963d b323 4f3d 242d 823e
000000d0: b6fa 97bd 5410 173e a8d9 df3c 4473 c93d
000000e0: a466 dd3c d583 353c 606e b53d 2a77 813d
000000f0: 4ef0 8f3d 738d 0e3d 7d81 a9be dfe1 4e38
00000100: c445 c4bd bfe0 13be 2d72 01be bd5a a13d
00000110: 58a9 e03d 5b9d f73c 9b20 693e 9f39 1fbe
00000120: 6f61 453e 2448 0fbe dd64 98be 354b 97bd
00000130: 2ee2 a9bd ea9f 2b3c 5781 883e ec2b f9bd
00000140: 66a3 09bc 576a c8bd 1585 983d 259f 9bbd
00000150: 4e27 473d 5830 9c3c bf50 483e 91c0 943d
00000160: b3bf 92bb f739 b43c fbf1 ecbd 3278 8ebb
00000170: 89d8 303d 6dc6 263e c1dd 2fbe d764 643d
00000180: fc71 0abe 571f ad3e 2ea0 fc3d 478a 0e3e
00000190: ee52 5a3e edda 26be 6e13 d9bc 68b2 fabd
000001a0: 7687 973d 14ac 013d 16b9 de3d 850d 00be
000001b0: 4321 80bb ced9 553e 2579 253e e63b 133d
000001c0: 746b 0d3e 513d 23bd 3975 e7bd cdb2 743d
000001d0: 3283 7e3e bd7a c73d 152f adbd 354c 16bd
000001e0: ee98 043e 8396 09be bb14 eebd cdc1 debc
000001f0: cb53 cbbc 4e28 283e 6289 62bd 5bca 3bbd
00000200: 7b35 793e 8365 4d3e f906 053c 6faa 8bbe
00000210: 969a f03d d4dd bbbd 18d5 753d 389b e0bb
00000220: 735a 22be 48da 7a3d fb2f af3d 2fe2 e4bd
00000230: 4dab 96bd c975 2cbd 5a23 8b3c 63b9 c23d
00000240: 35aa 95bd a372 0d3d 4c3b 513e e4c2 463e
00000250: 8ba2 a73d 78d5 fe3d 4842 76bb 2719 0fbe
00000260: 3f2e 743e f071 7f3e f3f9 d9bc d499 cb3d
00000270: 8f7e 563d 21ed adbc 6540 eebd a22a 333e
00000280: dfc6 09be 324e 943e 05db b0bd 2410 53be
00000290: f9b5 8fbd 6730 a0bc ac41 513e 7eb1 09bf
000002a0: 10fc 223e 22f4 ebbc c2e8 383c d62c e1bd
000002b0: c115 49bd ac20 c7bd 884f e6bd b098 ce3c
000002c0: db02 abbc 9d96 66bc f76d c4bd 1412 21bc
000002d0: 5d63 033e 085d 39be eceb b13d f072 203e
000002e0: 8058 6a3d c647 c2bc eee7 943d e83c f4b9
000002f0: 69ab e8bd 463a 01bd 6417 85be ae47 2ebe
00000300: 8aa3 923e 167f adbd 35f8 bc3c 9926 ba3c
00000310: 3c65 053e e492 ef3d d05f ac3d af8b 863d
00000320: 6350 a3bd 09da 143e 0aca debd 1bbc efbb
00000330: ba2a b93d f7b8 38be 7334 263e ca87 733d
00000340: b36c 93be 2119 9abe 3078 94bd 380a f4bc
00000350: 8f8f 27bc ebf6 3dbe 8c08 53be c3bf 1bbd
00000360: af9c 863c 53f4 bbbd 11b7 cbbd d58d 173d
00000370: c493 92bd 78c1 db3c 7f77 7d3e 13a6 f43d
00000380: 62ad 593d 28d0 143e dcc2 5bbe fb81 233e
00000390: f313 dabd 809f e13d 6d94 703d 9ad7 6abe
000003a0: c75c 3bbe 03b1 b7bd 3fca 733e f509 043d
000003b0: 941e ef3d cffd 4f3e c89c 45bd ee4c c03b
000003c0: 818f fd3a 6c9e 7fbd f089 16bd 3363 3a3d
000003d0: e00f bfbc 7e6f a2be a966 25bd 1a51 48bd
000003e0: 2dc5 643c 8b71 033d 14c2 ea3c bd67 04bd
000003f0: 25e1 bb3d 5053 43be fe6d 213e c87c aa3c
-0.13493133 -0.21830173 0.048789494 0.13437764 0.02906043 -0.07837528 -0.039129965 0.045150336
-0.08365051 0.14929862 -0.15549436 0.080675274 -0.12803277 -0.14579818 0.24826387 0.024821738
0.020889683 0.02960395 0.17565659 0.040280238 -0.06398316 0.28134426 0.02036407 0.12311513
0.022490157 -0.10905376 -0.15821138 0.05573803 0.10895188 -0.19087237 -0.07331802 -0.17038476
-0.0025149235 -0.28475267 -0.102101505 0.12206596 0.16252269 0.13482377 0.14069967 0.04945677
0.005928007 -0.14331818 -0.02550591 -0.030400183 0.1262408 -0.1260774 0.019900749 0.122790955
-0.09582943 0.07357381 0.050571155 0.25425065 -0.07420866 0.14752322 0.027325466 0.09836438
0.027026482 0.0110787945 0.08858943 0.06321557 0.07028256 0.034802865 -0.33106604 4.9324586e-05
-0.09583619 -0.14441203 -0.12641211 0.07878635 0.109698 0.0302264 0.22766344 -0.15549324
0.19275449 -0.13992363 -0.29764453 -0.073873915 -0.082950935 0.010475138 0.26661178 -0.121665806
-0.008400774 -0.09785908 0.074472584 -0.07598714 0.04862147 0.01906602 0.19562052 0.072632916
-0.0044784187 0.022000296 -0.115695916 -0.0043478245 0.043175254 0.16286631 -0.17174436 0.05576023
-0.13520044 0.33812973 0.12335239 0.13919936 0.21320698 -0.16294451 -0.026498523 -0.122410595
0.07398884 0.031658247 0.10875146 -0.12505157 -0.003910215 0.20883867 0.16159494 0.035945795
0.13810521 -0.039853398 -0.11301655 0.05974083 0.24854735 0.09740207 -0.08456246 -0.03669377
0.12948963 -0.13436322 -0.11625048 -0.02719202 -0.024820229 0.16421625 -0.0553068 -0.045847278
0.24336807 0.20058255 0.008119338 -0.27278468 0.11748235 -0.0917317 0.060017675 -0.006854441
-0.15854816 0.061243325 0.085540734 -0.111759536 -0.07356892 -0.042104516 0.01698463 0.09508016
-0.07307855 0.034533154 0.20432776 0.19410282 0.081852995 0.1244306 -0.0037576128 -0.13974439
0.23845766 0.24945807 -0.026608443 0.0994145 0.05236679 -0.021231236 -0.11633376 0.17496732
-0.1345477 0.28965908 -0.08635525 -0.20611626 -0.070171304 -0.01955433 0.20435208 -0.53786457
0.15916467 -0.028802935 0.011285963 -0.1099488 -0.04909301 -0.097230285 -0.11245638 0.025219291
-0.020875385 -0.014073995 -0.09591287 -0.00983097 0.12830873 -0.18101895 0.08687577 0.15668845
0.057213306 -0.023715865 0.072707996 -0.00046584685 -0.11360819 -0.031549715 -0.25994408 -0.17019531
0.28640395 -0.08471505 0.023067573 0.022723483 0.13026899 0.11697939 0.08416712 0.06569611
-0.07974317 0.14536299 -0.1087838 -0.007316125 0.090413526 -0.18039308 0.16230945 0.05945567
-0.28793868 -0.30097297 -0.072494864 -0.029790029 -0.010227098 -0.18551223 -0.20608729 -0.038024675
0.016432134 -0.091774605 -0.099470265 0.037000496 -0.0715709 0.026825652 0.24752615 0.11945739
0.053143866 0.1453253 -0.21461052 0.15967552 -0.10648336 0.1101675 0.0587353 -0.22933808
-0.1829711 -0.08969309 0.2380762 0.03223606 0.11675754 0.20311664 -0.04824522 0.0058685457
0.0019345136 -0.062406942 -0.03675264 0.04550476 -0.023323 -0.31725687 -0.040381107 -0.04890547
0.013963026 0.032090705 0.028656997 -0.032325495 0.09173802 -0.1907475 0.15764615 0.020811453

cb1.DepthwiseConv2d.pointwise.bias f4 [128]
00000000: 47fa ccbe 29fe 6fbd bb08 883e 206f 86be
00000010: 893d 0ebe d7d5 54be d6c4 273e 0dc9 973e
00000020: 0b21 d2bd 9d6f 773e 0006 5dbc 9a44 18bf
00000030: 04b4 043c c407 423e d3e0 11bc 4e0d 863e
00000040: 4e2d 353d a2cc f5bc d55b 283e 5cd7 fe3d
00000050: 6940 65bd 8c1e 9fbd d246 f4bc 1c62 093e
00000060: 4105 373d 7a79 b83d af19 133c b79c cf3d
00000070: 06c0 88be 03d5 753d b7f9 33be 0707 73bd
00000080: 95c9 7f3e 954c 23be d51e f03c bc8f 97be
00000090: c7ba b03c d3f1 c2bc d45b cebd 0fa3 623e
000000a0: 10ed db3d 9505 1d3d 80d7 db3e f1fb 3e3e
000000b0: 05be 023e 075a 433f 1302 abbe 3be8 98bc
000000c0: 8e79 383d 0fa2 7b3e 9d4d 26be 3690 abbb
000000d0: 35f5 083d a60b b6bd f674 ab3e 84a0 c93d
000000e0: df63 c3bd c947 af3d 02ad f2bd dccd b93e
000000f0: 490b 9ebd a602 8bbc baf6 1d3e f40b 903e
00000100: 6a60 0f3e 57e4 48be a608 283e afd2 663c
00000110: bbe2 6ebe 3ea7 24be fecb cfbd 3f47 fdbc
00000120: b9ba 8cbe 28ba 42be c473 c13e 7f44 acbd
00000130: 5c0d 3a3c 9cef 483d 03d6 f33d 81dd 8f3b
00000140: ec5f 0d3f 4780 943d 3188 b4bd 9848 a4bb
00000150: fddc be3e 1349 61bd cb93 383d 868e f5be
00000160: b081 2d3d 8c68 903d 27d9 983d 7f02 d43e
00000170: 656d 353d 7f7e 193f 5f8a 883e ee06 04be
00000180: 50a5 683e bf93 ffbd 3c12 c93e 1209 d83c
00000190: 500d 06be 9321 ffbd ca1b 813d 408e d63d
000001a0: 9776 ffbd 7b8c 78bd 0cc0 19be 47d8 79be
000001b0: 65a3 e43d 365e 92bd ac3d fdbd 6266 93bc
000001c0: c9bd 40be a179 a63b 50d3 13bd 4366 b6bc
000001d0: e439 8f3e e60c 3e3e c47a bc3d 58a1 a1bd
000001e0: d053 ff3c 71b6 e43d a150 893c 128b 3fbe
000001f0: 5cf5 343e 97b3 5b3e b0e1 34bd ba65 233d
-0.40034696 -0.058591995 0.2656916 -0.26256657 -0.13890661 -0.20784698 0.1638368 0.29645577
-0.10260209 0.24163671 -0.0134902 -0.5947968 0.00809956 0.18948275 -0.0089037 0.26182026
0.04423266 -0.030004803 0.16441281 0.1244342 -0.05596963 -0.07769498 -0.029818926 0.13416332
0.044682745 0.09007545 0.008978291 0.10137313 -0.26709002 0.060017597 -0.17575727 -0.059332874
0.24979241 -0.15947182 0.029311577 -0.29601848 0.021573437 -0.023796951 -0.100761086 0.22132514
0.107385755 0.0383354 0.4293785 0.18650796 0.12767799 0.76309246 -0.3340002 -0.018665424
0.0450378 0.24573539 -0.16240545 -0.005235697 0.033436973 -0.088889405 0.33487672 0.09845069
-0.09540533 0.08558614 -0.11849405 0.3628987 -0.07716996 -0.016969036 0.1542615 0.2813412
0.14001623 -0.19618355 0.16409549 0.014088317 -0.23328678 -0.16079423 -0.1014633 -0.030917762
-0.27486208 -0.19016325 0.37783635 -0.08411502 0.011355724 0.049056634 0.11906054 0.004390419
0.5522449 0.072510295 -0.08815039 -0.0050135367 0.37277976 -0.05500133 0.04506282 -0.479603
0.042360008 0.07051191 0.074632935 0.41408154 0.04429378 0.5995864 0.2666807 -0.12893268
0.22719312 -0.12479352 0.39271724 0.026371513 -0.13091016 -0.12457576 0.063041285 0.10476351
-0.12473791 -0.060680848 -0.15014666 -0.2439891 0.111639775 -0.071468756 -0.123652786 -0.017993156
-0.18822397 0.0050804173 -0.036090195 -0.022265559 0.27973855 0.18559608 0.09203103 -0.07892102
0.031167895 0.111676104 0.01676208 -0.18705395 0.17671722 0.21455227 -0.044160545 0.039891936

res1.0.conv1.depthwise.weight f4 [128, 1, 3, 3]
00000000: e354 63bd fefd 2cbd 22f2 b03c 83d9 213d
00000010: 3370 5dbc 3df3 58bd dd8c 51bd abf6 153d
00000020: f4da b73c cf69 7ebc 2bac 90bc 513d bdbc
00000030: 2f3c bdbd 63c6 083b 40cc a73c 871f 2abc
00000040: 3126 c03b 7d8c 483c 8856 00bd 9405 183d
00000050: e95d e5bc b0a9 203c b208 033d 63cd d1bc
00000060: 1a59 f33c 7844 383a 56ff d1bc 219e c23c
00000070: 0929 263c 5945 d9bc 485b 08bd 1b2f 50bd
00000080: 8b9f d03c f3dd 2e3d af76 03be c3c8 263d
00000090: 723f 8b3d ad5a 4e3b 91dc 90bc 410d 34bd
000000a0: 079c e4bb fa28 69bd 42f5 cd3b c3dc 7dbd
000000b0: ff5a b3bc c269 983b 48d9 dd3b b7d4 1cba
000000c0: c698 5abd 6346 1b3d b218 393d d9e1 85ba
000000d0: e2a3 ebbc f5fc b9bc 544f 5b3b 18c7 f7b9
000000e0: 0a4e 353c eb4d 833d e64b 68bd b50f 8abd
000000f0: 9901 4f3d e62a 9e3b ab88 e6bc 6885 40bc
00000100: 0149 733c b78b 7cbb 23bf 9dba 8ca9 9c3d
00000110: 276d 2dbc d4b9 123d a9a7 8a3c d0e5 a43d
00000120: b3af 183d af89 99bd 796b 82bc 205a 0fbd
00000130: 5ef5 d03c 9c35 a43d 2dfe 78bc 5a66 8ebd
00000140: edbd 733d 0ebd 263d 919f d1bc 52d3 103d
00000150: 5f40 353d 0b13 30bd 1221 90bd d558 31bb
00000160: 4e0f 99bc 3e48 383c 6ab0 3fbc d2a1 c23c
00000170: 8856 a6bc 5a95 ef3c de9e 683d 04f3 aabd
00000180: 6c1d 0d3d 683e 3d3d 850a d0bb acde df3a
00000190: 2f08 85ba 6291 0b3c 40f5 693b 7853 fbbc
000001a0: 4550 063d 357e a73c eba3 3f3c 3aa2 8abc
000001b0: d9af cfbc 39da a7b8 7012 833d 362d f1bc
000001c0: 8c2c adbc 0052 813d a143 163d 717a 95bd
000001d0: 1525 cebc bb27 8cbc 8bd8 5dbd 5013 13bd
000001e0: 889d 573c 0e12 50bd 054b 8bbc 1ff2 a2bb
000001f0: e3c1 a43c 974b 12bd d9de c53c 0bf1 463d
00000200: f8c4 25bc f212 b8bc 79aa 183c 577d 1a3c
00000210: 8057 e73c b3d1 1f3d 7032 6b3d 6dc0 50bd
00000220: e6e3 3ebc 1667 f7bc c696 40bc 08cd d23c
00000230: e977 273d 0e11 313d 7b4c 32bc a431 ff3c
00000240: da4f 93ba 0950 b0bc f7b3 533d d7a6 8c3c
00000250: 38ff 27bc 7cc0 9f3c 1d46 abbc 2293 97bd
00000260: 2d45 173d 46ad 27bb a374 363d 8fae eebb
00000270: 6cb0 e7bc 9c9f fd3b 69fe 833d f162 58bd
00000280: 2ce6 673b f4c7 463d 1184 26bb 1954 07bd
00000290: 70df 32bc 4b44 803d 33af 703b 4be5 05bd
000002a0: 4ccc 4abc 8bd2 b8bc 1857 01bd 6bd2 1dbd
000002b0: cfa4 09bd 87b0 3abc 75fc df3c e6cc c73b
000002c0: e1fb 6f3c be03 9b3b be04 b7bc a8ed d23c
000002d0: b29f df3c 2c0b 3fbc c212 de3c da6d f7bc
000002e0: fcdb c4bc af4d 993b ee8e e53c 50da 0a3d
000002f0: e120 383b a374 5c3d 5a02 39bd f76b 0f3d
00000300: 9a13 c23d 7014 dabd 8bf9 81bd 4705 abbc
00000310: e7fb 85bc c376 df3c 2255 c1bc e3ad bcbc
00000320: 6190 9abc 9e8e ffbc 52f2 123d 04ba 9f3c
00000330: 6467 61bd 03e3 15bd 8789 673d 2d91 eebd
00000340: 3fef 7abd c3ad 263c e73b 9d3c 8ef7 afbc
00000350: 9c3b 8a3b 67a1 95bc 5725 b9bc b1e4 67ba
00000360: 8fe8 453d 9539 87bd 5bc1 043d 39f3 e53a
00000370: 4d62 9c3d 4433 ab3c 5161 78bc 4f3c 7c3c
00000380: 8905 02bd 74bb 5ebc 9e8c 443d 1dd3 a63b
00000390: 94cd bebc 4df7 2b3b 4121 1f3d a396 883d
000003a0: d7e2 94bd ec41 0ebd f84c 4dbd 3458 c6bd
000003b0: 5814 6fbc 8a3d cbbd 40f9 46bc 3fde cabd
000003c0: c639 74ba b505 633b 8562 4a3d 83a6 0d3d
000003d0: 61de 6abc 5057 ccbc 2d57 f6bb 48dd a53c
000003e0: 3f94 113d 9fcb a6bc 2f36 103c c2d0 7fbc
000003f0: e5c5 e13c 4af3 b0bd 0871 3abd b710 c73c
-0.055500876 -0.042234413 0.021599833 0.039514076 -0.01351552 -0.052966345 -0.05115973 0.036612194
0.022443272 -0.015528156 -0.017660221 -0.023100527 -0.09239995 0.00208702 0.020483136 -0.010383493
0.005863928 0.012240526 -0.031332523 0.037114695 -0.027998881 0.009806082 0.031990714 -0.025610631
0.029705573 0.00070292456 -0.025634449 0.023757042 0.0101416195 -0.026522325 -0.033290178 -0.050826173
0.025466701 0.042692136 -0.12838243 0.040718805 0.067992106 0.0031487152 -0.0176833 -0.043957952
-0.0069766077 -0.056923844 0.0062853405 -0.061978113 -0.021893976 0.004651279 0.0067702867 -0.0005982625
-0.053368352 0.037908923 0.045189567 -0.0010214403 -0.028764669 -0.022703627 0.0033464031 -0.00047259848
0.011065969 0.06411346 -0.056713007 -0.06741277 0.050538633 0.0048268912 -0.02814134 -0.0117505565
0.014848948 -0.0038535425 -0.0012035113 0.07649526 -0.010585106 0.03582175 0.01692565 0.08051646
0.037276935 -0.07496964 -0.015920388 -0.03499806 0.025507625 0.08018038 -0.015197319 -0.06953116
0.0595073 0.04070764 -0.025588783 0.03535778 0.044250842 -0.04298691 -0.07037558 -0.0027061005
-0.018684056 0.011247693 -0.011699775 0.023758803 -0.020304933 0.029246021 0.056792133 -0.08347133
0.034451887 0.046202093 -0.0063489103 0.0017079911 -0.0010149534 0.008518549 0.003569916 -0.03067945
0.032791395 0.020445922 0.011696796 -0.016923059 -0.025352405 -8.003828e-05 0.06400001 -0.029440504
-0.021139406 0.063144684 0.03668559 -0.072987445 -0.025164166 -0.017108789 -0.05416159 -0.03590709
0.013160117 -0.05079847 -0.017003546 -0.0049727107 0.020111984 -0.03571662 0.024154114 0.04856972
-0.010117762 -0.022469971 0.009317988 0.009429297 0.028239965 0.039018344 0.057421148 -0.05096476
-0.011651015 -0.030200522 -0.011754697 0.025732532 0.04088584 0.043229155 -0.010882492 0.0311516
-0.0011239008 -0.021522539 0.0516853 0.0171694 -0.01025372 0.019500963 -0.020907456 -0.0740111
0.036931206 -0.0025585457 0.044544827 -0.0072839926 -0.028282367 0.007739974 0.06445009 -0.052828733
0.0035384996 0.048530534 -0.0025408308 -0.033039186 -0.010917529 0.06263026 0.003672552 -0.032689374
-0.01237781 -0.022561332 -0.0315772 -0.03853075 -0.03360444 -0.011394626 0.02734206 0.006097424
0.014647455 0.0047306707 -0.022341128 0.025748089 0.027297828 -0.011660378 0.027108554 -0.030203748
-0.024030678 0.00467845 0.028022256 0.033899605 0.002809577 0.05382217 -0.04516826 0.035015073
0.09476395 -0.106484294 -0.06346425 -0.02087654 -0.016355468 0.02727831 -0.023600165 -0.023032134
-0.018867673 -0.031195935 0.035875626 0.019497879 -0.05503024 -0.03659345 0.05652764 -0.11648784
-0.06126332 0.010173264 0.019193603 -0.021480348 0.004218532 -0.01826544 -0.022600813 -0.00088460284
0.04831749 -0.0660278 0.03241096 0.00175438 0.07635937 0.020898469 -0.015159921 0.015395238
-0.03174356 -0.013594497 0.047985666 0.0050910846 -0.023291387 0.0026239932 0.038850073 0.06669357
-0.07269829 -0.034730837 -0.05012223 -0.09684792 -0.014592253 -0.09923847 -0.012144387 -0.09905671
-0.000931647 0.0034640853 0.04941036 0.034582626 -0.014335246 -0.024943978 -0.0075177164 0.020247117
0.03554177 -0.020360766 0.008801981 -0.015613737 0.027560184 -0.08640154 -0.04551795 0.024299962

res1.0.conv1.pointwise.weight f4 [128, 128, 1, 1]
00000000: 1518 5b3e c271 1abe a3f1 22be 39e5 443d
00000010: f8c7 063e 4f56 b9bd 8eb2 30be 4999 21bd
00000020: 55eb 823c ad16 85bb 3738 543e 3bc0 6bbc
00000030: fc6b 063d 2b90 debd c645 72bd 4993 3abe
00000040: 3b19 14bc 267a 4ebd dbf2 0e3e 0165 93bd
00000050: 9169 68be b27a 8dbc 676c 093d c80c 6ebe
00000060: 8249 40bd a797 bcbd 8661 9abd f98e ab3d
00000070: 10ab 60bd 3c08 733e 699b 273d 37a4 c8bd
00000080: 41c2 15bd 00a9 ad3d 1688 01be 1b77 87bd
00000090: 3285 3dbe ed5a 893d fab3 b93d 558e cabd
000000a0: bda4 543e d94c 973e c040 853d f57c 10bc
000000b0: fd26 81bc d54b 993d 0d00 2dbe 830e 903d
000000c0: eee3 40bd 15f3 3a3d 2e9f 633d c345 033d
000000d0: 46c8 053d 3a1e f2bd 0525 b8bd e8f0 0abd
000000e0: 33e4 303b 487b f63d 6aa1 08be 22c2 9a3d
000000f0: c74e 56be f471 cbbd 1d45 193e 8be5 e5bd
00000100: 77da 0d3e 38a4 f9bc d922 3b3e 3280 dfbd
00000110: 43a2 503e fd2d 2d3d 600d d93d 5126 d1bd
00000120: 3481 363e c846 ddbd 961d 8cbe b837 1ebd
00000130: 4909 9f3d ef42 b6be 30d3 523d ec83 d93d
00000140: c656 bb3d a120 47bd 8ab6 61be 63b5 a6bd
00000150: 98b9 343e ef77 06be 3578 1f3d 53a5 b9bd
00000160: c406 e53c 4c50 bd3c 68d7 f2bc 79a4 b33c
00000170: edb9 fcbd ef97 67bd 3316 11be 50c5 c53d
00000180: 2f31 163e 21d8 29bd ec81 183e 4adf 0fbe
00000190: 6f42 1f3e 06c9 0c3d d25d 14be 8dad 63bd
000001a0: c2a7 c93d f92e 68bd 003f 3dbc 3196 183d
000001b0: db5c 573c 851b fdbc dc7c dcbd 39e7 113e
000001c0: 8d03 db3c b600 33bc e810 09be 31d2 e1bd
000001d0: deb3 013e 23bc 94be fb3a adbd 4ce1 763b
000001e0: b675 c0bd 18bc 78be 360f f2bc 388b 133e
000001f0: 09c2 5bbe e12a 88bd 075a 053e 063b 923d
00000200: 3980 8ebc 2255 e23d b783 c7bc 0a5d 29bd
00000210: 887e f63d ba8a d4bd 2a30 333d 8bd1 813d
00000220: 432c 5ebe 7373 423d 0916 0a3d 55ea 573d
00000230: 648c d03d 6bc4 c0bd 8a53 c9bc 6534 153d
00000240: c1ca 03be 9382 2abe 9b0a 48bd b146 1d3e
00000250: 0bfc c53d a9a1 37bc 0bea 293e 0a93 263c
00000260: 4d9d bb3d 8fa1 e8bd 88ba 843e 6c3d febc
00000270: 5ebe 98bd 0349 b43c 4148 14be 6763 e5bd
00000280: d25b 433d 8a53 96be baf9 743d 7a52 60bc
00000290: ad10 d6bd f47f 9a3d 8b5c 0d3e 0042 263e
000002a0: 3b84 4fbe d9e9 883d 4b47 a1bd bc80 3cbc
000002b0: 9429 8bbd 838f 0abc 2a5b f3bd 27b0 9ebd
000002c0: 70bd 463d 12d5 a2bc 9aaf 033d 57b2 5fbe
000002d0: 1ff1 9f3c 489f 6d3d f095 57be d21b 233e
000002e0: d6da 543e fced 753c fd85 e33c 7374 393e
000002f0: 0fc1 90bd 3cb4 a23e 33e2 4a3c 9bb1 fd3d
00000300: 95be 103e 17a1 b23d e185 083e f08d 2ebe
00000310: 1c41 85bd 8de6 723c d0ae 9fbd ff0c 683c
00000320: 0ee7 01be 4226 12be 7309 c73d 8b2d c93d
00000330: 24c1 ca3d ce2f b23c cf6f 99bd a102 f13d
00000340: 7106 12bd 6bdd 263e f0d8 b9bd 1db6 253e
00000350: fb18 44be 1dab 9bbe 1b4e 16be d89c efbb
00000360: 2b6d 133e 1020 873d 3e2a b43c 9929 893c
00000370: 3d30 203e 7d76 2e3e b1ce d6bd 8032 e63d
00000380: c3f6 d6bb 1cf5 163d 6bdd 0cbe a322 d1bd
00000390: a791 a43d 77b4 8bbd 6798 bb3d 5c8b 473d
000003a0: bbfc 9b3d 5c88 683d 6edb ddbd 66bb 753d
000003b0: 0734 113e f1a4 28be 5224 92be 2899 723d
000003c0: 0041 88bc 455a 0bbe 7d03 dd3c 4f37 7fbd
000003d0: 45f4 6a3d 8b43 58be e8e8 b1bd 3d11 8bbc
000003e0: d6b1 ab3d 08ff f6bc e9b2 babd 5d02 9cbd
000003f0: 4f35 193d cf6c a4bc 498b 7c3d 6356 1abe
0.21395905 -0.15082458 -0.1591249 0.048070166 0.1316222 -0.09049665 -0.17255613 -0.039452825
0.015981356 -0.004061541 0.2072457 -0.014389093 0.032817826 -0.108673416 -0.059148572 -0.18220247
-0.009039219 -0.05040946 0.1395983 -0.07196999 -0.2269652 -0.01727042 0.033550646 -0.23247063
-0.046945103 -0.09208613 -0.07538132 0.08376879 -0.054850638 0.2373361 0.040919695 -0.097969465
-0.036562208 0.084795 -0.12649569 -0.066145144 -0.18507841 0.06706796 0.09067531 -0.09890429
0.20765968 0.29550818 0.06506491 -0.008818855 -0.015765661 0.07485167 -0.1689455 0.07034018
-0.04709237 0.045641977 0.055571727 0.03204895 0.0326617 -0.118221715 -0.08991436 -0.033921152
0.0026991486 0.12035233 -0.13342825 0.07556559 -0.20928489 -0.09933844 0.14967771 -0.112254225
0.13852869 -0.030473813 0.18275012 -0.10913123 0.20374398 0.042280186 0.10598254 -0.102123864
0.17822725 -0.10804516 -0.27366322 -0.038627356 0.07765443 -0.3559794 0.051470935 0.10620865
0.0914741 -0.0486151 -0.2204229 -0.081400655 0.17648923 -0.13131689 0.038932998 -0.09064736
0.027957328 0.023109578 -0.02964373 0.021929013 -0.1234015 -0.05654138 -0.14168625 0.09656775
0.146672 -0.041465882 0.14893311 -0.14050022 0.15552686 0.0343714 -0.14488915 -0.055585433
0.098464504 -0.05668542 -0.011550665 0.03725261 0.013144697 -0.030896911 -0.107660025 0.1424836
0.026735092 -0.0109254625 -0.13385355 -0.11026419 0.1266627 -0.29049787 -0.08458515 0.0037670908
-0.093974516 -0.24290502 -0.029548269 0.14408576 -0.21460737 -0.066488035 0.13022624 0.07140164
-0.017395126 0.11051394 -0.024354799 -0.041348495 0.12035853 -0.103780225 0.043747105 0.06338795
-0.21696572 0.047473382 0.03371242 0.05271371 0.101830274 -0.09412464 -0.024575967 0.03642692
-0.12870313 -0.16651373 -0.04883824 0.15358998 0.09667214 -0.011207976 0.16593187 0.010166893
0.09160862 -0.1135894 0.25923562 -0.031035148 -0.07458185 0.022007471 -0.14480688 -0.112006
0.04769499 -0.2936061 0.05980847 -0.013691539 -0.104523994 0.07543936 0.13804834 0.16236115
-0.20265286 0.06685228 -0.07874926 -0.011505302 -0.0679504 -0.008457067 -0.118826225 -0.07748442
0.048520505 -0.01987699 0.03214989 -0.21845375 0.019524155 0.05801323 -0.2105329 0.15928581
0.20786604 0.015010353 0.027773852 0.18110828 -0.07068073 0.31778133 0.012383032 0.12387391
0.14135201 0.08722132 0.13332321 -0.17046332 -0.06506559 0.014825475 -0.07797015 0.014163255
-0.12685797 -0.14272407 0.09718599 0.0982314 0.0990012 0.02175131 -0.07492029 0.117680795
-0.035650674 0.16295402 -0.09074581 0.16182752 -0.19150154 -0.30403987 -0.14678232 -0.0073123984
0.14397113 0.06597912 0.021992799 0.016743468 0.15643401 0.17037387 -0.10488642 0.11240101
-0.006560178 0.03685485 -0.13756339 -0.102116846 0.080355935 -0.0682153 0.09159928 0.048716888
0.07616564 0.056770667 -0.108328685 0.05999317 0.14180003 -0.1646917 -0.28543335 0.059228092
-0.016632557 -0.13608654 0.026979202 -0.062308606 0.05736186 -0.21119516 -0.086870015 -0.016975993
0.08383529 -0.030150905 -0.09116156 -0.07617638 0.037404355 -0.020071415 0.06165627 -0.15072016

res1.0.conv1.pointwise.bias f4 [128]
00000000: 0000 0000 0000 0000 0000 0000 0000 0000
00000010: 0000 0000 0000 0000 0000 0000 0000 0000
00000020: 0000 0000 0000 0000 0000 0000 0000 0000
00000030: 0000 0000 0000 0000 0000 0000 0000 0000
00000040: 0000 0000 0000 0000 0000 0000 0000 0000
00000050: 0000 0000 0000 0000 0000 0000 0000 0000
00000060: 0000 0000 0000 0000 0000 0000 0000 0000
00000070: 0000 0000 0000 0000 0000 0000 0000 0000
00000080: 0000 0000 0000 0000 0000 0000 0000 0000
00000090: 0000 0000 0000 0000 0000 0000 0000 0000
000000a0: 0000 0000 0000 0000 0000 0000 0000 0000
000000b0: 0000 0000 0000 0000 0000 0000 0000 0000
000000c0: 0000 0000 0000 0000 0000 0000 0000 0000
000000d0: 0000 0000 0000 0000 0000 0000 0000 0000
000000e0: 0000 0000 0000 0000 0000 0000 0000 0000
000000f0: 0000 0000 0000 0000 0000 0000 0000 0000
00000100: 0000 0000 0000 0000 0000 0000 0000 0000
00000110: 0000 0000 0000 0000 0000 0000 0000 0000
00000120: 0000 0000 0000 0000 0000 0000 0000 0000
00000130: 0000 0000 0000 0000 0000 0000 0000 0000
00000140: 0000 0000 0000 0000 0000 0000 0000 0000
00000150: 0000 0000 0000 0000 0000 0000 0000 0000
00000160: 0000 0000 0000 0000 0000 0000 0000 0000
00000170: 0000 0000 0000 0000 0000 0000 0000 0000
00000180: 0000 0000 0000 0000 0000 0000 0000 0000
00000190: 0000 0000 0000 0000 0000 0000 0000 0000
000001a0: 0000 0000 0000 0000 0000 0000 0000 0000
000001b0: 0000 0000 0000 0000 0000 0000 0000 0000
000001c0: 0000 0000 0000 0000 0000 0000 0000 0000
000001d0: 0000 0000 0000 0000 0000 0000 0000 0000
000001e0: 0000 0000 0000 0000 0000 0000 0000 0000
000001f0: 0000 0000 0000 0000 0000 0000 0000 0000
0.0 0.0 0.0 0.0 0.0 0.0 0.0 0.0
0.0 0.0 0.0 0.0 0.0 0.0 0.0 0.0
0.0 0.0 0.0 0.0 0.0 0.0 0.0 0.0
0.0 0.0 0.0 0.0 0.0 0.0 0.0 0.0
0.0 0.0 0.0 0.0 0.0 0.0 0.0 0.0
0.0 0.0 0.0 0.0 0.0 0.0 0.0 0.0
0.0 0.0 0.0 0.0 0.0 0.0 0.0 0.0
0.0 0.0 0.0 0.0 0.0 0.0 0.0 0.0
0.0 0.0 0.0 0.0 0.0 0.0 0.0 0.0
0.0 0.0 0.0 0.0 0.0 0.0 0.0 0.0
0.0 0.0 0.0 0.0 0.0 0.0 0.0 0.0
0.0 0.0 0.0 0.0 0.0 0.0 0.0 0.0
0.0 0.0 0.0 0.0 0.0 0.0 0.0 0.0
0.0 0.0 0.0 0.0 0.0 0.0 0.0 0.0
0.0 0.0 0.0 0.0 0.0 0.0 0.0 0.0
0.0 0.0 0.0 0.0 0.0 0.0 0.0 0.0

res1.0.bn1.weight f4 [128]
00000000: 0000 0000 0000 0000 0000 0000 0000 0000
00000010: 0000 0000 0000 0000 0000 0000 0000 0000
00000020: 0000 0000 0000 0000 0000 0000 0000 0000
00000030: 0000 0000 0000 0000 0000 0000 0000 0000
00000040: 0000 0000 0000 0000 0000 0000 0000 0000
00000050: 0000 0000 0000 0000 0000 0000 0000 0000
00000060: 0000 0000 0000 0000 0000 0000 0000 0000
00000070: 0000 0000 0000 0000 0000 0000 0000 0000
00000080: 0000 0000 0000 0000 0000 0000 0000 0000
00000090: 0000 0000 0000 0000 0000 0000 0000 0000
000000a0: 0000 0000 0000 0000 0000 0000 0000 0000
000000b0: 0000 0000 0000 0000 0000 0000 0000 0000
000000c0: 0000 0000 0000 0000 0000 0000 0000 0000
000000d0: 0000 0000 0000 0000 0000 0000 0000 0000
000000e0: 0000 0000 0000 0000 0000 0000 0000 0000
000000f0: 0000 0000 0000 0000 0000 0000 0000 0000
00000100: 0000 0000 0000 0000 0000 0000 0000 0000
00000110: 0000 0000 0000 0000 0000 0000 0000 0000
00000120: 0000 0000 0000 0000 0000 0000 0000 0000
00000130: 0000 0000 0000 0000 0000 0000 0000 0000
00000140: 0000 0000 0000 0000 0000 0000 0000 0000
00000150: 0000 0000 0000 0000 0000 0000 0000 0000
00000160: 0000 0000 0000 0000 0000 0000 0000 0000
00000170: 0000 0000 0000 0000 0000 0000 0000 0000
00000180: 0000 0000 0000 0000 0000 0000 0000 0000
00000190: 0000 0000 0000 0000 0000 0000 0000 0000
000001a0: 0000 0000 0000 0000 0000 0000 0000 0000
000001b0: 0000 0000 0000 0000 0000 0000 0000 0000
000001c0: 0000 0000 0000 0000 0000 0000 0000 0000
000001d0: 0000 0000 0000 0000 0000 0000 0000 0000
000001e0: 0000 0000 0000 0000 0000 0000 0000 0000
000001f0: 0000 0000 0000 0000 0000 0000 0000 0000
0.0 0.0 0.0 0.0 0.0 0.0 0.0 0.0
0.0 0.0 0.0 0.0 0.0 0.0 0.0 0.0
0.0 0.0 0.0 0.0 0.0 0.0 0.0 0.0
0.0 0.0 0.0 0.0 0.0 0.0 0.0 0.0
0.0 0.0 0.0 0.0 0.0 0.0 0.0 0.0
0.0 0.0 0.0 0.0 0.0 0.0 0.0 0.0
0.0 0.0 0.0 0.0 0.0 0.0 0.0 0.0
0.0 0.0 0.0 0.0 0.0 0.0 0.0 0.0
0.0 0.0 0.0 0.0 0.0 0.0 0.0 0.0
0.0 0.0 0.0 0.0 0.0 0.0 0.0 0.0
0.0 0.0 0.0 0.0 0.0 0.0 0.0 0.0
0.0 0.0 0.0 0.0 0.0 0.0 0.0 0.0
0.0 0.0 0.0 0.0 0.0 0.0 0.0 0.0
0.0 0.0 0.0 0.0 0.0 0.0 0.0 0.0
0.0 0.0 0.0 0.0 0.0 0.0 0.0 0.0
0.0 0.0 0.0 0.0 0.0 0.0 0.0 0.0

res1.0.bn1.bias f4 [128]
00000000: 0000 0000 0000 0000 0000 0000 0000 0000
00000010: 0000 0000 0000 0000 0000 0000 0000 0000
00000020: 0000 0000 0000 0000 0000 0000 0000 0000
00000030: 0000 0000 0000 0000 0000 0000 0000 0000
00000040: 0000 0000 0000 0000 0000 0000 0000 0000
00000050: 0000 0000 0000 0000 0000 0000 0000 0000
00000060: 0000 0000 0000 0000 0000 0000 0000 0000
00000070: 0000 0000 0000 0000 0000 0000 0000 0000
00000080: 0000 0000 0000 0000 0000 0000 0000 0000
00000090: 0000 0000 0000 0000 0000 0000 0000 0000
000000a0: 0000 0000 0000 0000 0000 0000 0000 0000
000000b0: 0000 0000 0000 0000 0000 0000 0000 0000
000000c0: 0000 0000 0000 0000 0000 0000 0000 0000
000000d0: 0000 0000 0000 0000 0000 0000 0000 0000
000000e0: 0000 0000 0000 0000 0000 0000 0000 0000
000000f0: 0000 0000 0000 0000 0000 0000 0000 0000
00000100: 0000 0000 0000 0000 0000 0000 0000 0000
00000110: 0000 0000 0000 0000 0000 0000 0000 0000
00000120: 0000 0000 0000 0000 0000 0000 0000 0000
00000130: 0000 0000 0000 0000 0000 0000 0000 0000
00000140: 0000 0000 0000 0000 0000 0000 0000 0000
00000150: 0000 0000 0000 0000 0000 0000 0000 0000
00000160: 0000 0000 0000 0000 0000 0000 0000 0000
00000170: 0000 0000 0000 0000 0000 0000 0000 0000
00000180: 0000 0000 0000 0000 0000 0000 0000 0000
00000190: 0000 0000 0000 0000 0000 0000 0000 0000
000001a0: 0000 0000 0000 0000 0000 0000 0000 0000
000001b0: 0000 0000 0000 0000 0000 0000 0000 0000
000001c0: 0000 0000 0000 0000 0000 0000 0000 0000
000001d0: 0000 0000 0000 0000 0000 0000 0000 0000
000001e0: 0000 0000 0000 0000 0000 0000 0000 0000
000001f0: 0000 0000 0000 0000 0000 0000 0000 0000
0.0 0.0 0.0 0.0 0.0 0.0 0.0 0.0
0.0 0.0 0.0 0.0 0.0 0.0 0.0 0.0
0.0 0.0 0.0 0.0 0.0 0.0 0.0 0.0
0.0 0.0 0.0 0.0 0.0 0.0 0.0 0.0
0.0 0.0 0.0 0.0 0.0 0.0 0.0 0.0
0.0 0.0 0.0 0.0 0.0 0.0 0.0 0.0
0.0 0.0 0.0 0.0 0.0 0.0 0.0 0.0
0.0 0.0 0.0 0.0 0.0 0.0 0.0 0.0
0.0 0.0 0.0 0.0 0.0 0.0 0.0 0.0
0.0 0.0 0.0 0.0 0.0 0.0 0.0 0.0
0.0 0.0 0.0 0.0 0.0 0.0 0.0 0.0
0.0 0.0 0.0 0.0 0.0 0.0 0.0 0.0
0.0 0.0 0.0 0.0 0.0 0.0 0.0 0.0
0.0 0.0 0.0 0.0 0.0 0.0 0.0 0.0
0.0 0.0 0.0 0.0 0.0 0.0 0.0 0.0
0.0 0.0 0.0 0.0 0.0 0.0 0.0 0.0

res1.0.bn1.running_mean f4 [128]
00000000: c02d 8d3c f7ea b03b 6378 423a 11b1 843d
00000010: c019 c9bc 7fae 3e3b 4323 97bc 0659 463c
00000020: 666f 913c a9ca 0dbd f31c 093c d588 c6bb
00000030: 3e5f 7bbc b58e f43a 20e2 5bbc 3f8e c03c
00000040: aea1 663c 9f9e a4bc e7e6 05bd 4d4e 23bc
00000050: a6d5 6f3c 34de 0ebd 5bc3 2c3c c137 03bc
00000060: 5ca6 c5bc e0e2 7c3c 16ad 0d3c f675 8ebc
00000070: 2789 d73c 3550 aa3b 2b9e 2a3b 5457 cc3b
00000080: 69db 283b ab0d 883c 6cf8 123c d7fa 29bb
00000090: 7b2f 0d3d 2208 a63c 71a4 16bc c92a 5e3c
000000a0: c37c 4c3c 8dfd 55b9 4872 2ebc 1beb 883c
000000b0: 743e 033c 6e7b 073c 1844 72bc 9336 033c
000000c0: ed84 4dbc db9f dabc 22da 35bc 0123 ce3c
000000d0: d40b 6bbc 344f 31bc 2783 2c3c 3cab 663c
000000e0: f28c 91bc e140 b037 8486 fb3b 043d fe3a
000000f0: 7ec7 ec3c d463 f53c c127 41bc 8930 1a3c
00000100: 15b9 173c b781 60bc 9ef0 333b 3eac 1dbc
00000110: dfdd b1bc 4841 e2bc f50a 24bc 1eca 6fbc
00000120: 843b 1b3a 3b98 923c 4bfa 593b 805f 8cbc
00000130: f936 04bc cb01 933b 837f 47bc 9b60 9dbc
00000140: 7e8b 2b3c 4c93 c0bc fa1e 863c 88d6 8039
00000150: 0d1f 88bb 5b73 0e3d bd3d dabb 4c2d 973c
00000160: 78a1 053d 0d35 02bd e3ea debc cbc0 893c
00000170: af66 01bc 7fc7 adbc fb4a 243b e74e 6ebc
00000180: 00ae a63a 7e7e f9bc 1fdc 2cbb 3861 5abc
00000190: 5b93 8dbb fa95 7ebc 7ca9 4c3c 9664 d9ba
000001a0: d0ef ebbc 27b4 0abd 6d1f c5b8 9c45 88bc
000001b0: 7f7a c4bb 5f85 babc cc0a 963c 90ad 3fbb
000001c0: 6d8f fa3b 6b56 953c 9c0b 5abd cec5 1bbc
000001d0: cbb5 463c a48d b03c 6cd0 cebb d8bb 27bb
000001e0: 9ea5 a03c 867e b03c 56cd 7c3a 6ecd 0f3c
000001f0: 9861 90bc 5275 203c 794c e5bc 9b1a 17bc
0.01723373 0.0053991037 0.0007418452 0.06479085 -0.024548411 0.0029095707 -0.018449431 0.012106186
0.017753314 -0.0346171 0.008368718 -0.006058792 -0.015342532 0.0018658253 -0.013420612 0.023505328
0.014076633 -0.020095168 -0.03269091 -0.009967399 0.01463834 -0.03487988 0.010544623 -0.008008898
-0.024127178 0.015434951 0.008647224 -0.017390233 0.026310517 0.0051975497 0.0026034217 0.0062359963
0.0025765544 0.01660808 0.008970361 -0.0025936866 0.03446911 0.02026755 -0.009194479 0.013560005
0.012480917 -0.00020407718 -0.010647364 0.01671367 0.008010495 0.008269174 -0.014786743 0.008008617
-0.012543899 -0.026687553 -0.01109937 0.025163176 -0.014346082 -0.010822106 0.010529316 0.014078911
-0.017767403 2.1011047e-05 0.0076759476 0.0019396846 0.028903719 0.029954828 -0.011789263 0.009410986
0.009260436 -0.013702801 0.0027456651 -0.009623585 -0.021712242 -0.02761902 -0.010012378 -0.014635591
0.0005921649 0.017894855 0.0033260759 -0.017135382 -0.008069747 0.0044862977 -0.012176397 -0.019211104
0.010470269 -0.023507737 0.016372193 0.000245739 -0.004154092 0.03477798 -0.006660192 0.018454216
0.03262469 -0.031788874 -0.027211612 0.016815564 -0.007898017 -0.021213291 0.0025069106 -0.014545179
0.0012716651 -0.030455824 -0.002637632 -0.013328843 -0.0043205447 -0.015538687 0.01249158 -0.0016585763
-0.028800875 -0.033863213 -9.3995455e-05 -0.016634755 -0.005996048 -0.022768674 0.018315695 -0.0029247738
0.007646492 0.018229684 -0.053233728 -0.0095076095 0.012128304 0.021551915 -0.006311467 -0.0025594141
0.019610222 0.021544706 0.00096436345 0.008777006 -0.017624661 0.009793596 -0.027990567 -0.009222652

res1.0.bn1.running_var f4 [128]
00000000: 9f8a 9e3a b19b 6e3a 2fd4 363a c227 693a
00000010: 332c 1d3a b9f8 d839 eec1 af39 072e 053a
00000020: 17a0 403a f241 933a 1ecc 8f3a a1e9 553a
00000030: cff3 ee39 8ad9 fb39 1841 643a 4f75 493a
00000040: 6e8b 433a e4cc 7e3a 8816 1d3a 0f82 693a
00000050: 77b3 053a d5a0 623a 9a5a 093a 5a51 313a
00000060: 61ac 123a d362 2a3a ded2 f939 b7b6 ac3a
00000070: fdff 2c3a 8f00 003a 027f fe39 fe2f d139
00000080: 07e4 2d3a b1ba 1b3a fe2b b539 dc5c 893a
00000090: 0900 563a 4cfd 5a3a 0598 d739 d191 0b3a
000000a0: b038 c939 3b14 1b3a 1122 073a bd6b c939
000000b0: d7be 2c3b b260 a43a 7070 f43a 0028 b33a
000000c0: 3e00 8b39 7db7 1a3a 2471 ee39 491c 433a
000000d0: 8130 b039 ce22 ae3a ed92 1e3a 15dd c039
000000e0: 65d6 103a 5743 f339 3f80 fe39 7345 e139
000000f0: dcaa f639 1716 e039 bbce a539 230b 253a
00000100: c3e1 223a b592 383a 8d9c 373a 7065 6e3a
00000110: d6aa 793a e4d1 b239 5e3c 683a 1d80 b639
00000120: 49db 5d3a d5d3 e539 d158 d739 b9bb c339
00000130: c700 393a 3a74 fa39 aa70 c839 7753 d439
00000140: ac33 103a f562 dd39 bc06 ff39 25e9 493a
00000150: f5e9 943a 6631 b83a 5cae 023a 745e e839
00000160: 6016 543a 8a09 e639 771f 413a a212 bd39
00000170: 2b1b 503a 8ae0 d739 5360 fe39 0b2c 333a
00000180: 688c 013a 8fc7 073a a598 953a aeae 7139
00000190: 9c63 b339 880d b13a 27ea 863a 9c10 113a
000001a0: 7f65 c93a fac5 d339 daae 0b3a ccaa d039
000001b0: c28a 273a 0c80 083a 8f8e 093a fd53 dc39
000001c0: eb5b 253a 42bf 4e3a 2509 9d3a 402b d739
000001d0: 35ad b839 d83e c039 024e f839 060b ee39
000001e0: f7d3 363a 4c2e cb39 c2b5 183a 4ef7 213a
000001f0: 235e 2c3a 57c6 453a 85e6 053a eac2 1b3a
0.0012095756 0.00091021793 0.0006974367 0.0008894169 0.0005995661 0.00041384043 0.0003352309 0.0005080406
0.0007348074 0.0011234863 0.0010970866 0.00081601186 0.0004557655 0.0004803653 0.00087072095 0.0007685022
0.00074594363 0.0009719862 0.0005992432 0.0008907625 0.00051002897 0.00086451817 0.0005239636 0.00067641365
0.00055951445 0.00064997113 0.0004765009 0.0013177012 0.00065994245 0.0004882896 0.00048541283 0.00039899343
0.0006633405 0.00059406 0.00034555787 0.0010479945 0.00081634574 0.0008353784 0.0004112126 0.00053241575
0.00038379943 0.00059157953 0.00051549176 0.0003841798 0.0026358867 0.0012541024 0.0018649232 0.0013668537
0.00026512326 0.00059019757 0.00045479194 0.00074428745 0.00033605474 0.0013285519 0.00060491153 0.00036785813
0.00055251113 0.00046398744 0.00048542206 0.00042967088 0.00047048077 0.00042741068 0.0003162528 0.000629591
0.00062134507 0.0007040904 0.0007004224 0.0009094095 0.0009524053 0.00034107186 0.0008859093 0.00034809197
0.0008463157 0.0004383611 0.0004107417 0.00037333163 0.0007057306 0.0004777031 0.00038230914 0.00040497977
0.0005500864 0.00042226134 0.00048642408 0.0007702283 0.0011361229 0.0014052808 0.0004985088 0.0004432086
0.00080904923 0.00043876126 0.00073670543 0.00036062772 0.00079386187 0.0004117529 0.00048518422 0.0006834871
0.00049418816 0.0005179578 0.001141329 0.00023048624 0.00034215755 0.0013508061 0.0010293172 0.0005533786
0.0015365331 0.0004039256 0.0005328484 0.00039800105 0.0006391221 0.0005207069 0.0005247378 0.00042024246
0.00063079473 0.0007886776 0.0011980875 0.0004104022 0.00035224264 0.00036667916 0.00047360366 0.0004540311
0.0006974334 0.0003875367 0.0005825424 0.0006178514 0.0006575307 0.00075445086 0.00051078975 0.0005941825
