MonocularDepthEstimation/savedmodels/Masks/128-3epochs/checkpoint-1.pt (torch_old, 510177 bytes, 74 tensors)

prep.DepthwiseConv2d.depthwise.weight f4 [3, 1, 3, 3]
000000 54 a5 84 3e 72 50 d8 3d 43 87 9a be 72 80 0e c0
       0.25907385 0.10562219 -0.30181322 -2.2265897
000010 30 4a 14 3e 21 ea 07 40 9b b8 29 c0 09 c9 2d 3e
       0.14481425 2.123665 -2.6518924 0.1697122
000020 cd 20 16 40 da 08 8f 3e 82 85 87 3c 38 42 4f be
       2.345752 0.2793644 0.016543154 -0.20240104
000030 8d fa 0a c0 c9 ca 00 3e a6 51 04 40 40 cc 20 c0
       -2.1715424 0.12577356 2.0674834 -2.5124664
000040 a7 8c af 3e ec 59 ff 3f 7f 47 a8 3e 27 59 8f 3d
       0.34286997 1.9949317 0.32867047 0.06999426
000050 89 44 97 be 24 63 1d c0 25 7d 57 be af f3 33 40
       -0.29544476 -2.459176 -0.21043833 2.8117483
000060 4a 52 45 c0 52 23 38 3f be 68 ee 3f
       -3.0831475 0.71928895 1.8625715

prep.DepthwiseConv2d.pointwise.weight f4 [64, 3, 1, 1]
000000 db 8d f2 be 9f bb f4 be 08 f4 d1 be 48 82 f2 be
       -0.47373852 -0.47799394 -0.41006494 -0.47365022
000010 11 09 0d be c1 35 95 be cc c4 c4 be bd 92 74 be
       -0.1377299 -0.29142573 -0.38431394 -0.23884101
000020 19 98 9d 3d 31 48 3c 3e 2d 7c 47 3e 1b 31 0d 3f
       0.07695026 0.18386914 0.19480963 0.55153054
000030 2e e6 5d 3f 46 6e 98 bf 06 7e 0a bf 75 fc 9f 3e
       0.8667935 -1.1908653 -0.54098547 0.31247297
000040 cf ca 0a 3d 6d de 4e 3f 15 d9 2e be 83 1d 41 be
       0.03388482 0.80808145 -0.17074998 -0.18858914
000050 fd f5 b3 3e 3f f6 51 bd a0 f8 49 3d 3e b0 23 bd
       0.35148612 -0.05126023 0.049309373 -0.039963
000060 4d 0e c4 3e 12 b0 bc be 63 b4 46 3e 07 88 92 3e
       0.3829216 -0.3685308 0.1940475 0.28619406
000070 de 09 06 3e 54 81 73 3d 45 f8 7b 3e 95 fe b5 3d
       0.13089702 0.05944951 0.24606426 0.08886448
000080 73 86 52 be 4b d7 18 3f 63 6c dd 3e 6c 19 2e be
       -0.20559101 0.5970351 0.43246755 -0.17001885
000090 81 a4 a0 3e 13 7f a7 3e d5 e3 e0 3e 49 ea 0f bf
       0.31375507 0.32714137 0.43923822 -0.56216866
0000a0 fc 66 b0 3e 86 30 76 3f a7 7e e9 3c 9a 97 29 bd
       0.3445357 0.9616779 0.028502775 -0.041404344
0000b0 a8 3d 31 3f af 04 bc bd c0 fc b6 3e 4b 81 6d be
       0.69234705 -0.09180581 0.35739708 -0.23193853
0000c0 94 d1 30 bf b9 97 60 3f 22 ff 9e be e9 7f dc bc
       -0.6906979 0.8773151 -0.31054026 -0.026916461
0000d0 3d 48 45 3e 13 5a 17 3d 8e ea 19 3f 4f 1e 91 3e
       0.19265838 0.036951136 0.6012353 0.28343436
0000e0 98 82 a7 bf aa 3f 70 bf c2 5e 73 3f b4 6f 8a 3e
       -1.3086729 -0.93847144 0.95066464 0.27038348
0000f0 31 9a 14 3f cc 20 32 bf 48 48 1b 3f df d5 47 be
       0.5804778 -0.69581294 0.6065717 -0.19515179
000100 27 cd a5 3e 4b 8b 2f be 4b ee f7 be cb 52 97 be
       0.3238308 -0.1714298 -0.4842399 -0.29555354
000110 79 6f 3b bf e0 02 62 be 41 f0 ac be 77 b9 b1 bd
       -0.7321697 -0.22071409 -0.3377705 -0.08677953
000120 c0 74 b9 3e e7 0a 86 3d dc 01 eb 3d e1 f9 87 3f
       0.36221886 0.06545048 0.11474964 1.0623132
000130 4d d2 bf bf c9 65 b7 3e 5a 69 10 3e d4 5e 62 3e
       -1.4986054 0.35819843 0.14102688 0.22106487
000140 db b6 a8 3e 83 f5 3d be 4d 24 fc 3e 7d 01 a0 3e
       0.32952008 -0.18550687 0.49246445 0.31251135
000150 9d 56 91 be 19 84 b7 be f9 c2 a5 be 03 db 89 3c
       -0.28386393 -0.3584297 -0.32375315 0.016828066
000160 1f 61 86 bd 27 9c 95 3e 1d 4c 29 3d 59 bc 40 be
       -0.06561493 0.29220697 0.041332353 -0.18821849
000170 80 68 e8 bd 5d 13 a7 3e 65 4b 86 be 44 ca 8f be
       -0.11348057 0.3263196 -0.26229396 -0.28084004
000180 5d e3 f0 3d 9c cc 69 bf 07 33 56 be f1 c3 8d bf
       0.11762116 -0.91327834 -0.20917903 -1.1075422
000190 d5 64 57 bf ba ec 59 3e a0 e2 3a be ea b6 31 3d
       -0.8413823 0.2128171 -0.18250513 0.04338733
0001a0 fc 65 8e 3f 9e 34 7e be c0 fa bf bd e0 a8 f6 be
       1.1124873 -0.2482476 -0.09373999 -0.48175716
0001b0 38 f0 15 3e a5 01 b8 bc f6 11 a3 bf 5f 36 97 3e
       0.14642417 -0.022461722 -1.2739856 0.2953367
0001c0 e6 97 a7 bd 7e 74 b5 bd 42 00 e7 3d 9c 54 9e 3f
       -0.08183269 -0.0886011 0.11279346 1.2369571
0001d0 81 69 fc be 1c ee 33 3f 10 bd 6e 3f 32 0e a3 bf
       -0.49299243 0.702852 0.93257236 -1.2738707
0001e0 f8 71 1a be 6b bc d8 be 72 74 97 be 4a c3 27 3e
       -0.15082538 -0.42331252 -0.29581028 0.1638309
0001f0 4a 93 5f bf 9b 51 17 3f 57 24 f9 be 73 27 c5 bd
       -0.8733412 0.59108895 -0.48660538 -0.09626665
000200 1a 92 e7 be c7 92 71 3f 1b 95 a9 3d 8d 50 71 bf
       -0.45228654 0.9436459 0.08280393 -0.94263536
000210 b2 2b b9 bf 3a 4c 74 3d 9c 72 ad 3f 89 9d 34 3d
       -1.446646 0.059643008 1.3550601 0.04409555
000220 d5 b5 82 3e 5a 01 5a 3e 16 d7 80 be 18 f8 54 3e
       0.25529352 0.21289578 -0.25164098 0.20797765
000230 e4 e2 75 3d 89 b2 42 3f 56 ed 06 3f 42 30 8d 3e
       0.060030833 0.76053673 0.52705896 0.2757588
000240 6b a5 b2 be 13 80 66 be a8 37 29 3e 9c bf 89 3d
       -0.3489183 -0.22509794 0.16525137 0.06726
000250 25 f4 8c be 8e 1e 21 bf 47 55 70 3d 23 91 5f be
       -0.27530017 -0.6293725 0.058675077 -0.21832709
000260 e3 d5 71 3d c3 83 07 3f 3d 81 e3 3e f0 ef d9 3e
       0.05904187 0.5293543 0.44434538 0.4256587
000270 b5 2a b4 3e f7 41 b8 3e b6 b2 30 3f 7f a7 79 bf
       0.35188833 0.35987827 0.6902269 -0.97521204
000280 84 51 1c 3f 36 99 03 bf 1f a8 9a 3e 0b 0e db 3e
       0.6106188 -0.51405656 0.3020639 0.4278415
000290 42 97 ae 3e 6c c1 65 3e 63 06 c9 be 69 5c 79 3d
       0.34099776 0.22437066 -0.39262685 0.060879145
0002a0 05 0f 02 3f f7 3f b8 3e d6 2c 2e be 0b 39 2b 3c
       0.5080417 0.359863 -0.17009291 0.010450612
0002b0 9d 68 0a 3e 72 cf b7 3c f5 74 0f 3e 20 32 22 be
       0.1351647 0.022437785 0.1400946 -0.15839434
0002c0 9b 61 4e 3e 70 53 ba 3e 42 cd d3 3d 11 ee d0 3e
       0.20154421 0.36391783 0.10341884 0.4080663
0002d0 32 4c 87 be 3f 7d 2f 3e 50 56 c6 3d 5b 4f 57 3f
       -0.2642532 0.17137621 0.096844316 0.8410546
0002e0 b1 54 db 3e cb b3 d0 be 99 88 17 3f 5f b7 01 3f
       0.42838052 -0.4076217 0.59192806 0.5067043
0002f0 4e 0f 52 3f 2f 63 17 bf eb 79 16 bf 41 38 31 3f
       0.82054603 -0.5913572 -0.5877978 0.6922646

prep.DepthwiseConv2d.pointwise.bias f4 [64]
000000 f9 26 0b bc 7f cb 9f 3e 81 a4 d3 3e 25 a8 df 3e
       -0.0084931785 0.31209943 0.41336444 0.43682972
000010 f4 97 89 bd 3d 36 56 bb ff 9d 96 bd 9e db ef bc
       -0.06718436 -0.0032686137 -0.07354354 -0.029279526
000020 1c c3 17 bc 22 a8 9b bb 25 26 fe 3c 8e 6b 81 3d
       -0.009262826 -0.0047502676 0.031024048 0.063193426
000030 a5 7e 7f bd ca db 2c bc 41 2b a4 3e 9b 6d ab bb
       -0.062376637 -0.010550449 0.3206425 -0.005231572
000040 6c 80 30 bd 45 af c6 bd e3 b7 94 be 5f af 0b 3d
       -0.043091223 -0.09701399 -0.29046544 0.034102794
000050 19 d8 9d 3c 54 e9 4f bc 96 9a 53 bc b9 61 61 3d
       0.019268082 -0.012689907 -0.012915274 0.055024836
000060 9d c5 6a 3c c7 1f 93 3b 93 cd 26 3f ab e1 91 3d
       0.014329341 0.004489872 0.6515743 0.07123121
000070 b3 78 b7 bc 9b 33 51 3d 1b 10 50 bd 53 30 9a bd
       -0.022396421 0.051074605 -0.05079661 -0.07528748
000080 a0 3d fd bc ba f6 12 bd 61 53 f1 3b fc 0d 05 bf
       -0.030913174 -0.035879828 0.007364676 -0.51974463
000090 2b 3a b0 be 2f a8 0e be aa e3 86 bc ea c4 c3 bd
       -0.3441938 -0.13931344 -0.01646598 -0.09559043
0000a0 45 c7 7d bc 9a aa 8c 3c 9b 7b 4e 3d 14 1c 5d bd
       -0.015489404 0.017171193 0.050410848 -0.053981856
0000b0 ed 26 c4 3d f1 45 c5 3d 2c 52 c7 3c 01 40 cf bb
       0.09577737 0.09632481 0.024331175 -0.0063247685
0000c0 67 f0 81 3e 24 50 03 be 8b 89 29 3c f6 41 b3 3d
       0.25378725 -0.1282354 0.010347734 0.087528154
0000d0 84 ff d5 3d f9 a0 4b bd 02 06 b0 bc 0b 65 d2 3d
       0.10449126 -0.049714062 -0.02148724 0.10273179
0000e0 cc dd 97 3e 22 bd 1a bd 92 e0 18 3e 27 d1 0e 3e
       0.29661405 -0.037778027 0.14929417 0.13946973
0000f0 63 16 fa bc 83 5e 24 bd 06 50 30 3e 5e ef 0a 3d
       -0.030528253 -0.040129196 0.17218027 0.033919685

cb1.DepthwiseConv2d.depthwise.weight f4 [64, 1, 3, 3]
000000 9f be 92 be 4b 88 a5 be fc 14 b9 3e 48 da 05 be
       -0.28661057 -0.32330546 0.36148822 -0.13071549
000010 88 4e d9 be 1a 53 4c 3d 7e 0f ee bd 71 f0 e0 bd
       -0.42442727 0.04988394 -0.11624049 -0.109833606
000020 2b 82 77 3e 39 b6 57 3e 73 b2 48 bd e0 56 8c bd
       0.24170749 0.21065606 -0.048998307 -0.068525076
000030 32 c2 57 3e 16 11 cb bb 10 41 69 3d e2 96 f7 be
       0.21070173 -0.006197105 0.056946814 -0.48357302
000040 a6 08 e7 bd e4 0a 9c 3e c2 29 78 be 99 40 2c bd
       -0.112809464 0.3047706 -0.2423468 -0.042053793
000050 a4 d4 27 bd 3c a7 3c bd b0 f3 98 3d ad a0 17 bd
       -0.040974274 -0.046057925 0.07468355 -0.037018467
000060 31 1b a6 be c7 92 00 3f 6d d9 47 3e 3c 5f 76 3e
       -0.3244262 0.50223964 0.19516535 0.24059767
000070 91 25 4c 3c c1 fa fd be d1 4a 45 be 3b 41 50 3e
       0.012460128 -0.49605373 -0.19266821 0.20337383
000080 f7 2b cb bd 5c 1d b3 be 20 69 63 3e ab 73 97 3e
       -0.09920495 -0.34983337 0.22208071 0.29580435
000090 79 50 ec be 9a 79 8c bd d2 c8 c8 be 82 64 98 be
       -0.46155146 -0.06859131 -0.39215714 -0.2976418
0000a0 78 fe 25 be b1 6f 0e be 1f 8f eb bd 84 38 df bd
       -0.16210353 -0.13909794 -0.115019076 -0.108994514
0000b0 77 92 f1 bc e1 d8 0c bd 53 6e 66 3e 20 d8 14 3e
       -0.029488785 -0.03438652 0.22503023 0.1453557
0000c0 0d 17 5b 3e 01 42 63 3e 44 3e a1 be e2 54 97 3e
       0.21395512 0.22193147 -0.31492817 0.29556948
0000d0 01 76 59 3e 00 d3 8f 3e 01 c5 31 be dd 70 f3 bd
       0.21236421 0.28090668 -0.17360307 -0.11886761
0000e0 3a 94 a1 bb 3f 04 10 be bd 48 8c bd fe e6 ef bd
       -0.004931 -0.1406412 -0.06849811 -0.1171398
0000f0 91 38 45 be 9e ce a9 bd 09 92 dc bd 46 3d b8 3b
       -0.1925986 -0.08291362 -0.107700415 0.0056225387
000100 82 a7 a1 3c 08 8a 57 b9 38 c5 a1 3c 23 54 ca 3d
       0.019733194 -0.00020555418 0.019747362 0.09879329
000110 21 20 dc 3d 44 f7 a4 bc d3 08 92 bd 9d 65 86 bc
       0.107483156 -0.020137437 -0.07130589 -0.016405875
000120 26 07 46 3e 9e 83 69 3e c3 7e 68 3e a6 40 c0 3c
       0.19338664 0.22804114 0.22704606 0.023468327
000130 e6 2d b0 3d bb 08 31 3e 8d ed 46 bd fd c9 d5 bd
       0.086025044 0.17288487 -0.04856639 -0.10438917
000140 38 59 69 3d d4 bc 8f bd 32 fe 98 bd 72 66 cf bd
       0.05696985 -0.07018438 -0.07470359 -0.10126962
000150 7a 7f ea bc f8 12 8c bd f6 7d 82 bd fb d8 ab bd
       -0.028625239 -0.068395555 -0.063716814 -0.08390995
000160 45 55 5d be 48 fc e8 3d 75 25 48 3d 5f 12 23 be
       -0.21614559 0.11376244 0.048863847 -0.15924977
000170 31 52 62 be 91 76 0f bb 3d cf 10 3d 65 3a 03 be
       -0.22101666 -0.002189074 0.035353888 -0.12815244
000180 da ca 8f 3d d5 19 58 bd 52 26 63 bd a7 d1 5c 3d
       0.07021113 -0.05275901 -0.055456467 0.053910878
000190 27 66 c6 3e 8e 00 3c 3e 97 f6 8e 3e 54 0e d4 3e
       0.3874981 0.18359587 0.27922508 0.41417181
0001a0 37 a7 86 bc 69 9e b6 bd ed 0d d3 3d 9e 68 be bd
       -0.016437156 -0.08916933 0.103053905 -0.09297298
0001b0 40 f6 d6 be 33 dc 89 be ca c8 3b 3e 5d 89 2a be
       -0.4198475 -0.2692581 0.18338314 -0.16653962
0001c0 25 d2 6b bd 4b 98 2b be 18 1b 6e bd 6d 0a 35 3c
       -0.057573456 -0.16757314 -0.058131307 0.011049849
0001d0 f9 98 49 be 98 96 17 bf 32 82 32 3e 83 59 a5 3d
       -0.1968726 -0.5921416 0.17432478 0.08073714
0001e0 9f a7 bd be e9 ce 2d 3e bb fb 94 bd ca 5f 78 be
       -0.37041947 0.16973461 -0.07274576 -0.2425529
0001f0 90 39 d1 be 69 b6 a3 be 6b 7b 31 3d 1e ce cf bd
       -0.4086423 -0.31975105 0.04333059 -0.101467356
000200 f2 98 24 be d2 c0 03 3c da ce e4 bd b8 1c 9c be
       -0.16073969 0.008041577 -0.11172266 -0.3049066
000210 b1 0b be 3e 82 d1 e2 bd db 68 21 3f c2 58 b7 bd
       0.37118295 -0.11075117 0.6305062 -0.08952476
000220 7e 1f 70 3d b0 f8 33 bc de fc c2 bd 87 d3 2d be
       0.058623783 -0.010984585 -0.09520887 -0.16975223
000230 fc fc 11 be e9 98 0e be 21 6f 64 be 7b 52 d1 bd
       -0.14256662 -0.13925518 -0.22308017 -0.1022081
000240 15 e0 2e 3f b0 f6 62 3c 12 34 b6 3c 84 b0 05 3f
       0.6831067 0.01385276 0.022241626 0.52222466
000250 cf d3 c2 3d 14 ff be bd 6e 64 aa 3e 95 c5 d8 3c
       0.095130555 -0.09325996 0.33279747 0.026461402
000260 7d e7 06 bd 01 f0 b9 bd 3a b6 98 3d 22 92 4e 3d
       -0.03293561 -0.0907898 0.07456632 0.05043233
000270 66 a2 bd bd ad 13 5f bd 1f c7 5b 3c 11 49 91 bd
       -0.09259491 -0.054462124 0.013414173 -0.070940144
000280 7a 70 38 3c ac b5 25 3d 61 10 b6 be 90 5b 9a be
       0.011257285 0.04045646 -0.3555937 -0.30147982
000290 e6 1a ce be 68 93 b8 be 86 1d e7 be b5 3c 9b be
       -0.40254897 -0.36049962 -0.45139712 -0.30319753
0002a0 1d 80 c1 be 05 6a 52 bc fe 0b f8 bd a8 b1 86 be
       -0.37793055 -0.01284266 -0.12111662 -0.26307416
0002b0 0f 45 07 be 80 15 fa be 0c b8 71 be 9c 1c df be
       -0.13209938 -0.48844528 -0.23605365 -0.43576515
0002c0 61 24 95 be ab 26 d3 bd 2f 11 94 3d b7 00 8c be
       -0.29129317 -0.1031011 0.0722984 -0.27344295
0002d0 d2 3d 8d 3d 70 d9 a3 3e b0 fb 93 3e 40 b9 4e 3d
       0.06896557 0.3200183 0.2890296 0.050469637
0002e0 74 e4 a1 bc ec d4 93 3e 7b 79 4c 3e 5a 87 20 3e
       -0.019762255 0.28873384 0.19968216 0.15676633
0002f0 31 0a 3b 3e ff f1 d5 3d 4c 9d de 3d 44 ff 23 3e
       0.18265606 0.10446548 0.10869846 0.16015345
000300 50 a2 8e 3d 4e da 4a 3d 2d f1 4b 3e 35 bd 25 3d
       0.069645524 0.049524598 0.1991622 0.040463645
000310 bd 9a f3 bd 1a d6 42 3e eb e7 6d 3d 39 5d 68 3e
       -0.11894748 0.19026986 0.058082502 0.22691812
000320 53 f3 e4 3e c5 d1 67 3e 1a 77 a0 3e 82 db 48 3e
       0.44716892 0.22638614 0.31340867 0.19614986
000330 3e 3f 86 be ac dc 85 be bd 23 ea be 9f 58 6f 3d
       -0.26220125 -0.26144922 -0.4573039 0.058434125
000340 53 fa 4b 3e f3 e0 7f bd 0f 51 2c 3e de c1 d7 3d
       0.1991971 -0.062470388 0.16827796 0.10535024
000350 33 e2 a7 3c c3 c1 8a be af 04 8b bd 8c 7c ad bc
       0.020493602 -0.27100953 -0.06788003 -0.021177553
000360 c0 37 a0 bd 2a e1 22 bc 09 14 08 3e 7d cb 09 3e
       -0.078231335 -0.009941379 0.13288893 0.13456531
000370 49 70 63 be 7c 6e 91 bd bb d6 32 3e b6 be 7c bd
       -0.22210802 -0.07101151 0.17464726 -0.061705314
000380 f0 6c c1 3c 69 4d ed be 43 58 de bd 30 47 ff be
       0.023611516 -0.46348122 -0.10856678 -0.49859
000390 fb 1a a7 be 07 a5 c4 be d6 79 a3 be 13 af 53 be
       -0.32637772 -0.38407156 -0.3192889 -0.20672254
0003a0 22 ab 0d 3d fe 37 8b be d7 00 17 3e 40 b3 e3 3e
       0.034587033 -0.27191156 0.14746414 0.44472694
0003b0 70 a7 8c be 5b d1 99 bb 40 a0 80 3e 55 2f a4 bd
       -0.27471495 -0.0046941466 0.2512226 -0.0801684
0003c0 1d 19 23 3e a2 0f f9 bd 85 47 1b bf 01 6b 1d bc
       0.15927549 -0.12161185 -0.60656005 -0.009608031
0003d0 1a df 43 be e5 8a ad be d3 62 1f be 6c 0c 15 be
       -0.19128075 -0.3389503 -0.15565042 -0.1455552
0003e0 e3 f9 a9 bd e7 d9 91 be 62 c6 91 bd 7c 51 36 3d
       -0.08299615 -0.2848656 -0.07117917 0.044511303
0003f0 9f b1 10 bd 8c 02 b6 3d b5 20 34 bb 5b 93 86 3e
       -0.035325643 0.088872045 -0.0027485315 0.26284298

cb1.DepthwiseConv2d.pointwise.weight f4 [128, 64, 1, 1]
000000 ef a1 2b be 27 d3 91 be 23 5e ee 3c f9 20 0f 3e
       -0.16760992 -0.2848141 0.029097622 0.13977422
000010 bf 64 3f 3d 72 2d d5 bd 5f c6 07 bd c9 f8 36 3d
       0.04672694 -0.10409059 -0.033148166 0.044670854
000020 f5 a7 ad bd 06 2c 14 3e 6c b7 17 be 38 10 81 3d
       -0.08479301 0.14469919 -0.14816064 0.063019216
000030 20 b9 0b be c6 01 1b bd f7 2c 8b 3e 9d 0f 02 3d
       -0.13644838 -0.03784349 0.27182743 0.03175317
000040 76 7e 34 bd bf fe fc 3c 0c 8f 62 3e bb 1c 0f bd
       -0.044065915 0.030883191 0.2212488 -0.03493951
000050 28 18 be bd 01 8b 95 3e 0b 93 9d 3d b8 26 d9 3d
       -0.09281951 0.29207614 0.07694062 0.10603088
000060 39 5c c6 3c 1b 19 a6 bd 3e 04 57 be d6 d7 87 3d
       0.024213897 -0.08110257 -0.20997712 0.06632964
000070 28 98 c2 3d a5 20 45 be 5e 6e 93 bd 56 b4 23 be
       0.09501678 -0.19250734 -0.07198785 -0.15986761
000080 8e 8e e6 bc 87 8d 7b be 75 d8 d3 bd df 60 04 3e
       -0.028144147 -0.24565707 -0.1034402 0.12927578
000090 53 26 2f 3e c4 bf 05 3e 31 04 d0 3d ff a8 f4 bb
       0.17104463 0.13061434 0.101570494 -0.007466435
0000a0 75 9e 89 bc 79 e4 be bd 96 90 c4 bc a5 3e 83 3c
       -0.016799191 -0.093209215 -0.023994725 0.016021082
0000b0 9c 08 fa 3d 1b 74 0a be 92 47 ed 3c 31 a6 b3 3d
       0.12208673 -0.13520853 0.028964791 0.08771933
0000c0 e9 26 a9 bd e6 b3 c0 3d 01 ad 51 3d dd 24 63 3e
       -0.08259375 0.09409313 0.05119038 0.22182031
0000d0 4e df 34 bd bf c7 e1 3c b0 96 d3 3b 67 6b 85 3d
       -0.044158272 0.027561067 0.0064571723 0.06514626
0000e0 99 86 0c 3c 41 02 39 3c 03 94 a6 3d db cd 67 3d
       0.008577012 0.011292041 0.081337 0.056592803
0000f0 6b 7b 6b 3d cc b1 02 3d 83 e7 be be ac 81 39 3c
       0.057490747 0.03190784 -0.37286004 0.01132242
000100 07 9c 57 bd 84 2d 04 be 73 a6 1b be 60 2e 23 3d
       -0.052639034 -0.12907988 -0.15200214 0.03983915
000110 3a 2e 9f 3d 85 78 7f 3d 50 b7 61 3e 45 3b 1c be
       0.07772489 0.062370796 0.22042584 -0.15256985
000120 c1 b4 40 3e ff 50 0a be a5 13 93 be 20 97 aa bd
       0.18818952 -0.1350746 -0.28725925 -0.08329606
000130 a2 5d ae bd 65 05 17 3d 7a 58 8e 3e 50 d9 06 be
       -0.08513953 0.03687038 0.27801877 -0.13168836
000140 15 34 2a 3c e4 46 c8 bd 0b ed 22 3d c1 58 02 be
       0.010388394 -0.09779146 0.039776843 -0.1272917
000150 de 2b 65 3d 0c f8 e9 3c 3e 04 82 3e 22 39 9e 3d
       0.055950038 0.02856066 0.25393862 0.07725741
000160 4d b7 ab 3b 51 3c 3a bd 97 a4 04 be b9 88 0c bd
       0.005240357 -0.04546768 -0.12953411 -0.034310076
000170 ea 0a d4 3c e5 bf 24 3e b8 cb 2b be f6 8d 54 3d
       0.02588411 0.16088827 -0.16776931 0.051893197
000180 ce 4c e5 bd 3f 00 c3 3e 62 26 0e 3e 10 4c 1e 3e
       -0.1119629 0.38086125 0.1388183 0.15458703
000190 44 41 6c 3e b6 2b 2a be b3 96 b6 bc 7e a0 69 bd
       0.23071772 -0.16618237 -0.022288656 -0.057037823
0001a0 9e 11 b0 3d b7 7f 87 3c 6c de 07 3e 5b 4a dc bd
       0.0859711 0.016540391 0.13268441 -0.1075637
0001b0 6c 59 c2 bc 99 55 5d 3e 5b 0d 19 3e 6c 46 2f bd
       -0.02372428 0.21614684 0.14946501 -0.04279177
0001c0 31 fb 22 3e 1a 13 86 bd 51 f1 e2 bd 5e 08 e8 bb
       0.15916134 -0.06546612 -0.11081184 -0.0070810756
0001d0 2a 0a 53 3e 88 11 88 3c 1f 05 95 bd 49 4d ff bc
       0.20609346 0.016609922 -0.072763674 -0.031164782
0001e0 7d d0 0e 3e a0 27 0a be 6a 9d e5 bd 79 1c 1d bd
       0.1394672 -0.13491678 -0.11211665 -0.03835723
0001f0 3c ef b3 bc d8 c7 31 3e 1d 3d cb bc 0f 7b 4a bc
       -0.021964662 0.1736139 -0.024809415 -0.012358441
000200 65 2c 76 3e a3 7f 2b 3e d9 cd 76 3c 1c a8 5d be
       0.24040373 0.16747908 0.015063726 -0.2164616
000210 14 c4 10 3e 73 26 2f bd 17 f5 77 3d 0b 9e db bb
       0.14137298 -0.042761277 0.06053647 -0.00670219
000220 84 e5 21 be 64 b7 7b 3d 4c 67 ad 3d 0c 77 01 be
       -0.1581021 0.06145419 0.08466968 -0.12643069
000230 81 a5 4a bd 81 7b e9 bc 46 e4 cb bc 52 0d b9 3d
       -0.049474243 -0.028501274 -0.024889123 0.09035744
000240 5b 07 bb bc 76 9b 17 3d 60 3b 10 3e 03 94 4e 3e
       -0.022830656 0.037013493 0.1408515 0.2017365
000250 2c 5a d2 3d 38 3a 01 3e 39 a7 0c bd 5c ad 14 be
       0.10271105 0.12619865 -0.034339163 -0.14519256
000260 22 a6 5e 3e 22 bd 8a 3e 4c 8b 2d bd b3 9b c6 3d
       0.21743062 0.27097422 -0.042369172 0.09697666
000270 c7 15 74 3c 53 83 87 bc f6 11 db bd 1a 4f 3e 3e
       0.01489777 -0.016542112 -0.10696785 0.18584862
000280 d1 bb 8c bd 1e d0 64 3e 3c 54 13 be 03 4f 47 be
       -0.06871761 0.22345015 -0.14387602 -0.19463734
000290 22 b7 1d be 89 99 82 bc e1 12 35 3e 3f c6 11 bf
       -0.15401891 -0.015942352 0.17682983 -0.56943125
0002a0 e7 10 1d 3e 6f 70 9d bd 19 bd fe 3b 10 07 22 be
       0.15338479 -0.07687461 0.007774007 -0.15823007
0002b0 bf 5a dc bd 24 69 bc bd e2 13 d2 bd 0c 0c 21 bc
       -0.10759496 -0.091997415 -0.102576986 -0.009829532
0002c0 67 eb fc bc eb 04 3e bd c2 a6 be bd 71 03 9a 3d
       -0.030873967 -0.04639141 -0.0930915 0.07520188
0002d0 a8 06 78 3e 24 4a 72 be 78 63 2a 3e e8 e5 2b 3e
       0.24221289 -0.23661095 0.16639507 0.16786921
0002e0 ba fc 16 3e 73 63 08 bd 85 df 94 3d 68 73 48 bb
       0.14744845 -0.033297967 0.072691955 -0.0030586366
0002f0 c8 aa df bd f6 f6 c1 bd 45 de 0e be 03 44 80 be
       -0.10921246 -0.09470932 -0.13951977 -0.2505189
000300 7a d9 7a 3e ce 2b b1 bc 0d 47 34 3c ef c2 9d bc
       0.24497023 -0.021627333 0.011003268 -0.01925799
000310 dd b1 35 3e a1 cc 0c 3e 23 32 7f 3d 70 97 84 3d
       0.1774363 0.13749935 0.062303673 0.06474197
000320 9a 06 a4 bd 96 42 0c 3e 79 e5 d7 bd 84 f6 8c 3a
       -0.08009072 0.13697276 -0.10541815 0.001075462
000330 aa e3 a0 3d 41 67 49 be 3f 58 33 3e 58 54 4b 3d
       0.078559235 -0.19668294 0.17514132 0.049640983
000340 d5 91 6c be f0 ca 97 be e7 62 c9 bd 61 2a 45 bd
       -0.23102506 -0.29647017 -0.09833317 -0.04813612
000350 0e da af 3c 94 b3 31 be 5f 39 3b be 39 50 95 bc
       0.021466281 -0.1735366 -0.18283604 -0.01822673
000360 18 8d b1 3c 06 10 cf bd 76 a9 e9 bd b4 af 90 3c
       0.021673724 -0.10110478 -0.11409275 0.017661907
000370 01 71 56 bd e0 88 d9 3c cf 18 78 3e 87 0c 00 3e
       -0.052353863 0.026554525 0.24228214 0.12504779
000380 80 89 8f 3c bc 25 29 3e cf 40 61 be 37 7a 31 3e
       0.01752162 0.16518301 -0.21997379 0.17331778
000390 6e b5 77 bd 4e 53 e3 3d 29 3a b9 3d 5c 32 36 be
       -0.06047576 0.110998735 0.09044296 -0.17792648
0003a0 e4 a5 39 be d1 dc 01 be 98 bc 86 3e db 54 8b 3d
       -0.18129689 -0.12681891 0.2631576 0.06803294
0003b0 28 76 00 3e 21 26 52 3e d8 68 59 bd 1c 12 71 bc
       0.12545073 0.20522358 -0.053078502 -0.01471379
0003c0 6f 02 ce 3c 7f 27 16 bd 39 e2 18 bd 96 23 63 3d
       0.025147645 -0.03665876 -0.037325118 0.05545386
0003d0 d6 df 03 bd 2c 5d b1 be 98 e7 1a bd 8a e1 48 bd
       -0.03219589 -0.34641397 -0.03781852 -0.049043216
0003e0 21 14 c5 3c 6a 55 fc 3c 55 f8 e7 3c f9 29 2c bd
       0.02405745 0.030802447 0.028316656 -0.042032216
0003f0 df 9b b8 3d 9c 00 41 be 2c 32 f9 3d 9e 62 91 3d
       0.09014105 -0.18847889 0.12167773 0.07098888

cb1.DepthwiseConv2d.pointwise.bias f4 [128]
000000 9c a3 55 be 9d 94 f0 bd 3d d3 0d 3e 8c 6b 95 be
       -0.20863193 -0.11747096 0.13850112 -0.29183614
000010 cd 0a a6 3b a1 9a 78 be 51 4a 76 3e 9c 3e b1 3e
       0.0050672055 -0.24277736 0.24051787 0.3461808
000020 06 72 d2 bd 77 94 8f 3e 65 5e b4 3c eb e4 19 bf
       -0.102756545 0.28042957 0.022017667 -0.60114926
000030 5b 95 e3 3b 44 19 3a 3e 7a ef 01 bc 7e c5 88 3e
       0.006945295 0.181737 -0.007930631 0.26713175
000040 51 8d 7c 3d c5 6a da bd de 20 3b 3e 2d 3c 0e 3e
       0.061658207 -0.10664896 0.18274257 0.13890143
000050 25 fd d1 bd d6 5c d9 bc 55 2a 5e bb 41 c8 48 3e
       -0.102533616 -0.026533525 -0.0033899744 0.19607641
000060 13 02 fc bc 85 1d 4c 3d a6 2f e0 3c d1 7a 79 3e
       -0.030762708 0.04983284 0.02736647 0.24363257
000070 91 50 5f be 06 56 2f 3e 54 2d 4b be e0 68 be 3b
       -0.21808077 0.17122659 -0.1984151 0.005810842
000080 b8 cd 55 3e b7 b2 1d be c7 47 2f 3d 0f 5d 94 be
       0.20879257 -0.15400206 0.04279306 -0.28977248
000090 ea 70 96 3c 7f 56 cc bd 16 32 6c bd da fc 0a 3e
       0.018364388 -0.09977435 -0.057664953 0.13573018
0000a0 ba a6 82 3d 5f fc 4a bd 0d 79 e4 3e 70 3c 33 3e
       0.06379457 -0.049557086 0.44623604 0.17503524
0000b0 9b aa 80 3d 31 6d 4c 3f 85 a2 a0 be da 08 45 3c
       0.062825404 0.7985411 -0.31373993 0.012026036
0000c0 f9 92 12 3e 5f 59 4e 3e b9 32 01 bd 04 1a 3b 3c
       0.14313878 0.2015128 -0.031542514 0.011419777
0000d0 19 0d ed 3c 0c 31 76 bd eb ef 7b 3e ca 06 8c bc
       0.02893691 -0.06010537 0.2460324 -0.017093081
0000e0 72 95 ca bc 37 12 45 3e 32 cf 10 be d0 31 af 3e
       -0.024729464 0.1924523 -0.14141539 0.3421769
0000f0 b0 72 25 be 47 71 69 3d 7c 09 81 3c b5 b0 a8 3e
       -0.16157031 0.056992795 0.015751593 0.32947317
000100 82 35 0f 3e 29 bd 86 be 0b 8d 61 3d da c7 cd bc
       0.13985255 -0.26316193 0.05506615 -0.02511971
000110 e0 c6 59 be 48 7d f6 bd d4 e9 fd bd 9d 86 70 bc
       -0.21267271 -0.12035614 -0.12398115 -0.014680532
000120 dd dc 8e be c5 d2 74 be 96 07 e3 3e 4a 11 81 bd
       -0.2790288 -0.23908527 0.44341725 -0.06302126
000130 1e 91 17 bc ce d7 78 3b 44 7a e7 3d 6c 5d a4 bc
       -0.009250907 0.0037970426 0.11302617 -0.020064078
000140 d5 09 00 3f 32 29 1c 3e d3 04 cf bd b3 e1 5d bb
       0.50015 0.1525009 -0.10108342 -0.003385645
000150 69 f1 d7 3e c2 71 61 bd 8d f8 fd 3c 12 7a 06 bf
       0.4217637 -0.05504013 0.031002307 -0.52530015
000160 81 b0 21 3d ad 04 03 3e d6 8a d0 3d 00 77 a6 3e
       0.039474968 0.12794752 0.10182731 0.32512665
000170 4b 9b b4 3d b2 d1 2b 3f b1 e6 90 3e 94 d6 99 bd
       0.08818682 0.67116845 0.28301004 -0.07511631
000180 41 c3 3a 3e b1 4f 1a be 52 a2 f2 3e f6 5e 85 3d
       0.18238546 -0.15069462 0.47389466 0.06512253
000190 8d 34 36 3d c2 14 03 be 95 18 bc 3d 29 66 c8 3d
       0.04448371 -0.12800887 0.09184376 0.097851105
0001a0 f7 e2 e8 bd d9 0d 6e be d8 c5 ae bd 2f 38 3d be
       -0.11371415 -0.2324747 -0.085338295 -0.18478464
0001b0 28 e3 09 3e 4a 15 e0 bd fa 7d 9a bc 72 c3 f8 3b
       0.1346556 -0.109415606 -0.018858898 0.0075916583
0001c0 30 59 75 be c8 a5 62 bc 7d 3c a7 bd 6c 96 be 3b
       -0.23959804 -0.013833471 -0.08165834 0.0058162715
0001d0 dd 23 8e 3e 38 3e eb 3d f4 97 a1 3d c1 6c 05 bd
       0.27761737 0.11486477 0.07890311 -0.03257442
0001e0 00 95 92 3c 1c 37 8c 3c b3 4c c3 bd 18 52 0c be
       0.017893314 0.017116122 -0.095361136 -0.13703191
0001f0 5f 81 fa 3d 08 4e 93 3e 69 fb a7 ba 66 fb 51 3d
       0.12231707 0.2877047 -0.0012816015 0.051265143

res1.0.conv1.depthwise.weight f4 [128, 1, 3, 3]
000000 08 54 5f bd 62 0e 2a bd 3f e3 ad 3c 4e 08 1f 3d
       -0.054523498 -0.041517623 0.021226523 0.03882628
000010 9a b0 59 bc a9 36 55 bd 9b d3 4d bd 6f 4b 13 3d
       -0.013286734 -0.05205408 -0.05025063 0.03596061
000020 0c a7 b4 3c d4 fc 79 bc 31 45 8e bc 5f 09 ba bc
       0.02205231 -0.015258033 -0.017366977 -0.022709547
000030 3d 08 ba bd 77 5f 06 3b ab dc a4 3c ee 2f 27 bc
       -0.090836026 0.0020503679 0.020124754 -0.010204298
000040 7d d6 bc 3b 3f 14 45 3c 46 2e fc bc 55 5a 15 3d
       0.0057628737 0.012028753 -0.030783784 0.0364631
000050 06 5d e1 bc 27 f4 1d 3c 2d c0 00 3d e1 10 ce bc
       -0.027510177 0.00964073 0.031433273 -0.025154533
000060 e9 13 ef 3c 8f 10 35 3a d3 42 ce bc f3 25 bf 3c
       0.029184299 0.00069070695 -0.025178349 0.023333525
000070 79 39 23 3c c4 88 d5 bc 5c f4 05 bd da 8e 4c bd
       0.009962433 -0.026066191 -0.032703742 -0.04994092
000080 40 f7 cc 3c 53 ee 2b 3d ef 21 01 be 31 d9 23 3d
       0.025020242 0.04197533 -0.12610601 0.04000205
000090 80 d8 88 3d f4 db 4a 3b 97 75 8e bc 61 d9 30 bd
       0.06681919 0.0030953856 -0.017390056 -0.04317606
0000a0 27 9b e0 bb 13 28 65 bd fa 7c ca 3b 16 78 79 bd
       -0.006854433 -0.05594642 0.006179449 -0.06090554
0000b0 22 27 b0 bc 81 be 95 3b a3 12 da 3b 6e 29 1a ba
       -0.021503035 0.004569829 0.0066550537 -0.00058808073
0000c0 30 dc 56 bd 1d 9b 18 3d c9 e4 35 3d f2 7a 83 ba
       -0.05245608 0.037257303 0.04440764 -0.0010031147
0000d0 f5 a2 e7 bc 0a c9 b6 bc bd 92 57 3b dc 81 f3 b9
       -0.028275946 -0.02231266 0.003289386 -0.00046445325
0000e0 27 1a 32 3c b3 fd 80 3d ff 4a 64 bd c5 a8 87 bd
       0.010870493 0.06298389 -0.055735584 -0.06623987
0000f0 ea 76 4b 3d 9c 7f 9b 3b c7 87 e2 bc 5e 2e 3d bc
       0.049673952 0.004745437 -0.027652634 -0.011546699
000100 d0 03 6f 3c ea 3a 78 bb d9 13 9b ba 43 fe 99 3d
       0.014588311 -0.0037876912 -0.0011831477 0.075192
000110 8b 7d 2a bc af 25 10 3d b8 40 88 3c 43 f6 a1 3d
       -0.010405908 0.035192188 0.016632423 0.07908299
000120 71 04 16 3d 6b de 96 bd 72 34 80 bc 29 f3 0c bd
       0.03662533 -0.073666416 -0.015650008 -0.034411583
000130 f1 46 cd 3c 11 46 a1 3d ee b8 74 bc 63 ff 8b bd
       0.025058242 0.07874692 -0.014936669 -0.068358205
000140 bc 78 6f 3d 7d cd 23 3d f9 e4 cd bc 58 6c 0e 3d
       0.05846475 0.03999089 -0.025133597 0.034771293
000150 7c 0c 32 3d c7 16 2d bd 19 ba 8d bd 61 41 2e bb
       0.043468937 -0.04225805 -0.06920261 -0.0026589262
000160 0b 64 96 bc 55 14 35 3c c9 69 3c bc a4 29 bf 3c
       -0.018358251 0.011052211 -0.0114998305 0.023335285
000170 f8 66 a3 bc 58 63 eb 3c f7 9d 64 3d 6a 03 a8 bd
       -0.01994656 0.028733894 0.05581471 -0.08203776
000180 76 b6 0a 3d 76 0a 3a 3d e1 6c cc bb 78 f5 db 3a
       0.033865415 0.045420133 -0.0062385653 0.0016781529
000190 4b a1 82 ba 70 2a 09 3c 57 f4 65 3b 37 0e f7 bc
       -0.0009966282 0.008371934 0.0035088265 -0.030158145
0001a0 5e e9 03 3d a2 8e a4 3c 40 5e 3c 3c 49 3b 88 bc
       0.03220498 0.020087544 0.01149708 -0.016629832
0001b0 b2 18 cc bc a4 ea a4 b8 d6 c8 80 3d 0c e8 ec bc
       -0.02491412 -7.8638346e-05 0.062883064 -0.028919242
0001c0 f0 3c aa bc 9f 44 7e 3d 64 98 13 3d 37 cf 92 bd
       -0.02078101 0.06207716 0.036034003 -0.07168429
0001d0 39 aa ca bc c8 c0 89 bc f3 11 5a bd 37 76 10 bd
       -0.024739372 -0.016815558 -0.053239774 -0.03526899
0001e0 f5 e0 53 3c e1 73 4c bd 13 e4 88 bc 61 07 a0 bb
       0.012932052 -0.0499152 -0.016710317 -0.004883692
0001f0 57 d2 a1 3c 7b c2 0f bd a1 66 c2 3c d2 78 43 3d
       0.019753618 -0.03509758 0.023730578 0.047722645
000200 69 d5 22 bc 0a df b4 bc 37 ff 15 3c 12 d2 17 3c
       -0.009938576 -0.02207901 0.009155086 0.009266393
000210 9a 56 e3 3c 66 26 1d 3d 84 31 67 3d c9 15 4d bd
       0.027751256 0.038366698 0.056443706 -0.050069604
000220 11 ad 3b bc da 21 f3 bc 65 3e 3d bc 82 10 cf 3c
       -0.011454836 -0.029679228 -0.011550521 0.025276426
000230 56 88 24 3d 96 ff 2d 3d b4 20 2f bc e3 b8 fa 3c
       0.040169083 0.042480074 -0.010688949 0.030605739
000240 b2 ac 90 ba ac 4e ad bc 6d f7 4f 3d e3 3f 8a 3c
       -0.0011037795 -0.021155678 0.050773073 0.016876167
000250 a3 0f 25 bc 2f 15 9d 3c 83 56 a8 bc e3 e7 94 bd
       -0.010074529 0.01917514 -0.020549065 -0.072707914
000260 ef 99 14 3d b1 bd 24 bb bd 40 33 3d fc 8a ea bb
       0.036279615 -0.002513748 0.04376291 -0.0071576815
000270 86 af e3 bc 89 3e f9 3b 92 9a 81 3d 5d a6 54 bd
       -0.027793657 0.0076063317 0.0632831 -0.05191647
000280 46 e5 63 3b bb 4f 43 3d 81 94 23 bb 2f ed 04 bd
       0.0034774109 0.04768346 -0.0024960341 -0.03245276
000290 95 ab 2f bc 84 07 7c 3d 8e 6b 6c 3b 64 7e 03 bd
       -0.010722061 0.061530605 0.003607485 -0.032102957
0002a0 08 54 47 bc a2 9e b5 bc 72 4f fe bc 21 27 1b bd
       -0.012166031 -0.022170369 -0.031043742 -0.037879113
0002b0 e0 3d 07 bd 9b 7c 37 bc 44 11 dc 3c a9 54 c4 3b
       -0.033017993 -0.011199142 0.026863702 0.0059915376
0002c0 75 c3 6b 3c 78 58 98 3b d7 d0 b3 bc 22 31 cf 3c
       0.014389862 0.004649218 -0.021950169 0.025291983
0002d0 b3 ba db 3c 4b d1 3b bc 45 48 da 3c 9e 28 f3 bc
       0.026822424 -0.011463474 0.026645789 -0.029682454
0002e0 c7 63 c1 bc 6c a2 96 3b 0b 8e e1 3c 5e 73 08 3d
       -0.023607148 0.004596999 0.027533552 0.033313148
0002f0 f9 ec 34 3b 0a b8 58 3d 71 ce 35 bd 00 05 0d 3d
       0.0027607067 0.05290989 -0.04438633 0.034428596
000300 e8 9d be 3d da 57 d6 bd 52 98 7f bd ad 15 a8 bc
       0.09307462 -0.10465975 -0.062401123 -0.020518148
000310 00 95 83 bc 7f 94 db 3c 19 ee bd bc f3 79 b9 bc
       -0.01606226 0.026804207 -0.023184823 -0.022641158
000320 1c e5 97 bc 64 10 fb bc 85 58 10 3d b7 0e 9d 3c
       -0.018541865 -0.030647464 0.03524067 0.019172056
000330 8d 66 5d bd c8 37 13 bd a1 88 63 3d 71 6f ea bd
       -0.05405288 -0.03594187 0.05555022 -0.11447037
000340 ff a9 76 bd 32 be 23 3c 9e 90 9a 3c 95 fd ac bc
       -0.060220715 0.009994077 0.018867787 -0.021117011
000350 ab d4 87 3b 2c f6 92 bc 6e f1 b5 bc cb e3 63 ba
       0.004145225 -0.01793965 -0.02220985 -0.00086933066
000360 57 70 42 3d ab d2 84 bd 78 5a 02 3d 56 f2 e1 3a
       0.047470417 -0.06485494 0.03182456 0.001723836
000370 04 b7 99 3d aa 43 a8 3c 14 1c 74 bc 31 f0 77 3c
       0.075056106 0.020540077 -0.0148992725 0.01513295
000380 f7 ae ff bc b1 e5 5a bc 6b 14 41 3d 8b e3 a3 3b
       -0.03121136 -0.013360427 0.047138613 0.0050014905
000390 7e 98 bb bc b2 07 29 3b f6 75 1c 3d b7 2f 86 3d
       -0.022899862 0.002579194 0.038198434 0.0655207
0003a0 9e 37 92 bd f6 da 0b bd b1 d4 49 bd fb df c2 bd
       -0.071395144 -0.034144364 -0.049275104 -0.09515377
0003b0 68 ea 6a bc 45 c5 c7 bd 07 81 43 bc fb 65 c7 bd
       -0.014338113 -0.09754423 -0.011932618 -0.09736248
0003c0 93 f4 6f ba da 04 5f 3b 42 ea 46 3d 8d 3f 0b 3d
       -0.0009153571 0.0034029991 0.04856325 0.033996154
0003d0 76 dd 66 bc 0a df c8 bc f4 11 f2 bb b9 ed a2 3c
       -0.014090886 -0.024520416 -0.007387394 0.019888746
0003e0 80 1d 0f 3d 0d dc a3 bc 36 cf 0d 3c a1 4e 7b bc
       0.034940243 -0.02000239 0.00865536 -0.015338571
0003f0 0e c5 dd 3c 4e e4 ad bd 1c 3d 37 bd 7e 98 c3 3c
       0.027071502 -0.08490811 -0.044736013 0.023876425

res1.0.conv1.pointwise.weight f4 [128, 128, 1, 1]
000000 7e 5b 57 3e 7d c6 17 be f0 06 20 be 04 6d 41 3d
       0.21030995 -0.14821811 -0.15627646 0.047223106
000010 0f 61 04 3e 64 22 b6 bd f9 a8 2d be ec cd 1e bd
       0.1292765 -0.08893278 -0.16958989 -0.0387706
000020 14 a6 80 3c c8 af 82 bb ab 7b 50 3e 4e bf 67 bc
       0.015704192 -0.00398824 0.20359676 -0.014144732
000030 14 05 04 3d 4c bd da bd 99 00 6e bd 5d 5f 37 be
       0.032231405 -0.10680637 -0.05810604 -0.17907472
000040 05 6e 11 bc 2a f9 4a bd e4 8b 0c 3e ba bf 90 bd
       -0.008876328 -0.049554028 0.13725239 -0.07067819
000050 aa 68 64 be bc 13 8b bc 78 05 07 3d 56 f3 69 be
       -0.22305551 -0.016977184 0.0329642 -0.22846732
000060 15 f7 3c bd b7 63 b9 bd 41 b6 97 bd 5e 9f a8 3d
       -0.046134073 -0.09052222 -0.07407809 0.08233522
000070 38 b4 5c bd 0c c3 6e 3e d5 ab 24 3d f9 2b c5 bd
       -0.053882807 0.23316592 0.040202934 -0.09627528
000080 06 17 13 bd 64 b9 aa 3d 8d b7 fe bd 30 10 85 bd
       -0.03591063 0.08336142 -0.12437353 -0.06497228
000090 40 51 3a be fe f3 86 3d 0f 80 b6 3d 11 16 c7 bd
       -0.18195057 0.065895066 0.08911144 -0.09721006
0000a0 30 e8 50 3e 9b a1 94 3e db d9 82 3d fc 15 0e bc
       0.20401073 0.29029545 0.06389209 -0.008672234
0000b0 38 e9 7d bc 92 a0 96 3d 71 10 2a be 8b a7 8d 3d
       -0.015497498 0.07354845 -0.16607834 0.06916722
0000c0 9c 85 3d bd 28 bf 37 3d 51 9e 5f 3d 74 f6 00 3d
       -0.046269998 0.044860035 0.05459434 0.031485036
0000d0 60 61 03 3d 0e d9 ed bd 1d f1 b4 bd f6 89 08 bd
       0.032075286 -0.116136655 -0.08835051 -0.033334695
0000e0 79 d6 2d 3b 0f 36 f2 3d 7e 3a 06 be dd 16 98 3d
       0.002652554 0.11826717 -0.1310825 0.07426236
0000f0 37 92 52 be af f9 c7 bd da 99 16 3e a8 e4 e1 bd
       -0.20563589 -0.0976442 0.14707127 -0.11029941
000100 81 73 0b 3e f8 5e f5 bc ec ee 37 3e 4d 9d db bd
       0.1361828 -0.029952511 0.17962235 -0.10723362
000110 c7 f9 4c 3e 61 3e 2a 3d cc 50 d5 3d 64 74 cd bd
       0.20017157 0.041563395 0.104158014 -0.100319654
000120 4e 4d 33 3e 10 8a d9 bd a3 b6 89 be 6e 8c 1b bd
       0.17509958 -0.106220365 -0.26897153 -0.03797572
000130 ff 5d 9c 3d 0b 0f b3 be aa 16 4f 3d 56 c7 d5 3d
       0.07635116 -0.34972414 0.050558724 0.10438411
000140 d9 22 b8 3d 68 a8 43 bd b3 b5 5d be d2 c5 a3 bd
       0.08991022 -0.047768027 -0.21651344 -0.079967156
000150 b7 85 31 3e 07 11 04 be e9 cc 1c 3d 68 71 b6 bd
       0.17336164 -0.1289712 0.038281355 -0.08908349
000160 e2 05 e1 3c 5a 1c ba 3c 38 92 ee bc 9b 70 b0 3c
       0.027468625 0.022718597 -0.029122457 0.02153807
000170 66 66 f8 bd 09 97 63 bd 1d ac 0e be 18 4d c2 3d
       -0.12128906 -0.05556396 -0.13932844 0.09487361
000180 f2 85 13 3e 89 e8 26 bd ab d6 15 3e 52 78 0d be
       0.14406565 -0.040749107 0.1463267 -0.1381543
000190 23 97 1c 3e 11 62 0a 3d 9b b2 11 be b0 ac 5f bd
       0.15292029 0.03378493 -0.14228289 -0.054608047
0001a0 81 2f c6 3d 13 2e 64 bd 0e 0b 3a bc f0 ea 15 3d
       0.096770294 -0.055708002 -0.011355175 0.036601007
0001b0 49 a0 53 3c 3b c2 f8 bc 43 c0 d8 bd 29 68 0f 3e
       0.012916633 -0.030366054 -0.10583546 0.14004578
0001c0 f6 46 d7 3c db cc 2f bc fa a9 06 be 5a d1 dd bd
       0.026278954 -0.010729994 -0.13150778 -0.10830946
0001d0 96 14 ff 3d ea 10 92 be 5f 4b aa bd 13 9c 72 3b
       0.12455098 -0.2852853 -0.08315157 0.0037019297
0001e0 e1 1f bd bd d9 76 74 be 0a ca ed bc 1f e2 10 3e
       -0.09234596 -0.23873462 -0.029027004 0.14148758
0001f0 71 05 58 be f5 c3 85 bd 22 f3 02 3e 93 b3 8f 3d
       -0.21095826 -0.065315165 0.1278806 0.07016673
000200 42 19 8c bc 49 54 de 3d 7c 0b c4 bc 72 6d 26 bd
       -0.017101888 0.1085592 -0.023931257 -0.04063172
000210 4f 39 f2 3d 2e ce d0 bd 4d fc 2f 3d d3 4c 7f 3d
       0.11827337 -0.10195576 0.042965222 0.062329125
000220 12 60 5a be 45 fb 3e 3d 19 af 07 3d c2 2d 54 3d
       -0.2132571 0.046626348 0.03312597 0.05180145
000230 78 e5 cc 3d 87 68 bd bd 49 db c5 bc 2b 89 12 3d
       0.10004705 -0.09248453 -0.024152415 0.035775345
000240 a8 6c 01 be fa 92 27 be 5e 92 44 bd 68 9b 1a 3e
       -0.12639105 -0.16364661 -0.04799115 0.15098345
000250 d3 83 c2 3d c1 6d 34 bc 73 fa 26 3e 7a a3 23 3c
       0.094978 -0.0110124955 0.16306476 0.009987706
000260 5f 69 b8 3d a8 a0 e4 bd a5 53 82 3e 0e d3 f9 bc
       0.09004473 -0.11163455 0.2545444 -0.030496147
000270 1c 13 96 bd 23 15 b1 3c 0b 9d 11 be 84 62 e1 bd
       -0.073278636 0.021616524 -0.14220063 -0.110051185
000280 a1 e3 3f 3d 4d a8 93 be 84 b4 70 3d 8c 61 5c bc
       0.046847943 -0.2883934 0.058765903 -0.013450991
000290 1f 54 d2 bd af d4 97 3d 95 f5 0a 3e 70 52 23 3e
       -0.10269951 0.07413613 0.13570245 0.15949416
0002a0 33 f0 4b be ec 82 86 3d 64 83 9e bd cd 4c 39 bc
       -0.19915847 0.0656794 -0.077399045 -0.011309815
0002b0 a2 c2 88 bd 92 28 08 bc f9 15 ef bd dd 04 9c bd
       -0.06677748 -0.008310454 -0.11674113 -0.07618115
0002c0 37 45 43 3d f9 ec 9f bc 85 54 01 3d 19 cc 5b be
       0.04767343 -0.019522177 0.031574745 -0.21464576
0002d0 d2 45 9d 3c b1 8c 69 3d 5d d9 53 be 49 2d 20 3e
       0.019198332 0.05701894 -0.20688386 0.15642275
0002e0 49 1e 51 3e c4 a8 71 3c 22 85 df 3c 88 40 36 3e
       0.20421709 0.0147497095 0.027285162 0.17798054
0002f0 15 5a 8e bd 20 cf 9f 3e ef 69 47 3c 79 4f f9 3d
       -0.069507755 0.3121271 0.012171253 0.12173361
000300 9b 57 0e 3e 42 6e af 3d f5 1e 06 3e 50 9e 2b be
       0.13900606 0.08565952 0.13097747 -0.1675961
000310 37 da 82 bd 5d a1 6e 3c 83 03 9d bd 19 0c 64 3c
       -0.063892774 0.014564839 -0.076666854 0.0139189
000320 6d 75 ff bd e3 a0 0f be 3a 91 c3 3d 4b b5 c5 3d
       -0.12473569 -0.14026217 0.09549184 0.096537195
000330 e0 48 c7 3d 6a 06 af 3c 8c c4 96 bd 77 bd ec 3d
       0.09730697 0.021365363 -0.07361707 0.11559575
000340 41 84 0f bd d9 ed 23 3e 05 a5 b6 bd 8e c6 22 3e
       -0.035038237 0.160087 -0.08918194 0.15896055
000350 c9 a0 40 be d5 ff 98 be de a2 13 be 5e 6a eb bb
       -0.18811335 -0.29882684 -0.14417598 -0.007184311
000360 13 c7 10 3e 26 b9 84 3d 5e f6 b0 3c ab c2 86 3c
       0.14138441 0.06480627 0.021601852 0.016450247
000370 f0 84 1d 3e dd 86 2b 3e 21 12 d3 bd 9c 31 e2 3d
       0.15382743 0.16750665 -0.10306192 0.110446185
000380 32 3a d3 bb de 49 14 3d 76 76 0a be f9 70 cd bd
       -0.0064461464 0.036203258 -0.13521752 -0.100313134
000390 1b a2 a1 3d 85 4d 89 bd 7a 64 b8 3d 21 13 44 3d
       0.07892247 -0.06704239 0.090035394 0.047869805
0003a0 73 51 99 3d 75 87 64 3d a5 14 da bd 2f 76 71 3d
       0.07486238 0.055793244 -0.10648469 0.0589506
0003b0 ef c6 0e 3e 5a b5 25 be 24 9f 8f be f9 53 6e 3d
       0.13943075 -0.16182461 -0.28051102 0.05818555
0003c0 14 da 85 bc 53 f3 08 be e2 46 d9 3c 39 be 7a bd
       -0.01633934 -0.13374071 0.026523057 -0.061216567
0003d0 59 f3 66 3d f7 86 54 be 6f c5 ae bd 4b aa 88 bc
       0.05638442 -0.2075461 -0.08533751 -0.016682765
0003e0 3b c2 a8 3d ce b9 f2 bc fd 7e b7 bd 15 57 99 bd
       0.082401715 -0.029629614 -0.08959768 -0.07487313
0003f0 0c 8a 16 3d 43 7d a1 bc 82 3a 78 3d 1e ab 17 be
       0.036752746 -0.01971305 0.060602672 -0.1481137

res1.0.conv1.pointwise.bias f4 [128]
000000 00 00 00 00 00 00 00 00 00 00 00 00 00 00 00 00
       0.0 0.0 0.0 0.0
000010 00 00 00 00 00 00 00 00 00 00 00 00 00 00 00 00
       0.0 0.0 0.0 0.0
000020 00 00 00 00 00 00 00 00 00 00 00 00 00 00 00 00
       0.0 0.0 0.0 0.0
000030 00 00 00 00 00 00 00 00 00 00 00 00 00 00 00 00
       0.0 0.0 0.0 0.0
000040 00 00 00 00 00 00 00 00 00 00 00 00 00 00 00 00
       0.0 0.0 0.0 0.0
000050 00 00 00 00 00 00 00 00 00 00 00 00 00 00 00 00
       0.0 0.0 0.0 0.0
000060 00 00 00 00 00 00 00 00 00 00 00 00 00 00 00 00
       0.0 0.0 0.0 0.0
000070 00 00 00 00 00 00 00 00 00 00 00 00 00 00 00 00
       0.0 0.0 0.0 0.0
000080 00 00 00 00 00 00 00 00 00 00 00 00 00 00 00 00
       0.0 0.0 0.0 0.0
000090 00 00 00 00 00 00 00 00 00 00 00 00 00 00 00 00
       0.0 0.0 0.0 0.0
0000a0 00 00 00 00 00 00 00 00 00 00 00 00 00 00 00 00
       0.0 0.0 0.0 0.0
0000b0 00 00 00 00 00 00 00 00 00 00 00 00 00 00 00 00
       0.0 0.0 0.0 0.0
0000c0 00 00 00 00 00 00 00 00 00 00 00 00 00 00 00 00
       0.0 0.0 0.0 0.0
0000d0 00 00 00 00 00 00 00 00 00 00 00 00 00 00 00 00
       0.0 0.0 0.0 0.0
0000e0 00 00 00 00 00 00 00 00 00 00 00 00 00 00 00 00
       0.0 0.0 0.0 0.0
0000f0 00 00 00 00 00 00 00 00 00 00 00 00 00 00 00 00
       0.0 0.0 0.0 0.0
000100 00 00 00 00 00 00 00 00 00 00 00 00 00 00 00 00
       0.0 0.0 0.0 0.0
000110 00 00 00 00 00 00 00 00 00 00 00 00 00 00 00 00
       0.0 0.0 0.0 0.0
000120 00 00 00 00 00 00 00 00 00 00 00 00 00 00 00 00
       0.0 0.0 0.0 0.0
000130 00 00 00 00 00 00 00 00 00 00 00 00 00 00 00 00
       0.0 0.0 0.0 0.0
000140 00 00 00 00 00 00 00 00 00 00 00 00 00 00 00 00
       0.0 0.0 0.0 0.0
000150 00 00 00 00 00 00 00 00 00 00 00 00 00 00 00 00
       0.0 0.0 0.0 0.0
000160 00 00 00 00 00 00 00 00 00 00 00 00 00 00 00 00
       0.0 0.0 0.0 0.0
000170 00 00 00 00 00 00 00 00 00 00 00 00 00 00 00 00
       0.0 0.0 0.0 0.0
000180 00 00 00 00 00 00 00 00 00 00 00 00 00 00 00 00
       0.0 0.0 0.0 0.0
000190 00 00 00 00 00 00 00 00 00 00 00 00 00 00 00 00
       0.0 0.0 0.0 0.0
0001a0 00 00 00 00 00 00 00 00 00 00 00 00 00 00 00 00
       0.0 0.0 0.0 0.0
0001b0 00 00 00 00 00 00 00 00 00 00 00 00 00 00 00 00
       0.0 0.0 0.0 0.0
0001c0 00 00 00 00 00 00 00 00 00 00 00 00 00 00 00 00
       0.0 0.0 0.0 0.0
0001d0 00 00 00 00 00 00 00 00 00 00 00 00 00 00 00 00
       0.0 0.0 0.0 0.0
0001e0 00 00 00 00 00 00 00 00 00 00 00 00 00 00 00 00
       0.0 0.0 0.0 0.0
0001f0 00 00 00 00 00 00 00 00 00 00 00 00 00 00 00 00
       0.0 0.0 0.0 0.0

res1.0.bn1.weight f4 [128]
000000 00 00 00 00 00 00 00 00 00 00 00 00 00 00 00 00
       0.0 0.0 0.0 0.0
000010 00 00 00 00 00 00 00 00 00 00 00 00 00 00 00 00
       0.0 0.0 0.0 0.0
000020 00 00 00 00 00 00 00 00 00 00 00 00 00 00 00 00
       0.0 0.0 0.0 0.0
000030 00 00 00 00 00 00 00 00 00 00 00 00 00 00 00 00
       0.0 0.0 0.0 0.0
000040 00 00 00 00 00 00 00 00 00 00 00 00 00 00 00 00
       0.0 0.0 0.0 0.0
000050 00 00 00 00 00 00 00 00 00 00 00 00 00 00 00 00
       0.0 0.0 0.0 0.0
000060 00 00 00 00 00 00 00 00 00 00 00 00 00 00 00 00
       0.0 0.0 0.0 0.0
000070 00 00 00 00 00 00 00 00 00 00 00 00 00 00 00 00
       0.0 0.0 0.0 0.0
000080 00 00 00 00 00 00 00 00 00 00 00 00 00 00 00 00
       0.0 0.0 0.0 0.0
000090 00 00 00 00 00 00 00 00 00 00 00 00 00 00 00 00
       0.0 0.0 0.0 0.0
0000a0 00 00 00 00 00 00 00 00 00 00 00 00 00 00 00 00
       0.0 0.0 0.0 0.0
0000b0 00 00 00 00 00 00 00 00 00 00 00 00 00 00 00 00
       0.0 0.0 0.0 0.0
0000c0 00 00 00 00 00 00 00 00 00 00 00 00 00 00 00 00
       0.0 0.0 0.0 0.0
0000d0 00 00 00 00 00 00 00 00 00 00 00 00 00 00 00 00
       0.0 0.0 0.0 0.0
0000e0 00 00 00 00 00 00 00 00 00 00 00 00 00 00 00 00
       0.0 0.0 0.0 0.0
0000f0 00 00 00 00 00 00 00 00 00 00 00 00 00 00 00 00
       0.0 0.0 0.0 0.0
000100 00 00 00 00 00 00 00 00 00 00 00 00 00 00 00 00
       0.0 0.0 0.0 0.0
000110 00 00 00 00 00 00 00 00 00 00 00 00 00 00 00 00
       0.0 0.0 0.0 0.0
000120 00 00 00 00 00 00 00 00 00 00 00 00 00 00 00 00
       0.0 0.0 0.0 0.0
000130 00 00 00 00 00 00 00 00 00 00 00 00 00 00 00 00
       0.0 0.0 0.0 0.0
000140 00 00 00 00 00 00 00 00 00 00 00 00 00 00 00 00
       0.0 0.0 0.0 0.0
000150 00 00 00 00 00 00 00 00 00 00 00 00 00 00 00 00
       0.0 0.0 0.0 0.0
000160 00 00 00 00 00 00 00 00 00 00 00 00 00 00 00 00
       0.0 0.0 0.0 0.0
000170 00 00 00 00 00 00 00 00 00 00 00 00 00 00 00 00
       0.0 0.0 0.0 0.0
000180 00 00 00 00 00 00 00 00 00 00 00 00 00 00 00 00
       0.0 0.0 0.0 0.0
000190 00 00 00 00 00 00 00 00 00 00 00 00 00 00 00 00
       0.0 0.0 0.0 0.0
0001a0 00 00 00 00 00 00 00 00 00 00 00 00 00 00 00 00
       0.0 0.0 0.0 0.0
0001b0 00 00 00 00 00 00 00 00 00 00 00 00 00 00 00 00
       0.0 0.0 0.0 0.0
0001c0 00 00 00 00 00 00 00 00 00 00 00 00 00 00 00 00
       0.0 0.0 0.0 0.0
0001d0 00 00 00 00 00 00 00 00 00 00 00 00 00 00 00 00
       0.0 0.0 0.0 0.0
0001e0 00 00 00 00 00 00 00 00 00 00 00 00 00 00 00 00
       0.0 0.0 0.0 0.0
0001f0 00 00 00 00 00 00 00 00 00 00 00 00 00 00 00 00
       0.0 0.0 0.0 0.0

res1.0.bn1.bias f4 [128]
000000 00 00 00 00 00 00 00 00 00 00 00 00 00 00 00 00
       0.0 0.0 0.0 0.0
000010 00 00 00 00 00 00 00 00 00 00 00 00 00 00 00 00
       0.0 0.0 0.0 0.0
000020 00 00 00 00 00 00 00 00 00 00 00 00 00 00 00 00
       0.0 0.0 0.0 0.0
000030 00 00 00 00 00 00 00 00 00 00 00 00 00 00 00 00
       0.0 0.0 0.0 0.0
000040 00 00 00 00 00 00 00 00 00 00 00 00 00 00 00 00
       0.0 0.0 0.0 0.0
000050 00 00 00 00 00 00 00 00 00 00 00 00 00 00 00 00
       0.0 0.0 0.0 0.0
000060 00 00 00 00 00 00 00 00 00 00 00 00 00 00 00 00
       0.0 0.0 0.0 0.0
000070 00 00 00 00 00 00 00 00 00 00 00 00 00 00 00 00
       0.0 0.0 0.0 0.0
000080 00 00 00 00 00 00 00 00 00 00 00 00 00 00 00 00
       0.0 0.0 0.0 0.0
000090 00 00 00 00 00 00 00 00 00 00 00 00 00 00 00 00
       0.0 0.0 0.0 0.0
0000a0 00 00 00 00 00 00 00 00 00 00 00 00 00 00 00 00
       0.0 0.0 0.0 0.0
0000b0 00 00 00 00 00 00 00 00 00 00 00 00 00 00 00 00
       0.0 0.0 0.0 0.0
0000c0 00 00 00 00 00 00 00 00 00 00 00 00 00 00 00 00
       0.0 0.0 0.0 0.0
0000d0 00 00 00 00 00 00 00 00 00 00 00 00 00 00 00 00
       0.0 0.0 0.0 0.0
0000e0 00 00 00 00 00 00 00 00 00 00 00 00 00 00 00 00
       0.0 0.0 0.0 0.0
0000f0 00 00 00 00 00 00 00 00 00 00 00 00 00 00 00 00
       0.0 0.0 0.0 0.0
000100 00 00 00 00 00 00 00 00 00 00 00 00 00 00 00 00
       0.0 0.0 0.0 0.0
000110 00 00 00 00 00 00 00 00 00 00 00 00 00 00 00 00
       0.0 0.0 0.0 0.0
000120 00 00 00 00 00 00 00 00 00 00 00 00 00 00 00 00
       0.0 0.0 0.0 0.0
000130 00 00 00 00 00 00 00 00 00 00 00 00 00 00 00 00
       0.0 0.0 0.0 0.0
000140 00 00 00 00 00 00 00 00 00 00 00 00 00 00 00 00
       0.0 0.0 0.0 0.0
000150 00 00 00 00 00 00 00 00 00 00 00 00 00 00 00 00
       0.0 0.0 0.0 0.0
000160 00 00 00 00 00 00 00 00 00 00 00 00 00 00 00 00
       0.0 0.0 0.0 0.0
000170 00 00 00 00 00 00 00 00 00 00 00 00 00 00 00 00
       0.0 0.0 0.0 0.0
000180 00 00 00 00 00 00 00 00 00 00 00 00 00 00 00 00
       0.0 0.0 0.0 0.0
000190 00 00 00 00 00 00 00 00 00 00 00 00 00 00 00 00
       0.0 0.0 0.0 0.0
0001a0 00 00 00 00 00 00 00 00 00 00 00 00 00 00 00 00
       0.0 0.0 0.0 0.0
0001b0 00 00 00 00 00 00 00 00 00 00 00 00 00 00 00 00
       0.0 0.0 0.0 0.0
0001c0 00 00 00 00 00 00 00 00 00 00 00 00 00 00 00 00
       0.0 0.0 0.0 0.0
0001d0 00 00 00 00 00 00 00 00 00 00 00 00 00 00 00 00
       0.0 0.0 0.0 0.0
0001e0 00 00 00 00 00 00 00 00 00 00 00 00 00 00 00 00
       0.0 0.0 0.0 0.0
0001f0 00 00 00 00 00 00 00 00 00 00 00 00 00 00 00 00
       0.0 0.0 0.0 0.0
