MonocularDepthEstimation/savedmodels/Masks/128-3epochs/checkpoint-2.pt (torch_old, 510269 bytes, 74 tensors)

prep.DepthwiseConv2d.depthwise.weight f4 [3, 1, 3, 3]
000000 de b5 b4 3e c6 45 a6 3d 1f c1 b9 be c4 1a 15 c0
       0.35295004 0.08118777 -0.36280152 -2.3297586
000010 ae dd 0a 3e 48 0e 0f 40 39 7e 32 c0 86 b6 b9 3d
       0.13561127 2.2352467 -2.788954 0.09068017
000020 d4 32 20 40 fa 33 da 3e dc b7 3e bd cd 0e 94 be
       2.5031023 0.4261778 -0.04656206 -0.28917542
000030 ba cb 14 c0 ab 43 cb 3d ff 1e 11 40 11 9a 25 c0
       -2.3249345 0.09925016 2.2675169 -2.5875285
000040 c3 af aa 3e dc 8f 01 40 1c 88 d7 3e f6 87 77 3d
       0.3333722 2.0244055 0.4209603 0.060432397
000050 da 8c b1 be d4 16 1c c0 7f d2 a4 be 35 47 3d 40
       -0.34677774 -2.4388933 -0.32191846 2.9574711
000060 f3 6f 54 c0 c6 2c 53 3f 18 aa f5 3f
       -3.3193328 0.82490194 1.9192533

prep.DepthwiseConv2d.pointwise.weight f4 [64, 3, 1, 1]
000000 b5 63 08 bf 2f 40 0b bf 14 33 c6 be ab 8d fc be
       -0.5327714 -0.5439481 -0.38710845 -0.49326834
000010 d8 10 79 be 85 1b ab be c3 d6 f0 be 29 31 8b be
       -0.24322832 -0.33419433 -0.4703885 -0.27185944
000020 f4 1a 2a 3d 06 f1 62 3e 8e 1c 6f 3e 7f 03 13 3f
       0.04152961 0.22162256 0.23350736 0.5742721
000030 9a dc 69 3f 9a ff 93 bf 62 77 1b bf 41 26 a4 3e
       0.91352236 -1.1562378 -0.6072904 0.32060435
000040 14 2a 3d 3c d9 a4 54 3f 2e 95 51 be 06 90 41 be
       0.011545677 0.8306404 -0.20467064 -0.18902597
000050 d9 98 d7 3e 58 93 68 bd 43 4d 2b 3d 12 52 31 bd
       0.421088 -0.056781143 0.04182173 -0.04329116
000060 32 d9 c3 3e 2b 27 e0 be 61 9f 4e 3e 07 69 97 3e
       0.38251644 -0.43779883 0.20177986 0.29572317
000070 4c ca 22 3e a2 e4 b7 3c 1c c8 81 3e aa 3c c8 3d
       0.15897483 0.022447888 0.25347984 0.09777196
000080 e6 29 79 be 8c 93 2d 3f c2 89 00 3f 3b 5e ef bd
       -0.24332389 0.67803264 0.502102 -0.11687895
000090 94 1b b2 3e 76 d6 9f 3e 49 8c f1 3e 3e 37 0c bf
       0.34786665 0.31218308 0.47177342 -0.5477179
0000a0 d3 a4 9c 3e 68 8b 7c 3f d1 69 9a 3d 0c fb 6f 3c
       0.305945 0.9865022 0.07539714 0.014647257
0000b0 c1 01 3d 3f 80 53 cf bd 05 b7 ce 3e 84 fb 80 be
       0.738308 -0.10123348 0.40374008 -0.2519189
0000c0 0a ae 39 bf f1 2b 70 3f c5 cf 99 be 96 e2 c7 3a
       -0.7253119 0.9381705 -0.30041328 0.0015250023
0000d0 ad 01 5a 3e 31 d7 6c 3d 07 46 27 3f 04 58 8a 3e
       0.21289702 0.05782241 0.6534123 0.27020276
0000e0 3f 11 a9 bf 01 3a 76 bf 9a 54 81 3f bc ec 70 3e
       -1.3208388 -0.96182257 1.0103943 0.23527807
0000f0 23 01 1a 3f a0 c2 41 bf fe bb 1b 3f b4 d8 68 be
       0.60157984 -0.756876 0.6083373 -0.22738916
000100 73 bb bb 3e 27 41 33 be 5c 9c 11 bf 18 4d b3 be
       0.3666645 -0.17505322 -0.5687921 -0.35019755
000110 2b 72 2c bf 8e f0 95 be ee 8a b6 be a7 11 df bd
       -0.67361706 -0.2928509 -0.3565287 -0.10892039
000120 20 83 c6 3e 9b fb a6 3d 89 32 ec 3d db 8a 90 3f
       0.38771915 0.08153459 0.11533076 1.1292375
000130 27 a5 c3 bf da 31 a9 3e 8a 2b 36 3e 38 03 80 3e
       -1.5284775 0.33045846 0.17790046 0.25002456
000140 65 34 91 3e 34 97 75 be fa 0f 05 3f 15 13 9b 3e
       0.28360286 -0.2398346 0.51977503 0.30287996
000150 f3 cd 91 be 84 6b ac be 47 db a2 be 0f f4 74 bc
       -0.2847744 -0.33675778 -0.3180792 -0.014950766
000160 26 52 bd bd 7a 73 ae 3e 13 02 b4 3c a3 d6 3e be
       -0.09244184 0.34072477 0.021973645 -0.18636565
000170 1c 76 f7 bd f1 68 b7 3e 8f e6 84 be 42 32 9b be
       -0.120830745 0.3582225 -0.25957152 -0.3031178
000180 8a aa c6 3d 7e 04 79 bf 0a 8d 41 be 81 30 8e bf
       0.097004965 -0.9727248 -0.18901458 -1.1108552
000190 e2 3a 5f bf a7 66 8d 3e 0d 34 37 be 00 45 c3 3d
       -0.87199223 0.2761738 -0.1789095 0.09534645
0001a0 00 35 8e 3f 72 bd 8b be c5 7c 37 be 3e 55 f6 be
       1.1109924 -0.27292973 -0.1791869 -0.4811191
0001b0 72 1e 0d 3e 07 03 4c bd 03 5b a3 bf ae 16 97 3e
       0.13781145 -0.049807575 -1.276215 0.2950949
0001c0 82 32 b2 bd 86 72 da bd 58 df 08 3e d9 c0 9f 3f
       -0.0870104 -0.10666375 0.13366449 1.2480727
0001d0 aa ae 10 bf 64 13 3d 3f f3 0d 69 3f 2c 91 a9 bf
       -0.56516516 0.7385771 0.9103691 -1.3247428
0001e0 2c 3d 28 be 2f ad e8 be aa dc 93 be 6c 8f fe 3d
       -0.16429585 -0.4544463 -0.2887929 0.12429699
0001f0 94 29 6e bf c4 58 27 3f ba ef 0c bf bd 83 38 be
       -0.93032193 0.6536982 -0.55053294 -0.18019004
000200 f3 8c ca be fc 78 78 3f ec 09 46 3d c7 8c 6e bf
       -0.3956066 0.9705961 0.048349306 -0.9318356
000210 07 f5 bd bf e8 a1 bd 3d d6 73 ae 3f f7 41 a8 3d
       -1.4840401 0.09259397 1.36291 0.08215707
000220 8d 1b 83 3e 93 1f 6c 3e c6 99 8a be 90 74 5a 3e
       0.25606957 0.2305892 -0.27070445 0.21333528
000230 a1 cc 99 3d 42 42 50 3f a0 a1 0b 3f af 8d 5d 3e
       0.07509733 0.813511 0.54543495 0.21636079
000240 f9 51 a9 be 92 7e 8f be 69 e7 26 3e 40 37 44 3d
       -0.33070353 -0.28026253 0.16299213 0.047904253
000250 f5 0d a4 be 8e 03 2e bf c6 61 83 3d 89 1c 71 be
       -0.32041898 -0.67974174 0.06415133 -0.23546042
000260 a7 ea 3a 3d 96 cb 08 3f 59 47 00 3f db 87 d9 3e
       0.04563394 0.5343565 0.5010887 0.42486462
000270 ea 23 d0 3e 50 8e f3 3e 47 22 32 3f 4a 94 7b bf
       0.406524 0.47569513 0.69583553 -0.98273146
000280 2d 88 26 3f aa ab 0c bf 57 6e ad 3e d9 09 e6 3e
       0.6505154 -0.5494944 0.33873245 0.44929388
000290 22 bd b0 3e 02 ee 86 3e c6 ce cf be 04 9e 40 3c
       0.34519297 0.2635346 -0.40587443 0.011756424
0002a0 46 ef 0d 3f db 18 b4 3e d8 ca 66 be b0 d8 8b 3b
       0.5544323 0.35175213 -0.22538316 0.0042677745
0002b0 7d 31 0d 3e 07 d8 b4 3c da 56 09 3e 34 c6 2c be
       0.1378841 0.022075666 0.13412037 -0.16872483
0002c0 66 c7 3e 3e c0 9e b7 3e a1 43 14 3e cc 0d d6 3e
       0.18630752 0.35863304 0.14478923 0.418074
0002d0 d3 d9 97 be e9 cf 3d 3e f6 29 c7 3d 1e e2 5a 3f
       -0.29658374 0.18536343 0.097248 0.8550128
0002e0 73 53 ed 3e 74 52 f1 be f5 5b 1a 3f bf 58 15 3f
       0.4635273 -0.4713322 0.60296565 0.5833854
0002f0 0d 12 44 3f 61 56 0a bf 05 06 2d bf f6 0d 43 3f
       0.76590043 -0.54038054 -0.6758731 0.7619318

prep.DepthwiseConv2d.pointwise.bias f4 [64]
000000 c7 e9 07 3c f4 ff 91 3e 11 1f 00 3f 89 32 04 3f
       0.008295483 0.2851559 0.50047404 0.5163961
000010 6c 6b a7 bd 3f ab ec ba 21 fc 91 bd 3e 30 0b bd
       -0.08174786 -0.0018056406 -0.07128168 -0.033981554
000020 a1 c6 73 bc b6 b7 88 3b dc 75 f7 3c d1 f8 da 3d
       -0.0148789 0.0041722907 0.030207567 0.10691989
000030 8d 3c 9e bd 94 58 ad 3c f9 a0 ae 3e 20 c2 5d 3a
       -0.07726393 0.021160401 0.34107187 0.0008459408
000040 8b 45 f4 bc c1 dd da bd 8f ae a1 be 17 05 58 3d
       -0.029818317 -0.106868275 -0.3157849 0.05273923
000050 95 d9 0c 3d b7 7a 16 bd 58 21 83 bb a9 43 93 3d
       0.03438719 -0.036738124 -0.0040017776 0.071906395
000060 48 bc 2f 3c f8 ea 95 3c 60 9a 36 3f 6b 8b a6 3d
       0.010726042 0.018300518 0.7132931 0.081320606
000070 25 13 b1 bc 0d 62 96 3d ee 73 50 bd 37 6f a4 bd
       -0.021615574 0.073429205 -0.05089181 -0.08029025
000080 5d 33 55 bd 39 aa 71 bd 87 44 1e 3d 81 d2 22 bf
       -0.052050937 -0.059000228 0.03863957 -0.63602453
000090 61 0f c9 be ed 62 c9 bd 0f 45 a4 bc 34 cd b1 bd
       -0.39269546 -0.09833322 -0.020052461 -0.086817175
0000a0 56 36 ac bc 99 a2 00 3d 7a 9e 59 3d 1e cc 23 bd
       -0.021022003 0.031405065 0.05312965 -0.039989583
0000b0 04 4f ed 3d c1 3a d8 3d 39 d2 a5 3c a6 a7 5b 3d
       0.11587337 0.105580814 0.020241844 0.05362668
0000c0 cb 9b 90 3e 29 54 20 be 7b d2 14 3c e5 b9 bd 3d
       0.2824386 -0.15657105 0.009083386 0.09263972
0000d0 c4 06 18 3e 88 8a 71 bd bb 20 68 bc cb db e5 3d
       0.14846331 -0.058970004 -0.01416796 0.11223563
0000e0 62 ec 9e 3e b0 5f 52 bd ea 3c 2c 3e 85 34 31 3e
       0.3103972 -0.051360786 0.16820112 0.17305191
0000f0 ba 37 1d bd 9f af 2a bd 99 2f 3c 3e a8 38 3e 3d
       -0.038383223 -0.04167139 0.18377532 0.04644075

cb1.DepthwiseConv2d.depthwise.weight f4 [64, 1, 3, 3]
000000 b3 8c 54 be 76 91 82 be 3f be fd 3e 85 94 54 be
       -0.20756797 -0.25501603 0.4955921 -0.2075978
000010 cf 54 fe be c3 94 bf bc 6b 5b 8d bd b2 c7 96 bd
       -0.4967408 -0.023386365 -0.06902202 -0.073623076
000020 87 c0 86 3e 62 c5 69 3e 13 d6 9b bd 39 17 67 bd
       0.26318762 0.22829202 -0.07609191 -0.05641863
000030 a2 63 49 3e 1c 15 6a 3c 0a 71 cc 3d 9f d9 09 bf
       0.19666913 0.014287259 0.09982498 -0.5384769
000040 72 ee e8 bd bf 84 b3 3e fd 12 af be fd ae ae bd
       -0.11373605 0.35062215 -0.34194174 -0.0852947
000050 e1 d6 b2 bd 4e a3 2a 3c a6 bf ea 3d aa 96 c8 bd
       -0.08732391 0.010414911 0.11462335 -0.09794362
000060 29 0f 9b be de be 1d 3f ce b6 41 3e 42 dc 89 3e
       -0.30285004 0.61619365 0.1891739 0.26925856
000070 d2 f2 40 3d 2c 95 09 bf f4 8e 82 be 23 4e 75 3e
       0.04710657 -0.53743243 -0.2549969 0.23955588
000080 58 b7 46 bd 9b cc bc be d3 18 44 3e bf f5 ce 3e
       -0.048514694 -0.36874852 0.19150095 0.40421864
000090 1c 49 f2 be c1 92 56 bd 2b ad c6 be 9c 33 89 be
       -0.47321403 -0.05238605 -0.38803992 -0.26797187
0000a0 73 34 03 be eb 08 1d be 94 bd 1f be d2 09 0d be
       -0.12812977 -0.15335433 -0.15599662 -0.13773277
0000b0 70 23 c9 bc 94 cb 81 bd bc f1 69 3e 9e ab 00 3e
       -0.02455303 -0.063376576 0.2284612 0.12565467
0000c0 ac 7e 8c 3e 73 bc 70 3e 8f 89 91 be 97 49 a5 3e
       0.27440393 0.23509388 -0.2842526 0.32282707
0000d0 96 df 47 3e 59 7a a0 3e 69 6d 41 be d2 cb 18 be
       0.19518885 0.31343344 -0.18889393 -0.14921501
0000e0 d3 8c 35 bd 65 28 27 be be 20 c7 bd 6f 23 13 be
       -0.044323754 -0.16324003 -0.09723042 -0.14368986
0000f0 1c 58 67 be 7c ab 02 be 8a 3b 0d be 76 48 8c ba
       -0.22592205 -0.12760729 -0.13792244 -0.0010702747
000100 0a a7 ae 3c 58 b2 3f 3b 4a 1f ad 3c 33 c1 cd 3d
       0.021319885 0.0029250588 0.021133084 0.100466155
000110 61 07 dd 3d b3 fe 83 bc 6d 87 8a bd 80 53 2e bc
       0.10792423 -0.016112661 -0.06764112 -0.010640025
000120 0b ca 54 3e 9a 16 86 3e 0b 6d 85 3e 90 7b 11 3d
       0.20780198 0.2618912 0.26059756 0.03551823
000130 70 5b c7 3d 1e 04 4d 3e fd a5 54 bd 76 39 e0 bd
       0.09734237 0.20021102 -0.05191611 -0.1094846
000140 27 0d cc 3c e3 8f 83 bd c5 3d 8e bd e9 e3 7b bd
       0.024908615 -0.064239286 -0.06945375 -0.06149665
000150 62 e3 fa bc 43 f1 d4 bd 96 c3 ed bd b8 1a ea bd
       -0.030626003 -0.103975795 -0.11609571 -0.114308774
000160 5e 41 67 be c5 2a 96 3d e0 1c ba 3c c2 61 35 be
       -0.2258353 0.073323764 0.022718847 -0.17713073
000170 0f 33 5c be 73 b2 b8 bb 86 9c 97 3c 1d 51 19 be
       -0.21503852 -0.005636507 0.018507253 -0.14972349
000180 bc 4a 7e 3d de bb a3 bd 91 a1 dd bd f2 7c a7 bb
       0.06208299 -0.07994817 -0.10821832 -0.00511133
000190 7d 4f d9 3e eb 24 45 3e 4c 4e a9 3e 7b a1 ee 3e
       0.42443457 0.19252364 0.33067548 0.46607575
0001a0 dd 23 b2 bd cc 2f ee bd 4f 32 82 3c 8b 30 86 bd
       -0.08698247 -0.1163021 0.01589313 -0.065522276
0001b0 f8 0e f0 be 72 3a 89 be 72 71 7b 3e c0 9e 27 be
       -0.4688642 -0.26802403 0.24554995 -0.16369152
0001c0 81 fc 84 bc 69 26 0b be 53 1a a9 bc 0c 62 10 bc
       -0.016233684 -0.13588871 -0.020642435 -0.008812439
0001d0 0e f8 46 be 46 d4 10 bf d3 27 fe 3d de 54 03 3e
       -0.19430563 -0.56573904 0.124099396 0.12825343
0001e0 ea 4f a0 be 9f ce 53 3e d8 99 31 bd e0 5d 8a be
       -0.3131097 0.20684288 -0.043359607 -0.27024746
0001f0 f4 d7 e1 be 4e c2 b2 be 24 0f ab 3d 8a d0 b1 bd
       -0.44110072 -0.34913868 0.08352497 -0.08682354
000200 a7 7c 1d be 72 1b 3e 3d 20 24 36 be 64 4c c8 be
       -0.15379582 0.046412893 -0.17787218 -0.3912078
000210 f8 ac cc 3e 47 ca ba bd 45 9b 28 3f 19 33 b0 bd
       0.39975715 -0.091206126 0.6586192 -0.08603496
000220 46 ac 11 3d 55 e0 ad bc a2 87 c8 bd 26 4e 47 be
       0.035564683 -0.021225134 -0.09791495 -0.19463405
000230 02 1e 24 be 2e ed 31 be 73 07 81 be b8 24 cf bd
       -0.16027072 -0.17375633 -0.25200996 -0.101144254
000240 21 b4 31 3f c7 17 a0 bc 4e c2 11 bd 02 c3 0e 3f
       0.6941548 -0.019542588 -0.035585694 0.5576631
000250 3e b8 af 3d 12 eb 29 be 86 86 c5 3e 32 07 1a 3d
       0.08580063 -0.16593578 0.38579196 0.03760452
000260 2e 89 e0 bb ae 18 e4 bd 77 8f 73 3d 77 c9 65 3d
       -0.0068522906 -0.1113752 0.05946299 0.056100335
000270 84 3c e0 bd 58 5d 91 bd 43 15 13 3c 6d 90 bd bd
       -0.109490424 -0.07097882 0.008977237 -0.09256063
000280 dd fd 5f bc 71 05 30 3d a5 ef b7 be 89 ff 92 be
       -0.013671366 0.04297394 -0.35925022 -0.28710583
000290 62 28 eb be e6 fd a8 be ce f8 ce be bf 28 8e be
       -0.45929247 -0.3300621 -0.40424198 -0.27765462
0002a0 86 ff dc be 00 c6 3d bd 81 bf fb bd bc 90 6a be
       -0.431637 -0.046331406 -0.12292386 -0.22906774
0002b0 ed c0 27 be d1 79 ee be 48 fc 40 be 05 87 cd be
       -0.16382189 -0.46577314 -0.18846238 -0.40142074
0002c0 40 a2 97 be 58 95 0e be db 73 da 3c a7 bf 98 be
       -0.29615974 -0.13924158 0.026666572 -0.2983372
0002d0 ac 0b 90 3d 44 4c a8 3e 70 50 6e 3e 0f b5 c2 3d
       0.07033476 0.32870686 0.23272872 0.095071904
0002e0 b7 cc 49 bb 61 a9 8f 3e cc e2 56 3e 27 8a 18 3e
       -0.0030792186 0.28058913 0.20984954 0.14896451
0002f0 4b 99 4a 3e cf d3 e0 3d fe 1e f4 3d d0 1e 48 3e
       0.19785039 0.10977899 0.11919974 0.19543004
000300 c6 c3 94 3d 53 81 27 3d f0 ce 6c 3e ae fa 16 3d
       0.07263903 0.040894818 0.23125815 0.03686016
000310 7b ed 15 be 3a f5 46 3e e5 d0 d1 3c ee 25 31 3e
       -0.14641373 0.19429484 0.025612304 0.17299625
000320 57 5e e3 3e e7 d7 54 3e 73 3b b2 3e ff 86 77 3e
       0.44407913 0.20785485 0.3481098 0.2417259
000330 bd 55 73 be d2 70 85 be a1 db 07 bf 3f ed 12 3d
       -0.23763175 -0.26062638 -0.530695 0.035870787
000340 ba e4 56 3e fc 74 ad bd 6a d4 6f 3e fd 23 c3 3d
       0.2098569 -0.084695786 0.23420873 0.095283486
000350 b8 f8 68 3c 18 ea 9a be ea 2b 06 be a9 6a eb bc
       0.014219455 -0.30256724 -0.1310269 -0.028737383
000360 96 bf 95 bd bc 2c 88 bc ab fe 03 3e c0 b4 0f 3e
       -0.07311933 -0.016622894 0.12890117 0.14033794
000370 43 c4 78 be c4 45 e7 bd 38 57 35 3e e4 b9 d6 bd
       -0.24293618 -0.112926036 0.17709053 -0.104846746
000380 09 d3 e9 3a 5a 41 e9 be e0 a6 11 be 1e 35 e5 be
       0.0017839383 -0.45557672 -0.14223814 -0.44767088
000390 30 86 a8 be 35 c5 bf be e7 1a a4 be ef a1 67 be
       -0.32914877 -0.37455145 -0.32051775 -0.22620367
0003a0 37 f2 df bc 82 6c 8d be ab 0a 1f 3e a1 fc 04 3f
       -0.027337177 -0.27621847 0.15531413 0.5194798
0003b0 99 0e 8d be 1d 36 05 3d b9 cd 72 3e 7a d4 92 bd
       -0.275502 0.03252231 0.2371129 -0.07169433
0003c0 c1 8f 17 3e a6 d7 08 be 16 82 2e bf e3 58 c5 bc
       0.14800932 -0.13363513 -0.68167245 -0.024090236
0003d0 95 b3 4f be 72 46 ac be 3a 39 22 be 66 59 0f be
       -0.20283349 -0.33647496 -0.15842143 -0.13998947
0003e0 ce 8f 24 bd 2f 6f 93 be 1f 45 e6 bd 7f 4e d4 39
       -0.040176205 -0.28795764 -0.112436526 0.00040494275
0003f0 35 2f a1 bd 10 c0 81 3d 17 e2 6d 3c d3 61 75 3e
       -0.07870332 0.06335461 0.014519236 0.23963098

cb1.DepthwiseConv2d.pointwise.weight f4 [128, 64, 1, 1]
000000 8b 9a 2e be e7 a3 9c be 5b 4c 40 3d f6 4b c9 3d
       -0.17051141 -0.30593798 0.04694782 0.098289415
000010 b4 7e 47 3d dc 24 d0 bd a3 13 2d bd fd 83 34 3d
       0.048704818 -0.1016328 -0.042255055 0.044071186
000020 13 7f a3 bd ba f1 0c 3e 19 1a 12 be dd c0 82 3d
       -0.07983222 0.13764086 -0.14267768 0.06384442
000030 c2 54 09 be bf b4 70 bb eb b2 73 3e 08 88 0b 3d
       -0.13411239 -0.0036728827 0.2379872 0.034065276
000040 42 a2 a2 bd 8f db 00 3d cd 40 40 3e d2 44 8a bd
       -0.079411045 0.031459387 0.1877472 -0.06751408
000050 90 2d c7 bd 38 77 9b 3e 3d bd c0 3d 41 df b4 3d
       -0.09725487 0.30364394 0.09411094 0.08831645
000060 c5 90 d7 3c b8 5b c8 bd c8 52 53 be 24 0a ae 3d
       0.026314149 -0.09783119 -0.20637047 0.08498028
000070 23 d7 85 3d d3 21 4a be 69 6a 90 bd b4 f5 1e be
       0.06535175 -0.19739465 -0.07051546 -0.15523416
000080 88 3a 56 bd d1 b0 86 be a6 c8 08 be cb f7 1b 3e
       -0.052301913 -0.26306775 -0.13357791 0.15231244
000090 7b a3 45 3e 56 55 f6 3d d6 d6 dc 3d a1 06 53 3a
       0.19300644 0.12027995 0.10783164 0.0008049999
0000a0 6b 9f 4d bb 02 cd cd bd 31 f5 d0 3b d2 22 1b 3d
       -0.0031375538 -0.10048868 0.0063768853 0.037875004
0000b0 1c 2a d0 3d 97 f2 13 be 17 63 07 3d b4 ef 87 3d
       0.10164282 -0.1444801 0.033053484 0.066375166
0000c0 c0 98 c7 bd 79 8d d9 3d e2 c3 4a 3d 09 76 4c 3e
       -0.097459316 0.10622687 0.049503215 0.19966902
0000d0 6d 59 da 3b 38 8b 87 bc 30 23 e1 bb ec 73 4d 3d
       0.0066634924 -0.016545877 -0.0068706498 0.05015938
0000e0 0e f2 03 bc 25 dc 1d 3c 3d 4b 92 3d c0 94 72 3d
       -0.008053316 0.009635006 0.07143257 0.05922389
0000f0 a8 ce 3d 3d a4 2a f1 3c df e9 b7 be 9b 13 c6 bc
       0.04633966 0.029439278 -0.35920617 -0.02417927
000100 d2 66 34 bc e5 a5 ed bd 30 72 3a be f9 bd 55 3c
       -0.011010842 -0.116039075 -0.18207622 0.013045781
000110 cd da 87 3d 3a 49 cd 3d d4 c2 5f 3e f7 b3 19 be
       0.0663353 0.100237325 0.21851665 -0.15010057
000120 70 08 34 3e 8c 2a 05 be b1 c1 8b be 7c 38 c8 bd
       0.17581344 -0.13004512 -0.27296212 -0.097763985
000130 1f 64 0b be 4c 86 2c 3d 50 91 9c 3e 2e 62 07 be
       -0.13612412 0.042120263 0.30579615 -0.13221046
000140 57 42 6e bc a1 20 d0 bd b2 38 96 3d 38 9a 00 be
       -0.014542184 -0.101624735 0.073350325 -0.1255883
000150 5d 89 83 3d 75 ef e1 3c 5c 16 8b 3e 50 45 93 3d
       0.06422684 0.027580002 0.27165496 0.07190955
000160 f2 fe 86 3c e9 71 0e bd 56 5e e4 bd 27 dd 73 bd
       0.01647899 -0.034776602 -0.11150806 -0.05953708
000170 22 33 fa 3c ca 73 23 3e 46 92 28 be 5f ec 49 3d
       0.03054196 0.15962139 -0.16462049 0.049297687
000180 49 be 02 be 3d ee c2 3e f9 f7 07 3e 01 43 43 3e
       -0.127679 0.38072386 0.13278188 0.19068529
000190 fd f7 68 3e 10 54 30 be 5b 2a fd bc 94 54 87 bc
       0.2275085 -0.17219567 -0.030903986 -0.016519822
0001a0 24 4e 90 3d e0 f9 4a bd 21 79 e2 3d 3c 81 9e bd
       0.07046154 -0.049554706 0.1105826 -0.07739493
0001b0 32 81 11 bd 5b 75 5a 3e bb 3b 11 3e 9e 8d af bd
       -0.0355236 0.2133383 0.14182942 -0.08571933
0001c0 1b 58 35 3e b0 9e 96 bd 7b e4 df bd ed 85 4f bd
       0.17709391 -0.07354486 -0.10932251 -0.05066483
0001d0 60 66 14 3e 37 45 52 bc b9 67 a4 bd d2 1e 2d bc
       0.14492178 -0.012833885 -0.08027596 -0.01056643
0001e0 9b 94 06 3e 8f 33 03 be 95 de d5 bd ea b6 2e bd
       0.13142626 -0.12812637 -0.10442845 -0.04265491
0001f0 96 74 9d bc 9a 8e 61 3e db 66 7c bd 3b a0 ff 3c
       -0.019220632 0.22027054 -0.061621528 0.031204334
000200 73 0a 4a 3e 9f ed 19 3e c9 de b6 3c b4 e9 60 be
       0.19730549 0.15032052 0.02232303 -0.2196415
000210 97 cd e7 3d 97 85 6d 3c dd 9c 85 3d d9 4f e1 bb
       0.1131851 0.014497182 0.0652406 -0.0068759737
000220 c6 dc 20 be 18 15 83 3d eb 52 ae 3d 70 a1 00 be
       -0.15709218 0.06400508 0.08511909 -0.12561584
000230 d2 d1 08 bd 39 02 3d bd 4f 69 1b bd 1c 17 bd 3d
       -0.033403225 -0.046144698 -0.037942227 0.092329234
000240 ee 9c 3c bc 16 03 29 3d 76 95 07 3e 2d d9 59 3e
       -0.011512024 0.04126271 0.13240609 0.21274252
000250 46 ea c3 3d 0d 6d ec 3d 02 e9 b7 bc 39 1c 12 be
       0.095661685 0.11544237 -0.022449974 -0.14268579
000260 72 2d 5d 3e 87 b4 9f 3e ce 29 60 bd 49 28 95 3d
       0.21599367 0.3119242 -0.054727368 0.072830744
000270 cb b3 28 3c 46 57 9e bc a9 86 ce bd 93 81 47 3e
       0.010296772 -0.019328725 -0.10084278 0.19483022
000280 e9 6f 43 bd 8a 8d 3a 3e a9 e6 35 be 74 d7 10 be
       -0.047714148 0.18218055 -0.17763771 -0.14144689
000290 12 da 25 be 90 eb 1d bc 9c bc 19 3e a1 8e 16 bf
       -0.16196468 -0.009638682 0.15013355 -0.58811384
0002a0 6c 55 fb 3d ce a8 69 bd 89 8a 33 bc 08 cb 5e be
       0.12272152 -0.05704575 -0.010958322 -0.21757138
0002b0 f1 e0 0a be 44 f6 ae bd 4e 8a bb bd 0b f6 fc bc
       -0.13562371 -0.08543065 -0.09157239 -0.030879041
0002c0 cd 41 0d bd c5 b6 8f bd 15 b0 bd bd 18 e9 c2 3d
       -0.03448658 -0.070172824 -0.092621006 0.09517115
0002d0 5a fa 8f 3e 06 d3 64 be 7e c0 45 3e b9 d9 36 3e
       0.2812069 -0.22346124 0.19311711 0.17856492
0002e0 23 8d 2d 3e ee 3c 15 bd ff 4a 8f 3d bd 05 76 3b
       0.1694837 -0.03643506 0.06996726 0.0037540041
0002f0 e2 d7 ca bd 91 b8 db bd 58 b2 ed bd d5 bf 8c be
       -0.09904458 -0.107285626 -0.11606282 -0.27490106
000300 87 a6 72 3e 29 6e d7 3b 9a 4f ab 3b a4 3e 0c ba
       0.23696338 0.0065744114 0.005227995 -0.00053499104
000310 a1 64 47 3e bd 1a e9 3d 45 46 3b 3d 3e 2e 82 3d
       0.1947198 0.11382053 0.04572131 0.06356476
000320 80 b4 a6 bd 73 d5 0e 3e 23 84 d2 bd 29 30 bc 39
       -0.081398964 0.13948612 -0.10279109 0.00035894036
000330 e4 82 8d 3d 00 6c 3b be 38 bc 2d 3e cf 68 35 3d
       0.06909731 -0.18302917 0.16966331 0.044289406
000340 9c 50 41 be 89 af 94 be 44 0d e9 bd 71 c8 64 bd
       -0.18878406 -0.29040173 -0.11379483 -0.05585522
000350 e3 a1 f1 3c fc 26 2e be 5f 61 0d be 7a 84 0d bb
       0.029496139 -0.17007059 -0.13806675 -0.0021593855
000360 de 99 9c 3c 41 4a b8 bd da 24 f0 bd db a5 21 3c
       0.019116338 -0.08998538 -0.11725779 0.009866203
000370 52 71 14 bd b4 13 f1 3c 1b 9f 75 3e 3f 62 05 3e
       -0.036240883 0.02942834 0.23986475 0.13025759
000380 a7 d4 e1 3c 7d eb 2f 3e 40 c7 81 be 5c aa 3d 3e
       0.02756722 0.17179675 -0.25347328 0.18522018
000390 fd a4 ab bc 20 e7 e9 3d 40 62 ea 3d ac b1 12 be
       -0.020952696 0.11421037 0.11444521 -0.14325589
0003a0 11 01 1f be 14 a4 2b be 99 b1 8d 3e 67 df ad 3d
       -0.1552775 -0.1676181 0.2767456 0.08489876
0003b0 c4 71 11 3e 42 63 49 3e 92 a5 64 bd 7d a8 41 bb
       0.14203554 0.1966677 -0.055821963 -0.002954989
0003c0 53 22 08 3d 2f 50 ce bc c1 dc 1d bd 37 29 7d 3d
       0.03323586 -0.025184719 -0.038540605 0.061806884
0003d0 28 a6 d8 bc ad fa a4 be a9 91 0e bd 64 6a 3d bd
       -0.026446417 -0.322225 -0.03480688 -0.04624404
0003e0 c8 e9 2b 3d a9 f2 f9 3c ce f9 f2 3c 1d ca 6b bd
       0.041970998 0.030511217 0.029660132 -0.057565797
0003f0 a3 9f b6 3d 42 9e 59 be c5 77 ef 3d 5b 6e bb 3d
       0.08917167 -0.21251777 0.11692766 0.09151908

cb1.DepthwiseConv2d.pointwise.bias f4 [128]
000000 5d 71 41 be da 14 47 be 80 26 22 3e c7 b8 97 be
       -0.18890901 -0.19441548 0.15834999 -0.2963316
000010 17 b9 b8 bc 6f e7 87 be 8d bf 79 3e c9 39 b9 3e
       -0.022549195 -0.26543757 0.24389477 0.361769
000020 92 cb 0b be c6 1f 84 3e bc 05 c8 3c 76 2b 25 bf
       -0.13651875 0.2580549 0.024416797 -0.6451944
000030 bd f7 85 bb db bf 45 3e 32 63 d6 bb 87 87 a1 3e
       -0.0040883706 0.19311468 -0.0065425867 0.31548712
000040 c4 07 b6 3d b3 56 e2 bd a4 85 33 3e e5 f0 03 3e
       0.088882 -0.11051693 0.17531449 0.12884863
000050 9b 08 d1 bd d2 71 15 3c 5d e5 7f 3c 45 a8 80 3e
       -0.102067195 0.009121375 0.015618649 0.2512838
000060 8f d5 a5 bd 1b 31 03 3d 31 d4 64 3d 19 06 83 3e
       -0.08097374 0.032029252 0.055866424 0.2559059
000070 0b 1e 48 be 1e 53 12 3e 57 98 4e be 40 44 e7 3c
       -0.1954271 0.14289519 -0.201753 0.028230786
000080 f5 46 74 3e 20 6f 20 be 5d 64 26 3c 83 7e a9 be
       0.23855193 -0.15667391 0.010155764 -0.33104333
000090 28 7e 03 bc 3d 6b e9 bd ff 72 80 bd 99 74 1f 3e
       -0.008025683 -0.11397407 -0.06271934 0.15571822
0000a0 65 6e 9e 3d 6c 4f 67 bd 93 8a dc 3e 59 58 32 3e
       0.077359 -0.056472227 0.43074474 0.17416514
0000b0 b0 64 4f 3d a1 ab 4d 3f 6a e3 8e be 3b 7d 7e 3b
       0.050633132 0.8034001 -0.27907878 0.0038831967
0000c0 7e 38 32 3e 68 e5 55 3e 70 7a 8a bc eb 16 cd 3c
       0.17404363 0.20888293 -0.016904086 0.025035342
0000d0 26 36 b4 3c 65 82 5a bd f1 a3 8a 3e 28 45 79 bd
       0.021998476 -0.05334701 0.27078202 -0.06085697
0000e0 ba a4 70 3c af 2b 51 3e 35 58 3e be 86 7e b8 3e
       0.014687711 0.2042682 -0.18588336 0.3603403
0000f0 8b 36 37 be 09 76 a4 3d 1a 4c 3f bc f0 c1 c4 3e
       -0.178919 0.08030326 -0.011675859 0.38429213
000100 5b 75 23 3e 8e 90 a8 be a7 f5 c0 3d 20 ca 41 bd
       0.15962736 -0.32922786 0.094218545 -0.047311902
000110 2e b7 67 be 1b 08 ce bd e9 50 24 be 87 b1 24 bb
       -0.22628471 -0.1006014 -0.1604649 -0.0025130229
000120 c2 43 a1 be 0a fa 8b be 61 8e e3 3e 28 70 5d bd
       -0.31497008 -0.27339202 0.44444564 -0.05406204
000130 85 0e 91 bc 49 47 95 bc 1e eb e9 3d ab 10 6d bd
       -0.017707119 -0.018222468 0.11421798 -0.057877224
000140 84 eb 01 3f 51 76 0c 3e 8b e5 dc bd 5f 25 7c 3c
       0.50749993 0.13717009 -0.10785969 0.015389769
000150 b6 49 e8 3e c8 39 65 bd 9b 3b d0 3c fc 9f 08 bf
       0.45368737 -0.055963308 0.025419047 -0.53369117
000160 cc 6d 6f 3d f5 f5 ae 3d 7e c0 21 3e fa 65 a8 3e
       0.05845432 0.08543006 0.15796086 0.32890302
000170 87 8c d6 3d e7 f1 31 3f c0 5c 96 3e 01 c9 7c bd
       0.10476022 0.6950974 0.29367638 -0.06171513
000180 82 84 2e 3e 73 2c e9 bd 60 b9 06 3f 51 eb 8d 3d
       0.17042735 -0.11385431 0.5262661 0.06929649
000190 6e 15 94 3d 67 6a 15 be 46 08 be 3d 82 52 d3 3d
       0.0723065 -0.1459137 0.09278922 0.103184715
0001a0 4c 29 fd bd 64 c4 86 be 6c cf be bd 80 90 16 be
       -0.123613924 -0.2632171 -0.09316906 -0.1470356
0001b0 56 52 28 3e f9 f9 b9 bd c0 e1 80 bd 4f 56 c3 3b
       0.16437659 -0.090808816 -0.062930584 0.0059612165
0001c0 20 6d 94 be fb 0a 16 bc b1 13 b7 bd d0 06 15 3d
       -0.28989506 -0.009157891 -0.08939303 0.03638345
0001d0 e1 d5 a3 3e 1a 28 09 3e 34 e3 b3 3d 09 72 5e bd
       0.31999114 0.13394204 0.0878357 -0.05430797
0001e0 b8 db f1 3c 46 96 83 ba c1 f4 10 be bf ff 2d be
       0.029523715 -0.0010039292 -0.14155866 -0.1699209
0001f0 b8 f8 07 3e fb 7a af 3e df ca 06 3c cd f9 90 3d
       0.13278472 0.34273514 0.008227079 0.07078896

res1.0.conv1.depthwise.weight f4 [128, 1, 3, 3]
000000 89 73 5b bd 6e 1e 27 bd 4b f3 aa 3c b6 5c 1c 3d
       -0.05357698 -0.040800504 0.020867964 0.038174354
000010 92 f3 55 bc a1 79 51 bd ef 5a 4a bd 5c a8 10 3d
       -0.01305856 -0.051141385 -0.049403127 0.03531681
000020 bc 72 b1 3c 14 b7 75 bc f5 dd 8b bc 0f d5 b6 bc
       0.021661155 -0.0149972625 -0.01707361 -0.022318391
000030 ed d3 b6 bd 3b f8 03 3b b7 ec a1 3c fa 3f 24 bc
       -0.089271404 0.002013697 0.019766195 -0.010025019
000040 2d a2 b9 3b 93 9b 41 3c 4d e2 f7 bc bd ae 12 3d
       0.005665085 0.011816877 -0.030259276 0.035811175
000050 a2 5b dd bc 8f 48 1b 3c 43 0e fd 3c d9 96 ca bc
       -0.027021233 0.009477749 0.03089059 -0.024730133
000060 6b e9 ea 3c 3f dc 31 3a 3a c5 ca bc 76 e9 bb 3c
       0.028675755 0.00067848334 -0.024752248 0.022938471
000070 85 49 20 3c bc cb d1 bc 20 8d 03 bd 2e 16 49 bd
       0.009783153 -0.025609843 -0.03211701 -0.049093418
000080 94 7e c9 3c 5f fe 28 3d ff dd fd bd 3d e9 20 3d
       0.02459649 0.041258212 -0.12395858 0.039284933
000090 44 71 86 3d 48 63 47 3b 5b 0e 8c bc 19 cc 2d bd
       0.065645725 0.0030424166 -0.017096689 -0.04243097
0000a0 da a4 dc bb af 26 61 bd 4e 04 c7 3b 56 32 75 bd
       -0.006733519 -0.054968532 0.006073511 -0.059862457
0000b0 b5 28 ad bc e9 12 93 3b 9b 55 d6 3b d6 7d 17 ba
       -0.021137575 0.0044883383 0.0065409667 -0.0005778944
0000c0 28 1f 53 bd 85 ef 15 3d 79 b0 32 3d 63 25 81 ba
       -0.051543385 0.036605377 0.04362533 -0.0009853061
0000d0 91 a1 e3 bc ba 94 b3 bc b5 d5 53 3b 1c 3c ef b9
       -0.027787002 -0.021921504 0.0032323424 -0.00045630417
0000e0 24 f2 2e 3c 00 91 7d 3d 9b 49 60 bd 89 41 85 bd
       0.010677848 0.06190586 -0.054757696 -0.065066405
0000f0 3e fe 47 3d 04 d4 98 3b 63 86 de bc 0e fa 39 bc
       0.04882645 0.004663946 -0.02716369 -0.011351122
000100 54 da 6a 3c 2a f5 73 bb 41 68 98 ba ab 52 97 3d
       0.01433428 -0.0037224987 -0.001162775 0.073888145
000110 97 8d 27 bc 73 be 0d 3d 7c d9 85 3c 07 22 9f 3d
       -0.010226629 0.034605455 0.016339056 0.07770162
000120 d9 58 13 3d d3 32 94 bd 56 e5 7b bc ed 8b 0a bd
       0.035973404 -0.072362565 -0.015374502 -0.03382485
000130 45 ce c9 3c da 81 9e 3d 2e 73 70 bc 27 98 89 bd
       0.02463449 0.07739611 -0.0146758985 -0.06718474
000140 f1 47 6b 3d 89 dd 20 3d 4d 6c ca bc 1c 05 0c 3d
       0.057441656 0.039273772 -0.024709845 0.03418456
000150 9d e5 2e 3d d3 26 2a bd dd 52 8b bd 6d 51 2b bb
       0.042699445 -0.041540932 -0.06802914 -0.0026141063
000160 73 b8 93 bc 05 e0 31 3c 79 35 39 bc de ec bb 3c
       -0.018032288 0.010856633 -0.011304253 0.022940096
000170 04 77 a0 bc f4 61 e7 3c 93 9c 60 3d 76 13 a5 bd
       -0.019588001 0.02824495 0.05483682 -0.080603525
000180 3a 4f 08 3d 26 d6 36 3d 35 f4 c8 bb 70 38 d8 3a
       0.03327868 0.04463782 -0.0061326274 0.0016496312
000190 eb 63 80 ba 34 c3 06 3c f3 f2 61 3b 77 c8 f2 bc
       -0.0009795403 0.008225251 0.0034477084 -0.029636605
0001a0 8a 87 01 3d ae 9e a1 3c f0 29 39 3c 0d d4 85 bc
       0.0316234 0.019728985 0.011301503 -0.016336465
0001b0 06 a0 c8 bc b0 fa a1 b8 aa 20 7d 3d 4c e0 e8 bc
       -0.024490368 -7.7237724e-05 0.06179873 -0.028427266
0001c0 fc 4c a7 bc 38 d9 79 3d 9e ed 10 3d 90 38 90 bd
       -0.020422451 0.06099817 0.03538286 -0.070420384
0001d0 8d 31 c7 bc 8c 59 87 bc eb 54 56 bd fb 0e 0e bd
       -0.02431562 -0.016522191 -0.052327078 -0.034682255
0001e0 ed 23 50 3c 35 fb 48 bd d7 7c 86 bc c9 5b 9d bb
       0.012703878 -0.049067695 -0.01641695 -0.0048022014
0001f0 5f 01 9f 3c 3f 5b 0d bd f5 ed be 3c 26 00 40 3d
       0.019409833 -0.034510847 0.023306826 0.04687514
000200 e4 ec 1f bc ba aa b1 bc 9f 53 13 3c 7a 26 15 3c
       -0.009761069 -0.021687854 0.008992105 0.009103412
000210 36 55 df 3c ce 7a 1a 3d 20 30 63 3d 1d 9d 49 bd
       0.027262311 0.037714772 0.055465817 -0.0492221
000220 c1 78 38 bc 1a dc ee bc 15 0a 3a bc 38 84 cb 3c
       -0.011259259 -0.029157687 -0.011354943 0.02484332
000230 62 98 21 3d a2 0f 2b 3d c0 30 2c bc 23 73 f6 3c
       0.039451964 0.041762955 -0.01050967 0.030084198
000240 76 45 8e ba b8 5e aa bc a4 5a 4c 3d a7 d8 87 3c
       -0.0010854441 -0.020797119 0.04989113 0.0165828
000250 af 1f 22 bc 97 69 9a 3c 8f 66 a5 bc 4b 3c 92 bd
       -0.009895249 0.018849177 -0.020190505 -0.07140406
000260 57 ee 11 3d bd cd 21 bb 6d 0c 30 3d 98 89 e6 bb
       0.03562769 -0.002468928 0.0429806 -0.0070354454
000270 22 ae df bc c9 f8 f4 3b 5a de 7e 3d 55 e9 50 bd
       -0.027304713 0.0074759466 0.06222377 -0.051003773
000280 e2 e3 5f 3b 0f d7 3f 3d 8d a4 20 bb f3 85 02 bd
       0.0034162928 0.046835955 -0.0024512142 -0.031866025
000290 74 b7 2c bc d3 bd 77 3d 2a 6a 68 3b 73 28 01 bd
       -0.0105417855 0.060483765 0.003546367 -0.031532716
0002a0 5c db 43 bc 52 6a b2 bc 68 e3 f9 bc 89 7b 18 bd
       -0.011954155 -0.021779213 -0.030503944 -0.037227187
0002b0 a4 d6 04 bd 4b 48 34 bc 3c 54 d8 3c fd db c0 3b
       -0.03243126 -0.011003564 0.026407354 0.0058855996
0002c0 11 c2 67 3c e0 ac 95 3b 87 9c b0 bc 83 a2 cb 3c
       0.01414539 0.0045677274 -0.021559013 0.024857765
0002d0 ab fd d7 3c fb 9c 38 bc 3d 8b d6 3c de e2 ee bc
       0.026366076 -0.011267896 0.02618944 -0.029160913
0002e0 26 fb bd bc d4 f6 93 3b a7 8c dd 3c 22 0c 06 3d
       -0.023191046 0.004515508 0.027044607 0.032726415
0002f0 a9 b8 31 3b 02 fb 54 3d 21 9a 32 bd c4 9d 0a 3d
       0.0027118123 0.051997192 -0.04360402 0.033841863
000300 98 69 bb 3d d2 9a d2 bd ef 18 7b bd b9 25 a5 bc
       0.09151 -0.10283436 -0.061303075 -0.02015959
000310 8c 3c 81 bc 77 d7 d7 3c c9 b9 ba bc a3 45 b6 bc
       -0.015775941 0.026347859 -0.022793667 -0.022250002
000320 84 39 95 bc a4 ca f6 bc 49 f1 0d 3d 1f 63 9a 3c
       -0.018215902 -0.030125923 0.034653936 0.018846093
000330 f4 a6 59 bd ac 96 10 bd 3d 87 5f 3d 0d 6e e6 bd
       -0.053137735 -0.035299942 0.054572333 -0.11251459
000340 3f 64 72 bd 3e ce 20 3c 06 e5 97 3c a1 0d aa bc
       -0.059177633 0.009814797 0.018541824 -0.020758452
000350 6f 6d 85 3b 9f 5b 90 bc 1e bd b2 bc 67 e2 5f ba
       0.0040718834 -0.017621813 -0.021818694 -0.00085405115
000360 ab f7 3e 3d 6f 6b 82 bd f7 24 00 3d f2 f0 dd 3a
       0.046622913 -0.063681476 0.031285252 0.0016932769
000370 6c 0b 97 3d b6 53 a5 3c 54 d6 6f bc 71 aa 73 3c
       0.073752254 0.020181518 -0.014638502 0.014872179
000380 3f 2e fb bc a9 28 57 bc e4 b1 3d 3d 97 f3 a0 3b
       -0.0306617 -0.013132253 0.046312228 0.0049118507
000390 2e 64 b8 bc be 17 26 3b 5e ca 19 3d 7b c8 83 3d
       -0.022508707 0.0025343741 0.037546508 0.06434723
0003a0 1f b0 8f bd ba 73 09 bd 05 5c 46 bd 4f 67 bf bd
       -0.07016014 -0.03355763 -0.0484276 -0.093458764
0003b0 04 e9 66 bc 99 4c c4 bd 5b 08 40 bc 4f ed c3 bd
       -0.014093641 -0.09584922 -0.011720742 -0.095667474
0003c0 0b bc 6b ba a3 29 5b 3b 96 71 43 3d 51 d8 08 3d
       -0.0008992559 0.0033441565 0.047715746 0.03340942
0003d0 12 dc 62 bc 5e 66 c5 bc 34 cc ed bb fe 02 a0 3c
       -0.013846414 -0.024096664 -0.007257009 0.019532677
0003e0 44 b6 0c 3d 19 ec a0 bc fa 67 0b 3c e1 08 77 bc
       0.03435351 -0.01964383 0.008508677 -0.0150778005
0003f0 29 ff d9 3c 5a f4 aa bd cc 08 34 bd d2 1f c0 3c
       0.026610928 -0.083473876 -0.0439537 0.023452673

res1.0.conv1.pointwise.weight f4 [128, 128, 1, 1]
000000 76 9e 53 3e e5 1a 15 be 58 5b 1d be ad 03 3e 3d
       0.20665917 -0.1456104 -0.15366876 0.046390224
000010 d3 f9 01 3e 14 ee b2 bd 05 b9 2a be 54 22 1c bd
       0.12692957 -0.08736816 -0.16672142 -0.038118675
000020 ce d6 7c 3c cc 70 80 bb 70 d5 4c 3e ea bd 63 bc
       0.015432073 -0.0039196964 0.20003295 -0.0139002595
000030 2c a0 01 3d 44 00 d7 bd 50 e7 69 bd 0d 2b 34 be
       0.031646892 -0.104980975 -0.057105362 -0.17594548
000040 af fa 0e bc 7e 80 47 bd a8 24 0a 3e 7e 58 8e bd
       -0.00872676 -0.048706524 0.13490546 -0.06950472
000050 46 67 60 be 80 ac 88 bc 3c 9e 04 3d f2 f1 65 be
       -0.21914396 -0.016683817 0.032377467 -0.22455576
000060 c5 c2 39 bd 67 2f b6 bd a9 0a 95 bd 6a af a5 3d
       -0.045351762 -0.0889576 -0.07277424 0.08090098
000070 30 f7 58 bd 9c 9d 6a 3e e1 bb 21 3d 4d b3 c1 bd
       -0.05297011 0.22911686 0.039485816 -0.09458027
000080 30 79 10 bd 70 c9 a7 3d 63 45 fa bd f4 a8 82 bd
       -0.035271823 0.08192718 -0.12220266 -0.063798815
000090 f0 1c 37 be c2 8c 84 3d bf 4b b3 3d 65 9d c3 bd
       -0.17882133 0.0647216 0.08754682 -0.09551505
0000a0 35 3a 4d 3e 03 f6 91 3e 32 96 80 3d c0 ae 0b bc
       0.20041735 0.28508005 0.062786475 -0.00852555
0000b0 31 83 79 bc fa f4 93 3d 7d 20 27 be 4f 40 8b 3d
       -0.015229032 0.0722446 -0.16320987 0.06799375
0000c0 4c 51 3a bd d8 8a 34 3d df b8 5b 3d 9a 81 fd 3c
       -0.045487687 0.044077724 0.053643104 0.030945588
0000d0 a9 0e 01 3d 3e c2 e9 bd cd bc b1 bd ba 22 06 bd
       0.03150812 -0.11414002 -0.08678589 -0.03274796
0000e0 85 e6 2a 3b 4f f0 ed 3d 42 d3 03 be 45 6b 95 3d
       0.0026077342 0.11618101 -0.12873557 0.07295851
0000f0 2f d5 4e be 03 81 c4 bd 42 ee 13 3e 44 e3 dd bd
       -0.2019851 -0.095949195 0.14446357 -0.10834363
000100 45 0c 09 3e 38 19 f1 bc 9c ba 34 3e 45 e0 d7 bd
       0.13383587 -0.02943097 0.17649311 -0.10540823
000110 1b 81 49 3e 6d 4e 27 3d c4 93 d1 3d b8 fb c9 bd
       0.19678156 0.040846277 0.10233262 -0.09862465
000120 fe 18 30 3e 08 cd d5 bd 67 4f 87 be d6 e0 18 bd
       0.17197034 -0.10439497 -0.26427767 -0.037323795
000130 67 b2 99 3d bb da af be ef 89 4b 3d 4e 0a d2 3d
       0.07504731 -0.34346566 0.04969209 0.10255872
000140 89 ee b4 3d bc 2f 40 bd d4 f0 59 be de d5 a0 bd
       0.088345595 -0.046920523 -0.21283275 -0.07853292
000150 13 6a 2e 3e cb aa 01 be 51 21 1a 3d 18 3d b3 bd
       0.17032652 -0.12662809 0.03762943 -0.08751887
000160 77 08 dd 3c 0a e8 b6 3c d5 6f ea bc 0e 6c ad 3c
       0.026981575 0.022327442 -0.028617779 0.021169689
000170 a6 20 f4 bd a5 95 5f bd e1 44 0c be 6c d4 be 3d
       -0.1192029 -0.05458607 -0.1369815 0.0931786
000180 05 dd 10 3e 95 f8 23 bd 13 2b 13 3e 16 11 0b be
       0.14146812 -0.04003199 0.143719 -0.13580737
000190 8b eb 19 3e d5 fa 07 3d 6a 38 0f be 48 c6 5b bd
       0.15031259 0.033198196 -0.13986364 -0.053655893
0001a0 d5 b6 c2 3d af 2c 60 bd be d6 36 bc 58 3f 13 3d
       0.09507529 -0.054730114 -0.011159597 0.03594908
0001b0 41 e3 4f 3c 7b 7c f4 bc 3b 03 d5 bd ed 00 0d 3e
       0.012688459 -0.029844513 -0.10401007 0.13769884
0001c0 ee 89 d3 3c f4 d5 2c bc be 42 04 be a3 0a da bd
       0.025822606 -0.010549057 -0.12916085 -0.1064656
0001d0 f3 9c fa 3d 4a 8d 8f be 6b 5b a7 bd 53 56 6e 3b
       0.12236967 -0.28037483 -0.081717335 0.0036367371
0001e0 91 eb b9 bd 19 31 70 be 2a b4 e9 bc e3 7a 0e 3e
       -0.09078134 -0.2345623 -0.028528292 0.13914065
0001f0 69 48 54 be b9 5c 83 bd aa ac 00 3e 57 4c 8d 3d
       -0.20730747 -0.0641417 0.12565866 0.06899326
000200 06 b2 89 bc d7 84 da 3d d0 92 c0 bc 7e 7d 23 bd
       -0.016808521 0.106698684 -0.023507506 -0.0399146
000210 8f f3 ed 3d 0f 22 cd bd 72 01 2d 3d e1 d1 7a 3d
       0.11618721 -0.10016262 0.042237706 0.061235312
000220 0a a3 56 be 10 c2 3b 3d dd 47 05 3d ba 70 50 3d
       -0.20960632 0.04583937 0.032539237 0.050888754
000230 cc 6c c9 3d 37 34 ba bd 9d 62 c2 bc 85 f9 0f 3d
       0.098352045 -0.090919904 -0.023728663 0.03515007
000240 c8 7c fe bd 06 a3 24 be b2 19 41 bd d0 ef 17 3e
       -0.12426144 -0.16077814 -0.047143646 0.14837575
000250 27 0b bf 3d 71 39 31 bc 7f 0a 24 3e 86 b3 20 3c
       0.09328299 -0.010816918 0.16019629 0.009808427
000260 0f 35 b5 3d 44 9f e0 bd e6 1e 80 3e 4e 8d f5 bc
       0.08848011 -0.109678775 0.25023574 -0.029974606
000270 84 67 93 bd e0 02 ae 3c 02 25 0f be 20 61 dd bd
       -0.071974784 0.021241605 -0.13978961 -0.10809541
000280 8c 98 3c 3d b5 fc 90 be fd 6f 6c 3d 84 a4 58 bc
       0.046043918 -0.283178 0.057723988 -0.013222817
000290 17 97 ce bd 17 29 95 3d 59 8e 08 3e 7c 62 20 3e
       -0.10087412 0.07283228 0.13335551 0.15662569
0002a0 87 77 48 be b0 1b 84 3d cc d7 9b bd 7d 18 36 bc
       -0.19576846 0.064505935 -0.07609519 -0.011114237
0002b0 66 5b 86 bd 56 c1 05 bc 5a eb ea bd 45 59 99 bd
       -0.065604016 -0.008163771 -0.11470671 -0.0748773
0002c0 8b cc 3f 3d 61 41 9d bc 7e 49 fe 3c 11 0f 58 be
       0.046825927 -0.019196214 0.031040903 -0.21099497
0002d0 3a 9a 9a 3c 4d 8b 65 3d 55 1c 50 be b1 81 1d 3e
       0.01887237 0.05604105 -0.20323308 0.15381505
0002e0 71 6c 4d 3e 04 63 6d 3c 5d a1 db 3c 38 0c 33 3e
       0.20060898 0.014488939 0.026810342 0.1748513
0002f0 d9 f2 8b bd 88 23 9d 3e 43 f1 43 3c b9 09 f5 3d
       -0.06833429 0.3069117 0.011959377 0.11964745
000300 5f f0 0b 3e 4e 7e ac 3d b9 b7 03 3e 5c ae 28 be
       0.13665913 0.08422528 0.12863053 -0.16472763
000310 84 96 80 bd 08 7e 6a 3c eb 57 9a bd b5 0a 60 3c
       -0.062787086 0.014312275 -0.075363 0.013674428
000320 18 f8 fa bd a7 39 0d be 8e 18 c0 3d 9f 3c c2 3d
       -0.122543514 -0.13791524 0.093796834 0.09484219
000330 34 d0 c3 3d 76 16 ac 3c f4 18 94 bd 60 b8 e8 3d
       0.09561196 0.021006804 -0.07231322 0.11363292
000340 05 1d 0d bd e5 fd 20 3e b5 70 b3 bd 63 df 1f 3e
       -0.034451503 0.15721853 -0.087617315 0.15612559
000350 27 47 3d be 3d 54 96 be 46 f7 10 be fa 68 e7 bb
       -0.18484174 -0.29361144 -0.14156827 -0.0070620747
000360 d7 5f 0e 3e ea 51 82 3d ac e6 ad 3c 6f 5b 84 3c
       0.13903747 0.0636328 0.021228157 0.01615688
000370 58 d9 1a 3e e9 96 28 3e 19 55 cf bd 38 30 de 3d
       0.15121973 0.16463818 -0.10123653 0.10849041
000380 2a 7d cf bb 46 9e 11 3d 3a 0f 08 be 4d f8 c9 bd
       -0.0063320594 0.035551332 -0.13287058 -0.09861813
000390 86 d5 9e 3d 49 e6 86 bd 2a 30 b5 3d 75 9a 40 3d
       0.0775557 -0.06586892 0.08847077 0.0470223
0003a0 db a5 96 3d 11 86 60 3d 9d 57 d6 bd 6f 30 6d 3d
       0.07355853 0.054815356 -0.1046593 0.057907518
0003b0 b3 5f 0c 3e 66 c5 22 be e8 37 8d be 7a 35 6a 3d
       0.13708381 -0.15895614 -0.27581716 0.057179905
0003c0 d8 72 83 bc 17 8c 06 be da 89 d5 3c 79 78 76 bd
       -0.016045973 -0.13139378 0.02606671 -0.060173485
0003d0 f5 f1 62 3d ef c9 50 be 7b d5 ab bd 0f 43 86 bc
       0.05540653 -0.20389532 -0.083903275 -0.016389398
0003e0 47 d2 a5 3d 0e 74 ee bc ad 4a b4 bd 7d ab 96 bd
       0.08096748 -0.029108074 -0.08803306 -0.073569275
0003f0 74 de 13 3d 07 b4 9e bc c2 f4 73 3d 86 ff 14 be
       0.03610082 -0.019372953 0.05955959 -0.145506

res1.0.conv1.pointwise.bias f4 [128]
000000 00 00 00 00 00 00 00 00 00 00 00 00 00 00 00 00
       0.0 0.0 0.0 0.0
000010 00 00 00 00 00 00 00 00 00 00 00 00 00 00 00 00
       0.0 0.0 0.0 0.0
000020 00 00 00 00 00 00 00 00 00 00 00 00 00 00 00 00
       0.0 0.0 0.0 0.0
000030 00 00 00 00 00 00 00 00 00 00 00 00 00 00 00 00
       0.0 0.0 0.0 0.0
000040 00 00 00 00 00 00 00 00 00 00 00 00 00 00 00 00
       0.0 0.0 0.0 0.0
000050 00 00 00 00 00 00 00 00 00 00 00 00 00 00 00 00
       0.0 0.0 0.0 0.0
000060 00 00 00 00 00 00 00 00 00 00 00 00 00 00 00 00
       0.0 0.0 0.0 0.0
000070 00 00 00 00 00 00 00 00 00 00 00 00 00 00 00 00
       0.0 0.0 0.0 0.0
000080 00 00 00 00 00 00 00 00 00 00 00 00 00 00 00 00
       0.0 0.0 0.0 0.0
000090 00 00 00 00 00 00 00 00 00 00 00 00 00 00 00 00
       0.0 0.0 0.0 0.0
0000a0 00 00 00 00 00 00 00 00 00 00 00 00 00 00 00 00
       0.0 0.0 0.0 0.0
0000b0 00 00 00 00 00 00 00 00 00 00 00 00 00 00 00 00
       0.0 0.0 0.0 0.0
0000c0 00 00 00 00 00 00 00 00 00 00 00 00 00 00 00 00
       0.0 0.0 0.0 0.0
0000d0 00 00 00 00 00 00 00 00 00 00 00 00 00 00 00 00
       0.0 0.0 0.0 0.0
0000e0 00 00 00 00 00 00 00 00 00 00 00 00 00 00 00 00
       0.0 0.0 0.0 0.0
0000f0 00 00 00 00 00 00 00 00 00 00 00 00 00 00 00 00
       0.0 0.0 0.0 0.0
000100 00 00 00 00 00 00 00 00 00 00 00 00 00 00 00 00
       0.0 0.0 0.0 0.0
000110 00 00 00 00 00 00 00 00 00 00 00 00 00 00 00 00
       0.0 0.0 0.0 0.0
000120 00 00 00 00 00 00 00 00 00 00 00 00 00 00 00 00
       0.0 0.0 0.0 0.0
000130 00 00 00 00 00 00 00 00 00 00 00 00 00 00 00 00
       0.0 0.0 0.0 0.0
000140 00 00 00 00 00 00 00 00 00 00 00 00 00 00 00 00
       0.0 0.0 0.0 0.0
000150 00 00 00 00 00 00 00 00 00 00 00 00 00 00 00 00
       0.0 0.0 0.0 0.0
000160 00 00 00 00 00 00 00 00 00 00 00 00 00 00 00 00
       0.0 0.0 0.0 0.0
000170 00 00 00 00 00 00 00 00 00 00 00 00 00 00 00 00
       0.0 0.0 0.0 0.0
000180 00 00 00 00 00 00 00 00 00 00 00 00 00 00 00 00
       0.0 0.0 0.0 0.0
000190 00 00 00 00 00 00 00 00 00 00 00 00 00 00 00 00
       0.0 0.0 0.0 0.0
0001a0 00 00 00 00 00 00 00 00 00 00 00 00 00 00 00 00
       0.0 0.0 0.0 0.0
0001b0 00 00 00 00 00 00 00 00 00 00 00 00 00 00 00 00
       0.0 0.0 0.0 0.0
0001c0 00 00 00 00 00 00 00 00 00 00 00 00 00 00 00 00
       0.0 0.0 0.0 0.0
0001d0 00 00 00 00 00 00 00 00 00 00 00 00 00 00 00 00
       0.0 0.0 0.0 0.0
0001e0 00 00 00 00 00 00 00 00 00 00 00 00 00 00 00 00
       0.0 0.0 0.0 0.0
0001f0 00 00 00 00 00 00 00 00 00 00 00 00 00 00 00 00
       0.0 0.0 0.0 0.0

res1.0.bn1.weight f4 [128]
000000 00 00 00 00 00 00 00 00 00 00 00 00 00 00 00 00
       0.0 0.0 0.0 0.0
000010 00 00 00 00 00 00 00 00 00 00 00 00 00 00 00 00
       0.0 0.0 0.0 0.0
000020 00 00 00 00 00 00 00 00 00 00 00 00 00 00 00 00
       0.0 0.0 0.0 0.0
000030 00 00 00 00 00 00 00 00 00 00 00 00 00 00 00 00
       0.0 0.0 0.0 0.0
000040 00 00 00 00 00 00 00 00 00 00 00 00 00 00 00 00
       0.0 0.0 0.0 0.0
000050 00 00 00 00 00 00 00 00 00 00 00 00 00 00 00 00
       0.0 0.0 0.0 0.0
000060 00 00 00 00 00 00 00 00 00 00 00 00 00 00 00 00
       0.0 0.0 0.0 0.0
000070 00 00 00 00 00 00 00 00 00 00 00 00 00 00 00 00
       0.0 0.0 0.0 0.0
000080 00 00 00 00 00 00 00 00 00 00 00 00 00 00 00 00
       0.0 0.0 0.0 0.0
000090 00 00 00 00 00 00 00 00 00 00 00 00 00 00 00 00
       0.0 0.0 0.0 0.0
0000a0 00 00 00 00 00 00 00 00 00 00 00 00 00 00 00 00
       0.0 0.0 0.0 0.0
0000b0 00 00 00 00 00 00 00 00 00 00 00 00 00 00 00 00
       0.0 0.0 0.0 0.0
0000c0 00 00 00 00 00 00 00 00 00 00 00 00 00 00 00 00
       0.0 0.0 0.0 0.0
0000d0 00 00 00 00 00 00 00 00 00 00 00 00 00 00 00 00
       0.0 0.0 0.0 0.0
0000e0 00 00 00 00 00 00 00 00 00 00 00 00 00 00 00 00
       0.0 0.0 0.0 0.0
0000f0 00 00 00 00 00 00 00 00 00 00 00 00 00 00 00 00
       0.0 0.0 0.0 0.0
000100 00 00 00 00 00 00 00 00 00 00 00 00 00 00 00 00
       0.0 0.0 0.0 0.0
000110 00 00 00 00 00 00 00 00 00 00 00 00 00 00 00 00
       0.0 0.0 0.0 0.0
000120 00 00 00 00 00 00 00 00 00 00 00 00 00 00 00 00
       0.0 0.0 0.0 0.0
000130 00 00 00 00 00 00 00 00 00 00 00 00 00 00 00 00
       0.0 0.0 0.0 0.0
000140 00 00 00 00 00 00 00 00 00 00 00 00 00 00 00 00
       0.0 0.0 0.0 0.0
000150 00 00 00 00 00 00 00 00 00 00 00 00 00 00 00 00
       0.0 0.0 0.0 0.0
000160 00 00 00 00 00 00 00 00 00 00 00 00 00 00 00 00
       0.0 0.0 0.0 0.0
000170 00 00 00 00 00 00 00 00 00 00 00 00 00 00 00 00
       0.0 0.0 0.0 0.0
000180 00 00 00 00 00 00 00 00 00 00 00 00 00 00 00 00
       0.0 0.0 0.0 0.0
000190 00 00 00 00 00 00 00 00 00 00 00 00 00 00 00 00
       0.0 0.0 0.0 0.0
0001a0 00 00 00 00 00 00 00 00 00 00 00 00 00 00 00 00
       0.0 0.0 0.0 0.0
0001b0 00 00 00 00 00 00 00 00 00 00 00 00 00 00 00 00
       0.0 0.0 0.0 0.0
0001c0 00 00 00 00 00 00 00 00 00 00 00 00 00 00 00 00
       0.0 0.0 0.0 0.0
0001d0 00 00 00 00 00 00 00 00 00 00 00 00 00 00 00 00
       0.0 0.0 0.0 0.0
0001e0 00 00 00 00 00 00 00 00 00 00 00 00 00 00 00 00
       0.0 0.0 0.0 0.0
0001f0 00 00 00 00 00 00 00 00 00 00 00 00 00 00 00 00
       0.0 0.0 0.0 0.0

res1.0.bn1.bias f4 [128]
000000 00 00 00 00 00 00 00 00 00 00 00 00 00 00 00 00
       0.0 0.0 0.0 0.0
000010 00 00 00 00 00 00 00 00 00 00 00 00 00 00 00 00
       0.0 0.0 0.0 0.0
000020 00 00 00 00 00 00 00 00 00 00 00 00 00 00 00 00
       0.0 0.0 0.0 0.0
000030 00 00 00 00 00 00 00 00 00 00 00 00 00 00 00 00
       0.0 0.0 0.0 0.0
000040 00 00 00 00 00 00 00 00 00 00 00 00 00 00 00 00
       0.0 0.0 0.0 0.0
000050 00 00 00 00 00 00 00 00 00 00 00 00 00 00 00 00
       0.0 0.0 0.0 0.0
000060 00 00 00 00 00 00 00 00 00 00 00 00 00 00 00 00
       0.0 0.0 0.0 0.0
000070 00 00 00 00 00 00 00 00 00 00 00 00 00 00 00 00
       0.0 0.0 0.0 0.0
000080 00 00 00 00 00 00 00 00 00 00 00 00 00 00 00 00
       0.0 0.0 0.0 0.0
000090 00 00 00 00 00 00 00 00 00 00 00 00 00 00 00 00
       0.0 0.0 0.0 0.0
0000a0 00 00 00 00 00 00 00 00 00 00 00 00 00 00 00 00
       0.0 0.0 0.0 0.0
0000b0 00 00 00 00 00 00 00 00 00 00 00 00 00 00 00 00
       0.0 0.0 0.0 0.0
0000c0 00 00 00 00 00 00 00 00 00 00 00 00 00 00 00 00
       0.0 0.0 0.0 0.0
0000d0 00 00 00 00 00 00 00 00 00 00 00 00 00 00 00 00
       0.0 0.0 0.0 0.0
0000e0 00 00 00 00 00 00 00 00 00 00 00 00 00 00 00 00
       0.0 0.0 0.0 0.0
0000f0 00 00 00 00 00 00 00 00 00 00 00 00 00 00 00 00
       0.0 0.0 0.0 0.0
000100 00 00 00 00 00 00 00 00 00 00 00 00 00 00 00 00
       0.0 0.0 0.0 0.0
000110 00 00 00 00 00 00 00 00 00 00 00 00 00 00 00 00
       0.0 0.0 0.0 0.0
000120 00 00 00 00 00 00 00 00 00 00 00 00 00 00 00 00
       0.0 0.0 0.0 0.0
000130 00 00 00 00 00 00 00 00 00 00 00 00 00 00 00 00
       0.0 0.0 0.0 0.0
000140 00 00 00 00 00 00 00 00 00 00 00 00 00 00 00 00
       0.0 0.0 0.0 0.0
000150 00 00 00 00 00 00 00 00 00 00 00 00 00 00 00 00
       0.0 0.0 0.0 0.0
000160 00 00 00 00 00 00 00 00 00 00 00 00 00 00 00 00
       0.0 0.0 0.0 0.0
000170 00 00 00 00 00 00 00 00 00 00 00 00 00 00 00 00
       0.0 0.0 0.0 0.0
000180 00 00 00 00 00 00 00 00 00 00 00 00 00 00 00 00
       0.0 0.0 0.0 0.0
000190 00 00 00 00 00 00 00 00 00 00 00 00 00 00 00 00
       0.0 0.0 0.0 0.0
0001a0 00 00 00 00 00 00 00 00 00 00 00 00 00 00 00 00
       0.0 0.0 0.0 0.0
0001b0 00 00 00 00 00 00 00 00 00 00 00 00 00 00 00 00
       0.0 0.0 0.0 0.0
0001c0 00 00 00 00 00 00 00 00 00 00 00 00 00 00 00 00
       0.0 0.0 0.0 0.0
0001d0 00 00 00 00 00 00 00 00 00 00 00 00 00 00 00 00
       0.0 0.0 0.0 0.0
0001e0 00 00 00 00 00 00 00 00 00 00 00 00 00 00 00 00
       0.0 0.0 0.0 0.0
0001f0 00 00 00 00 00 00 00 00 00 00 00 00 00 00 00 00
       0.0 0.0 0.0 0.0
