MonocularDepthEstimation/savedmodels/Masks/128-3epochs/checkpoint-3.pt (torch_old, 510363 bytes, 74 tensors)

prep.DepthwiseConv2d.depthwise.weight f4 [3, 1, 3, 3]
0.425709 0.010201657 -0.37132606 -2.4394019 0.15702698 2.3324342 -2.9146802 0.08308173
2.6222847 0.5119615 -0.093191154 -0.33924156 -2.4590921 0.07158786 2.4487739 -2.6535933
0.33154133 2.062181 0.45367968 0.047931228 -0.40874848 -2.4285204 -0.45201176 3.0914302
-3.5104263 0.8659049 1.9830484
00000000: 88f6 d93e da24 273c 731e bebe 291f 1cc0
00000010: aecb 203e 9a46 1540 1f8a 3ac0 c126 aa3d
00000020: 83d3 2740 e90f 033f 01db bebd 12b1 adbe
00000030: c461 1dc0 a89c 923d b6b8 1c40 79d4 29c0
00000040: c9bf a93e c6fa 0340 b448 e83e 8953 443d
00000050: 7b47 d1be e16c 1bc0 166e e7be fed9 4540
00000060: d3aa 60c0 f2ab 5d3f 88d4 fd3f

prep.DepthwiseConv2d.pointwise.weight f4 [64, 3, 1, 1]
-0.5779188 -0.5770834 -0.3567748 -0.5044234 -0.29548898 -0.37584424 -0.53169125 -0.31420103
0.064132765 0.2471865 0.26467517 0.5793019 0.9461549 -1.1460706 -0.64658725 0.3184005
-0.027702734 0.85744214 -0.2617638 -0.19623356 0.51668 -0.06294495 0.032697473 -0.04555948
0.4166053 -0.49240354 0.19970411 0.317289 0.18328518 0.00065797195 0.26043865 0.115395606
-0.28306237 0.78906924 0.55123115 -0.08559729 0.3703786 0.31329128 0.49181718 -0.5306385
0.31215015 1.0091277 0.07566508 0.07859842 0.7811487 -0.11418755 0.44638908 -0.25746745
-0.7674841 0.98679566 -0.24581541 0.015864037 0.22319533 0.07268011 0.6801509 0.27465075
-1.3394654 -0.9833809 1.0676376 0.20410582 0.5975349 -0.8069805 0.6167751 -0.27694038
0.4169121 -0.18059917 -0.6023926 -0.3785043 -0.6432654 -0.34411782 -0.38211697 -0.13379872
0.41594213 0.093306 0.11898304 1.1776009 -1.5685167 0.30263343 0.19928081 0.24645615
0.2630643 -0.27125028 0.54604936 0.31190878 -0.31758422 -0.3421766 -0.29402605 -0.06473839
-0.12402159 0.38189918 0.0022858544 -0.19115345 -0.12648894 0.38914785 -0.2725206 -0.31826717
0.107322626 -1.0120144 -0.16337535 -1.1132703 -0.9031421 0.30701992 -0.18798828 0.12045549
1.112462 -0.2666863 -0.2596072 -0.49387386 0.10776296 -0.067495205 -1.2790542 0.29758096
-0.098783 -0.11804272 0.13985753 1.2566779 -0.5978828 0.7894511 0.90783924 -1.3549192
-0.17298768 -0.46943545 -0.2861092 0.10174309 -0.9853025 0.7234127 -0.59783846 -0.24209802
-0.3400321 0.9986128 0.038259022 -0.9629496 -1.5156307 0.12562118 1.3784783 0.11124326
0.25492287 0.25277132 -0.27877823 0.21910408 0.07982359 0.87381196 0.57184684 0.11884125
-0.34483555 -0.30703452 0.14087854 0.016035998 -0.3657197 -0.7260452 0.09099378 -0.24486591
0.05001474 0.525038 0.5131121 0.4639027 0.47884375 0.5387925 0.68148404 -0.98650795
0.69436 -0.57558984 0.36861482 0.47780517 0.3333824 0.30255023 -0.41968307 -0.016927307
0.60144085 0.3419834 -0.25725675 0.01564296 0.14848985 0.025445923 0.12443968 -0.18299392
0.18430525 0.35208276 0.19158654 0.44073892 -0.32949397 0.20629855 0.09253393 0.8961166
0.48706037 -0.51257974 0.6160968 0.606756 0.7087193 -0.4942986 -0.7497333 0.84078634
00000000: 7df2 13bf bdbb 13bf 30ab b6be e421 01bf
00000010: 554a 97be a86e c0be eb1c 08bf f5de a0be
00000020: 0a58 833d 751e 7d3e 8183 873e 214d 143f
00000030: 3537 723f 71b2 92bf be86 25bf 6405 a33e
00000040: d8f0 e2bc 5481 5b3f e805 86be 73f1 48be
00000050: 2445 043f 48e9 80bd c9ed 053d 949c 3abd
00000060: 4a4d d53e 511c fcbe 3c7f 4c3e b473 a23e
00000070: 1caf 3b3e c07b 2c3a 3758 853e 8854 ec3d
00000080: 8ded 90be 7100 4a3f 7c1d 0d3f a24d afbd
00000090: 44a2 bd3e b767 a03e 76cf fb3e edd7 07bf
000000a0: 25d2 9f3e 192b 813f 4bf6 9a3d 35f8 a03d
000000b0: 5cf9 473f 2adb e9bd 1c8d e43e c6d2 83be
000000c0: d779 44bf a49e 7c3f 09b7 7bbe 4cf5 813c
000000d0: 518d 643e 4fd9 943d 5f1e 2e3f 069f 8c3e
000000e0: 9a73 abbf dabe 7bbf 59a8 883f 1e01 513e
000000f0: 0cf8 183f 4696 4ebf f9e4 1d3f 21cb 8dbe
00000100: 8175 d53e fdee 38be 6736 1abf 51cb c1be
00000110: 0bad 24bf 3630 b0be d6a4 c3be 8802 09be
00000120: 5ef6 d43e 3717 bf3d 61ad f33d a0bb 963f
00000130: 28c5 c8bf c5f2 9a3e 4510 4c3e 005f 7c3e
00000140: 5db0 863e 51e1 8abe e4c9 0b3f 82b2 9f3e
00000150: 669a a2be c531 afbe 958a 96be 9095 84bd
00000160: 08ff fdbd 4a88 c33e 46ce 153b bbbd 43be
00000170: 5186 01be 633e c73e d287 8bbe eaf3 a2be
00000180: f7cb db3d b089 81bf de4b 27be a47f 8ebf
00000190: 5234 67bf b731 9d3e 0080 40be 5eb1 f63d
000001a0: 2865 8e3f 1b8b 88be 3ceb 84be 09dd fcbe
000001b0: d4b2 dc3d ed3a 8abd 0cb8 a3bf 885c 983e
000001c0: be4e cabd 62c0 f1bd d036 0f3e d2da a03f
000001d0: d90e 19bf 7819 4a3f 2768 683f fe6d adbf
000001e0: af23 31be d859 f0be e87c 92be ae5e d03d
000001f0: c93c 7cbf 9331 393f f10b 19bf 8be8 77be
00000200: b018 aebe 17a5 7f3f 7eb5 1c3d dd83 76bf
00000210: 3000 c2bf d7a2 003e fa71 b03f 82d3 e33d
00000220: 4085 823e 3e6b 813e 05bc 8ebe d25c 603e
00000230: 8d7a a33d 24b2 5f3f 8e64 123f 0b63 f33d
00000240: 498e b0be a133 9dbe 7742 103e ed5d 833c
00000250: 9d3f bbbe 19de 39bf f25a ba3d 21be 7abe
00000260: 42dc 4c3d e468 063f 515b 033f a884 ed3e
00000270: 022b f53e 4eee 093f bd75 2e3f c98b 7cbf
00000280: 94c1 313f db59 13bf 15bb bc3e e1a2 f43e
00000290: 19b1 aa3e dde7 9a3e b3e0 d6be 23ab 8abc
000002a0: 07f8 193f 7318 af3e 28b7 83be aa25 803c
000002b0: b90d 183e f873 d03c 3bda fe3d c262 3bbe
000002c0: 84ba 3c3e 3144 b43e 432f 443e 88a8 e13e
000002d0: 6fb3 a8be ed3f 533e 6e82 bd3d e667 653f
000002e0: fa5f f93e 6d38 03bf 85b8 1d3f 5c54 1b3f
000002f0: a16e 353f b514 fdbe 86ee 3fbf c63d 573f

prep.DepthwiseConv2d.pointwise.bias f4 [64]
0.052372504 0.25730443 0.52776045 0.5617652 -0.07987741 -0.0027679384 -0.088575095 -0.03661531
-0.039226316 -0.004339073 0.02759526 0.1430628 -0.09785864 0.023385648 0.38012847 0.007252067
-0.01742251 -0.12244105 -0.35158178 0.056085087 0.042371176 -0.057345588 0.004650789 0.08299673
-0.0010415101 0.005736171 0.76407784 0.099242836 -0.021005815 0.08973127 -0.05976695 -0.09021329
-0.052242227 -0.06476448 0.03634568 -0.7251111 -0.42774692 -0.067375354 -0.0021773484 -0.09272718
-0.01607754 0.057847593 0.056816477 -0.04084706 0.112647995 0.09302674 0.030162988 0.08434722
0.31157705 -0.18860087 0.010349589 0.10841366 0.16273692 -0.06944063 -0.017805813 0.10567024
0.33703524 -0.052115235 0.17831257 0.20499247 -0.051923566 -0.042765822 0.20997204 0.06377182
00000000: 8d84 563d 68bd 833e 4f1b 073f d8cf 0f3f
00000010: c496 a3bd 4d66 35bb dc66 b5bd eff9 15bd
00000020: c6ab 20bd c82e 8ebb 740f e23c 0e7f 123e
00000030: 1c6a c8bd 4293 bf3c 33a0 c23e bfa2 ed3b
00000040: a7b9 8ebc 60c2 fabd 8702 b4be 7ab9 653d
00000050: 668d 2d3d 35e3 6abd a565 983b 31fa a93d
00000060: 4883 88ba 7df6 bb3b 9b9a 433f d43f cb3d
00000070: 6314 acbc 07c5 b73d 30ce 74bd bfc1 b8bd
00000080: f2fb 55bd 3da3 84bd 35df 143d e2a0 39bf
00000090: a501 dbbe 17fc 89bd d8b1 0ebb bfe7 bdbd
000000a0: 0cb5 83bc 99f1 6c3d 65b8 683d 3f4f 27bd
000000b0: feb3 e63d ce84 be3d 5f18 f73c 3cbe ac3d
000000c0: 0787 9f3e 9620 41be 5391 293c fb07 de3d
000000d0: 82a4 263e e436 8ebd 7fdd 91bc a469 d83d
000000e0: e28f ac3e c976 55bd 9297 363e 8ce9 513e
000000f0: cead 54bd 372b 2fbd e902 573e cd9a 823d

cb1.DepthwiseConv2d.depthwise.weight f4 [64, 1, 3, 3]
-0.1294273 -0.23297979 0.56222755 -0.25489578 -0.5357342 -0.061409935 -0.052668244 -0.06663836
0.26946732 0.21765868 -0.13013637 -0.036414422 0.20637184 0.020384006 0.0889026 -0.5850053
-0.09705114 0.38487378 -0.418114 -0.09972982 -0.12432425 0.0511162 0.13768542 -0.15451676
-0.2660713 0.6759777 0.19470467 0.27212188 0.097411774 -0.56790364 -0.28148606 0.2907307
-0.016431289 -0.3927344 0.1870968 0.4418206 -0.47805044 -0.042257816 -0.4050998 -0.26821443
-0.13852695 -0.14938208 -0.14838496 -0.12264281 -0.021153623 -0.05247081 0.22138844 0.10972006
0.31668755 0.22371632 -0.2810085 0.35258275 0.19106622 0.33712277 -0.20544735 -0.18128254
-0.094622396 -0.19698562 -0.13737236 -0.18753119 -0.2727663 -0.1837385 -0.18067366 -0.009049281
0.020458654 0.004749746 0.026295379 0.10172027 0.10806432 -0.008965116 -0.06274577 -0.002450116
0.21122067 0.30457276 0.30659556 0.03417808 0.11396688 0.22751829 -0.067765415 -0.12731564
-0.004717013 -0.0635425 -0.060156986 -0.010687631 -0.027265854 -0.13454558 -0.16189326 -0.13858578
-0.22988622 0.054080762 -0.0010130993 -0.1952001 -0.21919858 -0.01681102 0.014011265 -0.16395555
0.045662984 -0.089685254 -0.14134572 -0.07938766 0.4410166 0.1991675 0.40702176 0.53717184
-0.15675655 -0.14310317 -0.07970778 -0.03724194 -0.5028279 -0.21884717 0.2922629 -0.17342687
-0.011085073 -0.12813403 -0.0077620796 -0.01483357 -0.23294605 -0.52333665 0.112080425 0.16354597
-0.2804934 0.24169238 -0.050638165 -0.30646637 -0.48570803 -0.3548386 0.03384646 -0.08818057
-0.13658476 0.091343634 -0.20414335 -0.45136872 0.44312283 -0.09323459 0.6974127 -0.07647244
0.016371043 -0.02913498 -0.091787905 -0.2164042 -0.17568369 -0.19410144 -0.27109632 -0.09160207
0.69402885 -0.03543948 -0.10616598 0.57247573 0.08172182 -0.2585921 0.40565878 0.053997546
0.012669403 -0.12870994 0.042701315 0.053978518 -0.11171634 -0.08973524 0.00813952 -0.107981846
-0.030687956 0.054154657 -0.36764723 -0.28052643 -0.5023379 -0.32252324 -0.3747043 -0.30151436
-0.4440625 -0.062722534 -0.12190205 -0.21326773 -0.1563684 -0.42511845 -0.1729097 -0.37418595
-0.32368314 -0.14687625 0.012447393 -0.31047937 0.092626974 0.32954594 0.17553894 0.117979296
0.018507028 0.27491963 0.21411443 0.13365743 0.19864395 0.14021474 0.13640907 0.23587933
0.091031045 0.03814154 0.26955965 0.040981337 -0.1643953 0.20803912 0.053849675 0.13735442
0.46627176 0.18630177 0.3429125 0.25739545 -0.23957008 -0.24225408 -0.58071953 0.0010789101
0.19962841 -0.09399038 0.28961504 0.109005876 -0.0026228111 -0.3358066 -0.18600826 -0.016959308
-0.06126593 -0.0038000667 0.14191604 0.1389325 -0.25646457 -0.13166739 0.18138593 -0.16018622
-0.007358901 -0.44019887 -0.19115114 -0.40483356 -0.33161503 -0.35175887 -0.3266963 -0.23743719
-0.046845898 -0.2766473 0.19441687 0.5825471 -0.3018306 0.058055688 0.224477 -0.08347486
0.14549251 -0.16358784 -0.7183571 -0.050464112 -0.21760508 -0.3349435 -0.15758787 -0.122901045
0.01217278 -0.28726298 -0.13284852 -0.036987126 -0.12770666 0.04700095 0.017469686 0.22656268
00000000: 9788 04be 4192 6ebe 25ee 0f3f b381 82be
00000010: e025 09bf fc88 7bbd a8ba 57bd b179 88bd
00000020: 9ff7 893e ebe1 5e3e 7842 05be 4a27 15bd
00000030: 2453 533e 5cfc a63c 9112 b63d e8c2 15bf
00000040: c0c2 c6bd 2d0e c53e 0a13 d6be 263f ccbd
00000050: b69d febd 385f 513d 68fd 0c3e a439 1ebe
00000060: 7f3a 88be e00c 2d3f a960 473e 8f53 8b3e
00000070: d37f c73d 2262 11bf f11e 90be a8da 943e
00000080: e99a 86bc 7c14 c9be 4e96 3f3e 4f36 e23e
00000090: 07c3 f4be 8816 2dbd 3e69 cfbe 6753 89be
000000a0: 02da 0dbe 9ef7 18be 3af2 17be 272c fbbd
000000b0: 5d4a adbc a2eb 56bd a7b3 623e e9b4 e03d
000000c0: df24 a23e e415 653e 59e0 8fbe ba85 b43e
000000d0: dda6 433e 5b9b ac3e ca60 52be 21a2 39be
000000e0: 63c9 c1bd 99b6 49be 57ab 0cbe 2d08 40be
000000f0: 06a8 8bbe f225 3cbe 8402 39be 6f43 14bc
00000100: e898 a73c c2a3 9b3b 6869 d73c b852 d03d
00000110: d450 dd3d 6ce2 12bc db80 80bd 2092 20bb
00000120: 3b4a 583e f6f0 9b3e 18fa 9c3e 50fe 0b3d
00000130: 7867 e93d 8efa 683e 98c8 8abd 085f 02be
00000140: 2c91 9abb 9222 82bd 2c67 76bd 2c1b 2fbc
00000150: a45c dfbc 51c6 09be 59c7 25be 6ee9 0dbe
00000160: 4b67 6bbe ca83 5d3d f9c9 84ba 89e2 47be
00000170: 9875 60be 44b7 89bc 818f 653c f7e3 27be
00000180: 1c09 3b3d e7ac b7bd efbc 10be ff95 a2bd
00000190: eecc e13e 91f2 4b3e 2865 d03e 1884 093f
000001a0: ca84 20be a389 12be d53d a3bd 018b 18bd
000001b0: 54b9 00bf 7919 60be 7ca3 953e d096 31be
000001c0: 2b9e 35bc 9135 03be 0b59 febb 8108 73bc
000001d0: 6989 6ebe 64f9 05bf 6c8a e53d 9878 273e
000001e0: d59c 8fbe 357e 773e f769 4fbd 29e9 9cbe
000001f0: b9ae f8be 68ad b5be 96a2 0a3d 0498 b4bd
00000200: e0dc 0bbe 5f12 bb3d f40a 51be cd19 e7be
00000210: ffe0 e23e c7f1 bebd a489 323f 959d 9cbd
00000220: 911c 863c 7bac eebc 4cfb bbbd 1099 5dbe
00000230: 6de6 33be 87c2 46be 23cd 8abe de99 bbbd
00000240: e0ab 313f fd28 11bd 8d6d d9bd c58d 123f
00000250: c55d a73d 2f66 84be 82b2 cf3e 882c 5d3d
00000260: 5493 4f3c 8acc 03be 93e7 2e3d 9418 5d3d
00000270: 89cb e4bd 1cc7 b7bd 9f5b 053c 9625 ddbd
00000280: 4f65 fbbc 46d1 5d3d 423c bcbe 29a1 8fbe
00000290: 3799 00bf c421 a5be 3ed9 bfbe 1760 9abe
000002a0: 295c e3be ac74 80bd c8a7 f9bd db62 5abe
000002b0: 0a1f 20be 20a9 d9be 3e0f 31be 4d95 bfbe
000002c0: ccb9 a5be ba66 16be 26f0 4b3c 27f7 9ebe
000002d0: 36b3 bd3d 3fba a83e 7bc0 333e 219f f13d
000002e0: 0d9c 973c 44c2 8c3e d040 5b3e 7edd 083e
000002f0: 5269 4b3e 7494 0f3e d2ae 0b3e 5a8a 713e
00000300: 7c6e ba3d 4e3a 1c3d b903 8a3e 0cdc 273d
00000310: 3e57 28be 3508 553e 7a91 5c3d a3a6 0c3e
00000320: 2cbb ee3e e4c5 3e3e 3a92 af3e 56c9 833e
00000330: dc51 75be 7411 78be 09aa 14bf 376a 8d3a
00000340: 646b 4c3e 077e c0bd 6c48 943e 793e df3d
00000350: 78e3 2bbb d8ee abbe f378 3ebe 3fee 8abc
00000360: fcf1 7abd 8a0a 79bb 7052 113e 5244 0e3e
00000370: 534f 83be d1d3 06be 3cbd 393e db07 24be
00000380: f022 f1bb bf61 e1be 20bd 43be 5846 cfbe
00000390: 72c9 a9be bd19 b4be bd44 a7be bc22 73be
000003a0: 7ce1 3fbd b7a4 8dbe 3715 473e cf21 153f
000003b0: 8a89 9abe cdcb 6d3d 4cdd 653e def4 aabd
000003c0: fdfb 143e 9283 27be 40e6 37bf 75b3 4ebd
000003d0: ded3 5ebe b77d abbe b75e 21be 8bb3 fbbd
000003e0: 5770 473c 2214 93be 7109 08be d07f 17bd
000003f0: 89c5 02be 1184 403d 961c 8f3c 0c00 683e

cb1.DepthwiseConv2d.pointwise.weight f4 [128, 64, 1, 1]
-0.15312214 -0.31340137 0.056674205 0.043154676 0.05795424 -0.076777466 -0.058801167 0.0432742
-0.07987196 0.12548678 -0.1374092 0.05307877 -0.13682418 -0.02998645 0.22599663 0.03591593
-0.06007106 0.0313625 0.14583933 -0.05647602 -0.081421204 0.31183517 0.09554964 0.06497787
0.027965063 -0.07899247 -0.18736303 0.09047656 0.039442055 -0.20116445 -0.06903646 -0.15514676
-0.08439238 -0.29650193 -0.1865606 0.18785933 0.21317673 0.11144285 0.120213956 0.0013839976
0.011188698 -0.100266814 0.02594638 0.07336339 0.074792095 -0.1511987 0.029823625 0.014851409
-0.10574715 0.100532435 0.04633211 0.18201068 0.0745476 -0.029167287 -0.0014069075 0.043745693
0.0020676244 0.008190089 0.066818304 0.05775526 0.041864354 0.022508666 -0.37285537 -0.035245493
0.0011610972 -0.1195448 -0.18491134 -0.016536715 0.04721799 0.11328735 0.22707005 -0.14782272
0.16263893 -0.121465914 -0.26115158 -0.08885741 -0.16201657 0.08080928 0.31704548 -0.12511785
-0.008362525 -0.10309302 0.11303504 -0.13842247 0.0669879 0.023328777 0.27746364 0.06519867
0.017850839 -0.028125985 -0.09123813 -0.07628856 0.018735634 0.16043533 -0.16185367 0.04842729
-0.12823509 0.36980188 0.11057653 0.22795446 0.19283155 -0.18444234 -0.059834544 -0.0074226228
0.06317337 -0.107741006 0.110768616 -0.079480834 -0.007629172 0.20619945 0.13306387 -0.06061487
0.17644045 -0.062377132 -0.107708886 -0.0937903 0.0921808 -0.036851693 -0.08674586 0.010725998
0.12719192 -0.121084236 -0.09380426 -0.06594483 -0.015032715 0.24617198 -0.06933084 0.05186106
0.16725643 0.15127723 0.028604012 -0.25026685 0.08019999 0.049760304 0.0801943 -0.0071050767
-0.15847193 0.06877488 0.08653572 -0.107954375 -0.028830895 -0.031515382 -0.049943134 0.092765495
-6.926961e-05 0.046597466 0.11642091 0.21150604 0.09561097 0.10430349 -0.010601056 -0.1345856
0.21630606 0.31985894 -0.079810984 0.045080792 0.01715768 -0.025453398 -0.09555831 0.20095916
-0.047960866 0.17688002 -0.2160073 -0.08339828 -0.13950582 -0.0037039255 0.13690951 -0.6011329
0.09197503 -0.036038082 -0.040530846 -0.23853157 -0.15261568 -0.078920685 -0.08317521 -0.035268236
-0.032503556 -0.1130197 -0.09168988 0.07918026 0.29141968 -0.20876408 0.20792837 0.19141342
0.16382784 -0.03853113 0.066049665 -0.008061961 -0.086244285 -0.10425978 -0.1141478 -0.2424743
0.22855823 -0.0034810016 -0.014369753 0.047240056 0.20060217 0.085002095 0.032853357 0.062430974
-0.076986484 0.14179905 -0.10100315 0.00674507 0.05843345 -0.15829575 0.15088679 0.038050573
-0.15774116 -0.28236738 -0.10568584 -0.06305475 0.033424046 -0.16695932 -0.11496788 0.0026909804
0.016050987 -0.10428284 -0.10410232 0.0076905685 -0.022435134 0.03159885 0.2372084 0.13529067
0.04236017 0.17597517 -0.27425092 0.20485225 -0.0011583605 0.11838059 0.12107631 -0.13711333
-0.14381619 -0.19951846 0.26407808 0.0909053 0.14435813 0.18699111 -0.05629807 0.0032717765
0.039336644 -0.004202373 -0.040022895 0.063603505 -0.03607925 -0.30257505 -0.032520145 -0.04259369
0.069093324 0.02999712 0.027284365 -0.07355964 0.08784185 -0.25241372 0.11226659 0.083891355
00000000: 0dcc 1cbe 2576 a0be 3623 683d f5c2 303d
00000010: 6d61 6d3d 813d 9dbd 7ed9 70bd 4a40 313d
00000020: e993 a3bd 9b7f 003e ffb4 0cbe 2069 593d
00000030: a31b 0cbe 25a6 f5bc a96b 673e 951c 133d
00000040: 120d 76bd f775 003d e856 153e 6653 67bd
00000050: 29c0 a6bd dca8 9f3e 88af c33d 1e13 853d
00000060: fd16 e53c cec6 a1bd 18dc 3fbe c64b b93d
00000070: fe8d 213d 0efe 4dbe fd62 8dbd cbde 1ebe
00000080: ead5 acbd 1acf 97be be09 3fbe 325e 403e
00000090: 004b 5a3e 263c e43d bc32 f63d 4167 b53a
000000a0: cd50 373c b058 cdbd 818d d43c 8c3f 963d
000000b0: 992c 993d d5d3 1abe ad50 f43c 5353 733c
000000c0: f691 d8bd f3e3 cd3d bdc6 3d3d 0261 3a3e
000000d0: 69ac 983d 3cf0 eebc fb67 b8ba af2e 333d
000000e0: fb80 073b b92f 063c 09d8 883d c890 6c3d
000000f0: f579 2b3d 1864 b83c e6e6 bebe 945d 10bd
00000100: f52f 983a e7d3 f4bd 6659 3dbe 0178 87bc
00000110: a767 413d 3303 e83d 0d85 683e d75e 17be
00000120: d28a 263e 1fc3 f8bd a9b5 85be e0fa b5bd
00000130: ace7 25be 567f a53d c953 a23e e51e 00be
00000140: f902 09bc 6f22 d3bd ea7e e73d 9fbe 0dbe
00000150: f430 893d fe1b bf3c b70f 8e3e e186 853d
00000160: ec3b 923c 7768 e6bc 0fdb babd 2d3d 9cbd
00000170: 797b 993c 2949 243e f8bc 25be b25b 463d
00000180: 0f50 03be ac56 bd3e f375 e23d e56c 693e
00000190: a275 453e 74de 3cbe 1115 75bd 7939 f3bb
000001a0: 0a61 813d 51a7 dcbd a8da e23d d9c6 a2bd
000001b0: 22fe f9bb f325 533e e541 083e 4c47 78bd
000001c0: ceac 343e 2a7f 7fbd 7a96 dcbd 2115 c0bd
000001d0: 4ac9 bc3d cdf1 16bd d0a7 b1bd 19bc 2f3c
000001e0: 993e 023e 03fb f7bd 731c c0bd 150e 87bd
000001f0: c74b 76bc 8214 7c3e 54fd 8dbd 436c 543d
00000200: 4545 2b3e 6be8 1a3e f652 ea3c fa22 80be
00000210: e43f a43d 76d1 4b3d e93c a43d b4d1 e8bb
00000220: 7746 22be d8d9 8c3d a439 b13d 2f17 ddbd
00000230: c52e ecbc 4616 01bd 2c91 4cbd d6fb bd3d
00000240: d744 91b8 fcdc 3e3d 166e ee3d 0a95 583e
00000250: afcf c33d 119d d53d 0db0 2dbc cfd0 09be
00000260: 567f 5d3e 8dc4 a33e f173 a3bd a3a6 383d
00000270: 438e 8c3c a583 d0bc 13b4 c3bd 3dc8 4d3e
00000280: 9d72 44bd 0920 353e 0531 5dbe b8cc aabd
00000290: 9dda 0ebe 8fbd 72bb 0232 0c3e d9e3 19bf
000002a0: 685d bc3d ab9c 13bd ac03 26bd 9f41 74be
000002b0: 4947 1cbe 2ba1 a1bd c457 aabd 6d75 10bd
000002c0: 7322 05bd df76 e7bd e7c7 bbbd 4329 a23d
000002d0: f634 953e 40c6 55be 2deb 543e e101 443e
000002e0: 7cc2 273e d1d2 1dbd 0c45 873d 5116 04bc
000002f0: d8a0 b0bd 2786 d5bd 52c6 e9bd 2f4b 78be
00000300: 2b0b 6a3e 8421 64bb 1d6f 6bbc ca7e 413d
00000310: a86a 4d3e 9415 ae3d 3e91 063d 9fb7 7f3d
00000320: 17ab 9dbd c533 113e bdda cebd c005 dd3b
00000330: ea57 6f3d 4818 22be 1182 1a3e ebda 1b3d
00000340: e686 21be 7592 90be d171 d8bd d922 81bd
00000350: a7e7 083d 62f7 2abe 4874 ebbd 295b 303b
00000360: 5c7d 833c 3e92 d5bd 9933 d5bd 2a01 fc3b
00000370: e3c9 b7bc cc6d 013d c2e6 723e a389 0a3e
00000380: dc81 2d3d d632 343e 9e6a 8cbe cac4 513e
00000390: 21d4 97ba 8671 f23d dbf6 f73d 7067 0cbe
000003a0: 8d44 13be 914e 4cbe 3e35 873e 8f2c ba3d
000003b0: 9ed2 133e 997a 3f3e ce98 66bd 4d6b 563b
000003c0: 761f 213d 0fb4 89bb 0cef 23bd 8e42 823d
000003d0: d6c7 13bd 1eeb 9abe d833 05bd b976 2ebd
000003e0: cd80 8d3d 85bc f53c 7683 df3c 70a6 96bd
000003f0: 6ee6 b33d 5f3c 81be 07ec e53d 3bcf ab3d

cb1.DepthwiseConv2d.pointwise.bias f4 [128]
-0.17964272 -0.25773114 0.16225335 -0.29501513 -0.034921583 -0.29445717 0.2666109 0.3519332
-0.15674537 0.26868543 0.04243756 -0.6746058 -0.023213407 0.20146246 -0.0015164154 0.3379806
0.11540248 -0.13950677 0.192602 0.15276727 -0.078810364 0.042171944 0.016138835 0.28292394
-0.1340032 0.03643641 0.06322872 0.24849658 -0.19238508 0.1579418 -0.21497147 0.043647602
0.28135225 -0.1644568 -0.003678831 -0.33190814 -0.012621167 -0.12362404 -0.04263221 0.1488622
0.088735156 -0.062002864 0.39139983 0.16620225 0.055065017 0.8105937 -0.27556524 0.0054284898
0.21008596 0.21388304 -0.012421732 0.049450453 0.028285725 -0.03741182 0.29327807 -0.0821937
0.06566109 0.2191153 -0.20363618 0.38890356 -0.16383807 0.110449366 -0.02876642 0.41823524
0.17627114 -0.3709049 0.12010716 -0.02283957 -0.22611377 -0.1155903 -0.17858379 -0.011319759
-0.36171865 -0.2785318 0.4384252 -0.045717046 -0.011324409 -0.01993026 0.1118473 -0.077708505
0.51848227 0.16102003 -0.11570363 0.020035012 0.45663202 -0.056946464 0.024107667 -0.55387926
0.059581008 0.043588497 0.20450158 0.30782646 0.12647894 0.727585 0.30638993 -0.06726723
0.1880437 -0.103162035 0.5594129 0.047524266 0.06656903 -0.12906265 0.0900876 0.08794758
-0.13109216 -0.28561008 -0.121737316 -0.15838513 0.19746852 -0.07200901 -0.1067499 0.0072883023
-0.32988477 0.007753977 -0.076864414 0.06563682 0.35193524 0.16094922 0.0778083 -0.06776548
0.03847531 -0.011656155 -0.17452943 -0.19307874 0.14663193 0.36659616 0.019892685 0.07373475
00000000: 43f4 37be 56f5 83be be25 263e 390c 97be
00000010: ef09 0fbd 17c3 96be 3981 883e 9730 b43e
00000020: dc81 20be 2391 893e 02d3 2d3d f7b2 2cbf
00000030: 0b2a bebc 2d4c 4e3e 75c2 c6ba cb0b ad3e
00000040: 2358 ec3d ddda 0ebe 7539 453e 066f 1c3e
00000050: 5467 a1bd 7dbc 2c3d 9735 843c 68db 903e
00000060: 2338 09be 583e 153d 0f7e 813d e375 7e3e
00000070: 9800 45be 7fbb 213e 7b21 5cbe d4c7 323d
00000080: 670d 903e 5d67 28be 8b18 71bb ddef a9be
00000090: 03c9 4ebc 9a2e fdbd 1d9f 2ebd 556f 183e
000000a0: c7ba b53d b7f6 7dbd 8f65 c83e ec30 2a3e
000000b0: db8b 613d 1283 4f3f e316 8dbe 79e1 b13b
000000c0: c620 573e 2804 5b3e 8584 4bbc 8f8c 4a3d
000000d0: 77b7 e73c 233d 19bd 8b28 963e 2c55 a8bd
000000e0: 5279 863d c35f 603e 0186 50be 5e1e c73e
000000f0: 2bc5 27be 4733 e23d 8ea7 ebbc ee22 d63e
00000100: 6c80 343e 3fe7 bdbe befa f53d 0d1a bbbc
00000110: 5e8a 67be 9bba ecbd abde 36be 8376 39bc
00000120: 3033 b9be b89b 8ebe 4579 e03e cc41 3bbd
00000130: 048a 39bc c944 a3bc 3210 e53d a325 9fbd
00000140: 41bb 043f 6fe2 243e 06f6 ecbd 7720 a43c
00000150: accb e93e b240 69bd 717d c53c 08cb 0dbf
00000160: 370b 743d da89 323d dd68 513e 6e9b 9d3e
00000170: b283 013e 0343 3a3f 24df 9c3e 67c3 89bd
00000180: 878e 403e 9e46 d3bd af35 0f3f cea8 423d
00000190: 5855 883d 0029 04be d97f b83d dc1d b43d
000001a0: 063d 06be 7c3b 92be 6a51 f9bd b62f 22be
000001b0: 3035 4a3e 7679 93bd b19f dabd b6d2 ee3b
000001c0: a8e6 a8be 1315 fe3b 176b 9dbd 996c 863d
000001d0: db30 b43e dfcf 243e f559 9f3d a1c8 8abd
000001e0: 4998 1d3d 75f9 3ebc d8b7 32be 6fb6 45be
000001f0: ae26 163e 7eb2 bb3e fcf5 a23c 3f02 973d

res1.0.conv1.depthwise.weight f4 [128, 1, 3, 3]
-0.052664284 -0.040083386 0.020509405 0.037522428 -0.012830386 -0.050233133 -0.048555624 0.034730077
0.021282518 -0.014736492 -0.016780244 -0.021927236 -0.08770678 0.0019772502 0.019421266 -0.009845739
0.005567296 0.0116078025 -0.029737735 0.035182316 -0.02656401 0.009314767 0.030359799 -0.024306381
0.028186811 0.0006665199 -0.024328496 0.022547316 0.009619775 -0.025153495 -0.031545207 -0.048245914
0.024172738 0.040541094 -0.12181211 0.038617574 0.06447226 0.0029894477 -0.016803322 -0.041713852
-0.006619432 -0.053992346 0.0059675733 -0.058819376 -0.020779015 0.004408537 0.0064268797 -0.00056770805
-0.05063069 0.03595345 0.042843018 -0.0009685358 -0.027298057 -0.021530349 0.003175299 -0.00044833947
0.010498568 0.06083695 -0.053795565 -0.06389294 0.047978945 0.0045824554 -0.026696969 -0.011155544
0.014089808 -0.003657306 -0.0011424023 0.072584294 -0.010047349 0.03401872 0.01604569 0.07639777
0.03532832 -0.07105871 -0.015113272 -0.033238117 0.024210738 0.07609226 -0.014416393 -0.06601127
0.056463767 0.038607426 -0.024286093 0.033597827 0.041982327 -0.040823814 -0.06685568 -0.0025692864
-0.017706325 0.010665143 -0.011108675 0.02254894 -0.019259272 0.027756006 0.053869415 -0.07916929
0.032691948 0.04385551 -0.0060266894 0.0016211094 -0.0009624096 0.008078568 0.0033865904 -0.029115064
0.0310926 0.019387439 0.011105925 -0.016043099 -0.024066616 -7.588798e-05 0.060736116 -0.027938321
-0.020063892 0.05995509 0.034796126 -0.06924692 -0.023891868 -0.016228825 -0.05141438 -0.034095522
0.012482635 -0.04822019 -0.016123584 -0.0047207107 0.01908387 -0.033924114 0.022913825 0.046069026
-0.0095980875 -0.021306992 0.008830959 0.00894043 0.026789015 0.037062846 0.05448793 -0.048374597
-0.011063681 -0.028650807 -0.011159365 0.024419568 0.03876942 0.041045837 -0.01033039 0.029562658
-0.0010671087 -0.02043856 0.049043626 0.016289433 -0.009721681 0.018523214 -0.019831946 -0.070168175
0.035017177 -0.0024259798 0.042251803 -0.0069132093 -0.02682859 0.0073455614 0.061136156 -0.050105352
0.0033565639 0.046032853 -0.0024098766 -0.03132211 -0.010362506 0.059440684 0.003485249 -0.030996248
-0.011742279 -0.021390738 -0.029982403 -0.03657526 -0.031844527 -0.010807986 0.025951006 0.0057828194
0.013900918 0.0044862367 -0.021188887 0.024434013 0.025909727 -0.011072318 0.025733093 -0.028653832
-0.02279989 0.0044340175 0.026585825 0.03213968 0.0026641353 0.051084496 -0.04282327 0.03325513
0.089945376 -0.10100897 -0.060259994 -0.01980103 -0.015508306 0.02589151 -0.022402512 -0.021858847
-0.01788994 -0.029604383 0.034067202 0.01852013 -0.05222504 -0.03471321 0.05362256 -0.110558815
-0.058134552 0.009648542 0.018215861 -0.020399893 0.0039985417 -0.017328447 -0.021427538 -0.0008391204
0.0458362 -0.062599264 0.030733319 0.0016644038 0.0724484 0.019822959 -0.014381334 0.014611409
-0.03014016 -0.012904079 0.045529917 0.0048283185 -0.022117551 0.0024895542 0.036894582 0.06319105
-0.06898668 -0.032970898 -0.047580097 -0.09186896 -0.013849169 -0.09415422 -0.011519062 -0.09397247
-0.0008839764 0.003287113 0.046868242 0.032822687 -0.013601942 -0.023672912 -0.007132315 0.019206714
0.033766776 -0.019310025 0.008361993 -0.01481703 0.02615458 -0.08203964 -0.04317139 0.023048453
00000000: 81b6 57bd 7a2e 24bd 5703 a83c 1eb1 193d
00000010: 8a36 52bc 42c1 4dbd 43e2 46bd 2041 0e3d
00000020: ad58 ae3c 5471 71bc b976 89bc bfa0 b3bc
00000030: 9d9f b3bd c194 013b 5919 9f3c 0650 21bc
00000040: dd6d b63b a72e 3e3c 8d9c f3bc 551b 103d
00000050: c49c d9bc f79c 183c 1db5 f83c 2d1e c7bc
00000060: 07e8 e63c 65b9 2e3a 8e4c c7bc 26b5 b83c
00000070: 439c 1d3c b40e cebc 8c35 01bd 829d 45bd
00000080: e805 c63c 6b0e 263d a178 f9bd 762d 1e3d
00000090: 080a 843d 9cea 433b 1fa7 89bc 25dc 2abd
000000a0: d2e7 d8bb 1427 5dbd a28b c33b 96ec 70bd
000000b0: c138 aabc 7d75 903b 9398 d23b 3ed2 14ba
000000c0: 2062 4fbd ed43 133d 297c 2f3d 56e5 7dba
000000d0: 2da0 dfbc 6a60 b0bc ad18 503b 1b0f ebb9
000000e0: 3002 2c3c 2a30 793d bd58 5cbd 4dda 82bd
000000f0: 9285 443d 6c28 963b 9ab3 dabc bec5 36bc
00000100: f0d8 663c 6aaf 6fbb a9bc 95ba 13a7 943d
00000110: a39d 24bc 3757 0b3d 4072 833c 6f76 9c3d
00000120: 6eb4 103d 3b87 91bd a89d 77bc b124 08bd
00000130: 9955 c63c 42d6 9b3d bc32 6cbc eb30 87bd
00000140: 8d46 673d d222 1e3d a1f3 c6bc e09d 093d
00000150: a9f5 2b3d df36 27bd a1eb 88bd 7961 28bb
00000160: db0c 91bc dabc 2e3c 2901 36bc 8eb8 b83c
00000170: 9fc5 9dbc 9060 e33c 2da6 5c3d 8223 a2bd
00000180: fee7 053d d6a1 333d 897b c5bb 687b d43a
00000190: 374a 7cba f85b 043c 8ff1 5d3b b782 eebc
000001a0: e9b5 fe3c 68d2 9e3c a0f5 353c d16c 83bc
000001b0: 5a27 c5bc 0d26 9fb8 6fc6 783d e8de e4bc
000001c0: 085d a4bc 7893 753d 6286 0e3d 54d1 8dbd
000001d0: e1b8 c3bc 50f2 84bc e397 52bd bfa7 0bbd
000001e0: f783 4c3c 8982 45bd 9b15 84bc 31b0 9abb
000001f0: c755 9c3c 03f4 0abd c6b5 bb3c e0b2 3c3d
00000200: 4c41 1dbc 008c aebc baaf 103c e27a 123c
00000210: a374 db3c 36cf 173d bc2e 5f3d 7124 46bd
00000220: 7144 35bc 19b5 eabc c5d5 36bc 8c0b c83c
00000230: afcc 1e3d ae1f 283d cc40 29bc 632d f23c
00000240: 3ade 8bba c46e a7bc f8e1 483d 6b71 853c
00000250: af47 1fbc ffbd 973c 9b76 a2bc 55b4 8fbd
00000260: 2c6e 0f3d 30fd 1ebb 3a10 2d3d 3488 e2bb
00000270: a2c7 dbbc 09b3 f03b e869 7a3d 453b 4dbd
00000280: ccf9 5b3b f28c 3c3d 05ef 1dbb 9d4b 00bd
00000290: 80c7 29bc 1378 733d c668 643b d8eb fdbc
000002a0: b062 40bc a13b afbc a89d f5bc f1cf 15bd
000002b0: 686f 02bd fb13 31bc 3497 d43c ce7d bd3b
000002c0: adc0 633c 4801 933b 5194 adbc d729 c83c
000002d0: a340 d43c ab68 35bc 35ce d23c 71bb eabc
000002e0: d6c6 babc 3c4b 913b 84ca d93c e6a4 033d
000002f0: c698 2e3b fa3d 513d 7467 2fbd 8836 083d
00000300: 4835 b83d cadd cebd 2fd3 76bd c535 a2bc
00000310: 8d16 7ebc 6f1a d43c 7985 b7bc 5311 b3bc
00000320: ec8d 92bc e484 f2bc 0d8a 0b3d 87b7 973c
00000330: ece9 55bd 702f 0ebd 54a3 5b3d a96c e2bd
00000340: 7f1e 6ebd eb14 1e3c 6e39 953c ad1d a7bc
00000350: 3306 833b 63f4 8dbc ce88 afbc 6bf8 5bba
00000360: bdbe 3b3d 0b34 80bd 71c4 fb3c 2028 da3a
00000370: d45f 943d c263 a23c b09f 6bbc b164 6f3c
00000380: 7fe8 f6bc a16b 53bc 947d 3a3d df36 9e3b
00000390: de2f b5bc ca27 233b c61e 173d 4f6a 813d
000003a0: e348 8dbd 7e0c 07bd 59e3 42bd cb25 bcbd
000003b0: a0e7 62bc edd3 c0bd 73ba 3cbc a374 c0bd
000003c0: a7ba 67ba 9b6c 573b eaf8 3f3d 1571 063d
000003d0: aeda 5ebc b2ed c1bc 32b6 e9bb 6657 9d3c
000003e0: 084f 0a3d 0f30 9ebc be00 093c 21c3 72bc
000003f0: 2142 d63c 6604 a8bd 7cd4 30bd 1cd0 bc3c

res1.0.conv1.pointwise.weight f4 [128, 128, 1, 1]
0.20300838 -0.1430027 -0.15106106 0.045607913 0.12480163 -0.08580354 -0.16385294 -0.03746675
0.015167456 -0.0038512696 0.19664294 -0.013655787 0.03111756 -0.10315558 -0.056127474 -0.17281623
-0.0085800765 -0.04785902 0.13255852 -0.06833126 -0.2152879 -0.01639045 0.031790733 -0.2206442
-0.04456945 -0.08739298 -0.07147039 0.079466745 -0.052057415 0.2252053 0.038800195 -0.092904195
-0.03468509 0.08049294 -0.120116495 -0.062703565 -0.17569208 0.06354813 0.085982196 -0.09382004
0.19702734 0.2801901 0.061696105 -0.008378867 -0.014968262 0.07094075 -0.1603414 0.066820286
-0.044705376 0.043295413 0.052730408 0.030411564 0.030970117 -0.11218424 -0.08525957 -0.03216123
0.0025629143 0.1141816 -0.12641864 0.071654655 -0.19853643 -0.09425419 0.14185587 -0.10649749
0.13148893 -0.02890943 0.17336386 -0.10358284 0.19339155 0.04012916 0.100512564 -0.09692964
0.16905116 -0.10256958 -0.2595838 -0.03667187 0.073743455 -0.33766687 0.048844587 0.100733325
0.08678097 -0.046110917 -0.20918196 -0.07720156 0.16745804 -0.12451329 0.036977503 -0.08595425
0.026525227 0.021936286 -0.028128834 0.02081113 -0.117116734 -0.053635385 -0.13463457 0.09161034
0.13912119 -0.03931487 0.14115614 -0.13346043 0.14770488 0.032611463 -0.1375167 -0.052743196
0.09338028 -0.053769823 -0.010964019 0.03530643 0.012468317 -0.029322973 -0.102184676 0.13535191
0.025366258 -0.010369778 -0.12681392 -0.10464021 0.12028351 -0.27568096 -0.0802831 0.0035738756
-0.08921672 -0.23042595 -0.028039347 0.13679372 -0.20365669 -0.06300835 0.12348328 0.0678198
-0.016515154 0.10487329 -0.023099069 -0.039197482 0.11418741 -0.09846761 0.041520588 0.06019223
-0.20595554 0.04505706 0.031952504 0.049998548 0.09665704 -0.08935528 -0.023304911 0.034563337
-0.12209716 -0.15790966 -0.046316873 0.14576805 0.0917067 -0.0106287375 0.15732782 0.009642751
0.086915486 -0.10774362 0.24582027 -0.029453065 -0.070681825 0.020883046 -0.13744268 -0.10626581
0.045261607 -0.27847826 0.0567461 -0.012994643 -0.099158235 0.07152843 0.13100858 0.15400298
-0.19237845 0.06333247 -0.07479134 -0.010918659 -0.06443055 -0.008017087 -0.11275093 -0.07357345
0.046023596 -0.018870251 0.03050127 -0.20734419 0.018546406 0.055063162 -0.19969526 0.15120734
0.19721897 0.014241119 0.026353994 0.17172205 -0.06716082 0.3016963 0.011747501 0.11756129
0.1343122 0.082791045 0.12632528 -0.16185915 -0.061696753 0.014067803 -0.07405915 0.013434895
-0.12045735 -0.1355683 0.09218102 0.09314718 0.09391695 0.020648245 -0.07100937 0.11167714
-0.03386477 0.15454192 -0.08605269 0.15351789 -0.1817125 -0.28839603 -0.13922048 -0.0069398386
0.13669054 0.062556 0.020869598 0.015863514 0.14861202 0.1617697 -0.09949476 0.10663448
-0.0062228576 0.034948457 -0.13052365 -0.09692312 0.07625185 -0.064695455 0.08690615 0.046204865
0.07225468 0.05384938 -0.102833904 0.05691925 0.13473688 -0.15612157 -0.2711233 0.056202017
-0.015761465 -0.12904684 0.025610361 -0.059130404 0.05442864 -0.20031019 -0.08246904 -0.016096031
0.07953324 -0.028604295 -0.086468436 -0.072265424 0.035448894 -0.01904699 0.05851651 -0.14289829
00000000: 6ee1 4f3e 4d6f 12be c0af 1abe 5dcf 3a3d
00000010: ff97 ff3d c4b9 afbd 11c9 27be bc76 19bd
00000020: ec80 783c 9565 7cbb c45c 493e 86bc 5fbc
00000030: 41ea fe3c 3c43 d3bd ece5 65bd bdf6 30be
00000040: 7393 0cbc d207 44bd 6cbd 073e 42f1 8bbd
00000050: 6e74 5cbe 4445 86bc 0037 023d 8ef0 61be
00000060: 758e 36bd 17fb b2bd 115f 92bd 76bf a23d
00000070: 283a 55bd 389c 663e f4ec 1e3d 8e44 bebd
00000080: f411 0ebd 7cd9 a43d a3ff f5bd ba6a 80bd
00000090: a0e8 33be 8625 823d 6f17 b03d b924 c0bd
000000a0: 89c1 493e 1475 8f3e 0eb5 7c3d 8447 09bc
000000b0: 713d 75bc 6249 913d 8930 24be 13d9 883d
000000c0: fc1c 37bd 8856 313d d7fb 573d ac21 f93c
000000d0: 0bb5 fd3c dac0 e5bd 929c aebd 7ebb 03bd
000000e0: 91f6 273b 0bd8 e93d e373 01be adbf 923d
000000f0: 224d 4bbe 5708 c1bd aa42 113e 5b1b dabd
00000100: 09a5 063e 78d3 ecbc 4c86 313e 3d23 d4bd
00000110: 6f08 463e 795e 243d 88d9 cd3d 0c83 c6bd
00000120: bf1b 2d3e 0010 d2bd 2be8 84be 3e35 16bd
00000130: cf06 973d ace2 acbe 4311 483d 464d ce3d
00000140: 39ba b13d cdde 3cbd cc33 56be da1b 9ebd
00000150: 1f7a 2b3e d300 ffbd b975 173d c808 b0bd
00000160: 6f4b d93c bab3 b33c 716e e6bc 1a7c aa3c
00000170: e6da efbd c7b0 5bbd a5dd 09be 349e bb3d
00000180: c975 0e3e a108 21bd 3c8b 103e daa9 08be
00000190: f33f 173e 9993 053d 2ed1 0cbe 4009 58bd
000001a0: 293e bf3d bf3d 5cbd 6ea2 33bc 7a9d 103d
000001b0: e947 4c3c bb36 f0bc 3346 d1bd b199 0a3e
000001c0: e6cc cf3c 00e6 29bc 82db 01be 9b4d d6bd
000001d0: 3357 f63d 0e26 8dbe 776b a4bd af37 6a3b
000001e0: 41b7 b6bd c8f4 6bbe c6b2 e5bc a713 0c3e
000001f0: 618b 50be 860a 81bd cde4 fc3d 1be5 8a3d
00000200: ca4a 87bc cfc7 d63d 423a bdbc 8a8d 20bd
00000210: 17db e93d 63a9 c9bd 7e11 2a3d 218c 763d
00000220: 02e6 52be c08d 383d a1e0 023d 47cb 4c3d
00000230: 20f4 c53d e7ff b6bd f1e9 bebc 4992 0d3d
00000240: 130e fabd 12b3 21be c3b6 3dbd 3844 153e
00000250: b9d0 bb3d 2824 2ebc 8b1a 213e a1fc 1d3c
00000260: bf00 b23d b0a8 dcbd 4fb8 7b3e 8e47 f1bc
00000270: a2c1 90bd ec12 ab3c c6bd 0cbe e4a1 d9bd
00000280: 3c64 393d b494 8ebe 996e 683d 7ce7 54bc
00000290: 7913 cbbd 7f7d 923d 1d27 063e f5b2 1d3e
000002a0: dbfe 44be 74b4 813d 342c 99bd 2de4 32bc
000002b0: 2af4 83bd 1a5a 03bc f6e9 e6bd adad 96bd
000002c0: 3d83 3c3d c995 9abc cddd f93c 0952 54be
000002d0: a2ee 973c e989 613d ea7c 4cbe 19d6 1a3e
000002e0: c5f3 493e 9553 693c 55e4 d73c e8d7 2f3e
000002f0: 9d8b 89bd f077 9a3e 9778 403c f9c3 f03d
00000300: 2389 093e 5a8e a93d 6a5b 013e 68be 25be
00000310: bcb5 7cbd a47c 663c 53ac 97bd 091e 5c3c
00000320: 58b2 f6bd 6bd2 0abe 67c9 bc3d f3c3 be3d
00000330: 8857 c03d 8226 a93c 5c6d 91bd fcb6 e43d
00000340: c9b5 0abd 3d40 1e3e 653c b0bd cb33 1d3e
00000350: d712 3abe a5a8 93be d08f 0ebe 9667 e3bb
00000360: 9bf8 0b3e 5c1d 803d b8f6 aa3c 33f4 813c
00000370: c02d 183e f5a6 253e e9c3 cbbd 2e63 da3d
00000380: 1de9 cbbb 1d26 0f3d fea7 05be a17f c6bd
00000390: ee29 9c3d 0d7f 84bd dafb b13d 5041 3d3d
000003a0: 43fa 933d 2b91 5c3d 959a d2bd 2924 693d
000003b0: 77f8 093e 55de 1fbe acd0 8abe 1634 663d
000003c0: 301e 81bc db24 04be d2cc d13c b932 72bd
000003d0: 91f0 5e3d 1d1e 4dbe 87e5 a8bd d3db 83bc
000003e0: 53e2 a23d 8e53 eabc 5d16 b1bd e5ff 93bd
000003f0: dc32 113d 6f08 9cbc 02af 6f3d ee53 12be

res1.0.conv1.pointwise.bias f4 [128]
0.0 0.0 0.0 0.0 0.0 0.0 0.0 0.0
0.0 0.0 0.0 0.0 0.0 0.0 0.0 0.0
0.0 0.0 0.0 0.0 0.0 0.0 0.0 0.0
0.0 0.0 0.0 0.0 0.0 0.0 0.0 0.0
0.0 0.0 0.0 0.0 0.0 0.0 0.0 0.0
0.0 0.0 0.0 0.0 0.0 0.0 0.0 0.0
0.0 0.0 0.0 0.0 0.0 0.0 0.0 0.0
0.0 0.0 0.0 0.0 0.0 0.0 0.0 0.0
0.0 0.0 0.0 0.0 0.0 0.0 0.0 0.0
0.0 0.0 0.0 0.0 0.0 0.0 0.0 0.0
0.0 0.0 0.0 0.0 0.0 0.0 0.0 0.0
0.0 0.0 0.0 0.0 0.0 0.0 0.0 0.0
0.0 0.0 0.0 0.0 0.0 0.0 0.0 0.0
0.0 0.0 0.0 0.0 0.0 0.0 0.0 0.0
0.0 0.0 0.0 0.0 0.0 0.0 0.0 0.0
0.0 0.0 0.0 0.0 0.0 0.0 0.0 0.0
00000000: 0000 0000 0000 0000 0000 0000 0000 0000
00000010: 0000 0000 0000 0000 0000 0000 0000 0000
00000020: 0000 0000 0000 0000 0000 0000 0000 0000
00000030: 0000 0000 0000 0000 0000 0000 0000 0000
00000040: 0000 0000 0000 0000 0000 0000 0000 0000
00000050: 0000 0000 0000 0000 0000 0000 0000 0000
00000060: 0000 0000 0000 0000 0000 0000 0000 0000
00000070: 0000 0000 0000 0000 0000 0000 0000 0000
00000080: 0000 0000 0000 0000 0000 0000 0000 0000
00000090: 0000 0000 0000 0000 0000 0000 0000 0000
000000a0: 0000 0000 0000 0000 0000 0000 0000 0000
000000b0: 0000 0000 0000 0000 0000 0000 0000 0000
000000c0: 0000 0000 0000 0000 0000 0000 0000 0000
000000d0: 0000 0000 0000 0000 0000 0000 0000 0000
000000e0: 0000 0000 0000 0000 0000 0000 0000 0000
000000f0: 0000 0000 0000 0000 0000 0000 0000 0000
00000100: 0000 0000 0000 0000 0000 0000 0000 0000
00000110: 0000 0000 0000 0000 0000 0000 0000 0000
00000120: 0000 0000 0000 0000 0000 0000 0000 0000
00000130: 0000 0000 0000 0000 0000 0000 0000 0000
00000140: 0000 0000 0000 0000 0000 0000 0000 0000
00000150: 0000 0000 0000 0000 0000 0000 0000 0000
00000160: 0000 0000 0000 0000 0000 0000 0000 0000
00000170: 0000 0000 0000 0000 0000 0000 0000 0000
00000180: 0000 0000 0000 0000 0000 0000 0000 0000
00000190: 0000 0000 0000 0000 0000 0000 0000 0000
000001a0: 0000 0000 0000 0000 0000 0000 0000 0000
000001b0: 0000 0000 0000 0000 0000 0000 0000 0000
000001c0: 0000 0000 0000 0000 0000 0000 0000 0000
000001d0: 0000 0000 0000 0000 0000 0000 0000 0000
000001e0: 0000 0000 0000 0000 0000 0000 0000 0000
000001f0: 0000 0000 0000 0000 0000 0000 0000 0000

res1.0.bn1.weight f4 [128]
0.0 0.0 0.0 0.0 0.0 0.0 0.0 0.0
0.0 0.0 0.0 0.0 0.0 0.0 0.0 0.0
0.0 0.0 0.0 0.0 0.0 0.0 0.0 0.0
0.0 0.0 0.0 0.0 0.0 0.0 0.0 0.0
0.0 0.0 0.0 0.0 0.0 0.0 0.0 0.0
0.0 0.0 0.0 0.0 0.0 0.0 0.0 0.0
0.0 0.0 0.0 0.0 0.0 0.0 0.0 0.0
0.0 0.0 0.0 0.0 0.0 0.0 0.0 0.0
0.0 0.0 0.0 0.0 0.0 0.0 0.0 0.0
0.0 0.0 0.0 0.0 0.0 0.0 0.0 0.0
0.0 0.0 0.0 0.0 0.0 0.0 0.0 0.0
0.0 0.0 0.0 0.0 0.0 0.0 0.0 0.0
0.0 0.0 0.0 0.0 0.0 0.0 0.0 0.0
0.0 0.0 0.0 0.0 0.0 0.0 0.0 0.0
0.0 0.0 0.0 0.0 0.0 0.0 0.0 0.0
0.0 0.0 0.0 0.0 0.0 0.0 0.0 0.0
00000000: 0000 0000 0000 0000 0000 0000 0000 0000
00000010: 0000 0000 0000 0000 0000 0000 0000 0000
00000020: 0000 0000 0000 0000 0000 0000 0000 0000
00000030: 0000 0000 0000 0000 0000 0000 0000 0000
00000040: 0000 0000 0000 0000 0000 0000 0000 0000
00000050: 0000 0000 0000 0000 0000 0000 0000 0000
00000060: 0000 0000 0000 0000 0000 0000 0000 0000
00000070: 0000 0000 0000 0000 0000 0000 0000 0000
00000080: 0000 0000 0000 0000 0000 0000 0000 0000
00000090: 0000 0000 0000 0000 0000 0000 0000 0000
000000a0: 0000 0000 0000 0000 0000 0000 0000 0000
000000b0: 0000 0000 0000 0000 0000 0000 0000 0000
000000c0: 0000 0000 0000 0000 0000 0000 0000 0000
000000d0: 0000 0000 0000 0000 0000 0000 0000 0000
000000e0: 0000 0000 0000 0000 0000 0000 0000 0000
000000f0: 0000 0000 0000 0000 0000 0000 0000 0000
00000100: 0000 0000 0000 0000 0000 0000 0000 0000
00000110: 0000 0000 0000 0000 0000 0000 0000 0000
00000120: 0000 0000 0000 0000 0000 0000 0000 0000
00000130: 0000 0000 0000 0000 0000 0000 0000 0000
00000140: 0000 0000 0000 0000 0000 0000 0000 0000
00000150: 0000 0000 0000 0000 0000 0000 0000 0000
00000160: 0000 0000 0000 0000 0000 0000 0000 0000
00000170: 0000 0000 0000 0000 0000 0000 0000 0000
00000180: 0000 0000 0000 0000 0000 0000 0000 0000
00000190: 0000 0000 0000 0000 0000 0000 0000 0000
000001a0: 0000 0000 0000 0000 0000 0000 0000 0000
000001b0: 0000 0000 0000 0000 0000 0000 0000 0000
000001c0: 0000 0000 0000 0000 0000 0000 0000 0000
000001d0: 0000 0000 0000 0000 0000 0000 0000 0000
000001e0: 0000 0000 0000 0000 0000 0000 0000 0000
000001f0: 0000 0000 0000 0000 0000 0000 0000 0000

res1.0.bn1.bias f4 [128]
0.0 0.0 0.0 0.0 0.0 0.0 0.0 0.0
0.0 0.0 0.0 0.0 0.0 0.0 0.0 0.0
0.0 0.0 0.0 0.0 0.0 0.0 0.0 0.0
0.0 0.0 0.0 0.0 0.0 0.0 0.0 0.0
0.0 0.0 0.0 0.0 0.0 0.0 0.0 0.0
0.0 0.0 0.0 0.0 0.0 0.0 0.0 0.0
0.0 0.0 0.0 0.0 0.0 0.0 0.0 0.0
0.0 0.0 0.0 0.0 0.0 0.0 0.0 0.0
0.0 0.0 0.0 0.0 0.0 0.0 0.0 0.0
0.0 0.0 0.0 0.0 0.0 0.0 0.0 0.0
0.0 0.0 0.0 0.0 0.0 0.0 0.0 0.0
0.0 0.0 0.0 0.0 0.0 0.0 0.0 0.0
0.0 0.0 0.0 0.0 0.0 0.0 0.0 0.0
0.0 0.0 0.0 0.0 0.0 0.0 0.0 0.0
0.0 0.0 0.0 0.0 0.0 0.0 0.0 0.0
0.0 0.0 0.0 0.0 0.0 0.0 0.0 0.0
00000000: 0000 0000 0000 0000 0000 0000 0000 0000
00000010: 0000 0000 0000 0000 0000 0000 0000 0000
00000020: 0000 0000 0000 0000 0000 0000 0000 0000
00000030: 0000 0000 0000 0000 0000 0000 0000 0000
00000040: 0000 0000 0000 0000 0000 0000 0000 0000
00000050: 0000 0000 0000 0000 0000 0000 0000 0000
00000060: 0000 0000 0000 0000 0000 0000 0000 0000
00000070: 0000 0000 0000 0000 0000 0000 0000 0000
00000080: 0000 0000 0000 0000 0000 0000 0000 0000
00000090: 0000 0000 0000 0000 0000 0000 0000 0000
000000a0: 0000 0000 0000 0000 0000 0000 0000 0000
000000b0: 0000 0000 0000 0000 0000 0000 0000 0000
000000c0: 0000 0000 0000 0000 0000 0000 0000 0000
000000d0: 0000 0000 0000 0000 0000 0000 0000 0000
000000e0: 0000 0000 0000 0000 0000 0000 0000 0000
000000f0: 0000 0000 0000 0000 0000 0000 0000 0000
00000100: 0000 0000 0000 0000 0000 0000 0000 0000
00000110: 0000 0000 0000 0000 0000 0000 0000 0000
00000120: 0000 0000 0000 0000 0000 0000 0000 0000
00000130: 0000 0000 0000 0000 0000 0000 0000 0000
00000140: 0000 0000 0000 0000 0000 0000 0000 0000
00000150: 0000 0000 0000 0000 0000 0000 0000 0000
00000160: 0000 0000 0000 0000 0000 0000 0000 0000
00000170: 0000 0000 0000 0000 0000 0000 0000 0000
00000180: 0000 0000 0000 0000 0000 0000 0000 0000
00000190: 0000 0000 0000 0000 0000 0000 0000 0000
000001a0: 0000 0000 0000 0000 0000 0000 0000 0000
000001b0: 0000 0000 0000 0000 0000 0000 0000 0000
000001c0: 0000 0000 0000 0000 0000 0000 0000 0000
000001d0: 0000 0000 0000 0000 0000 0000 0000 0000
000001e0: 0000 0000 0000 0000 0000 0000 0000 0000
000001f0: 0000 0000 0000 0000 0000 0000 0000 0000

res1.0.bn1.running_mean f4 [128]
0.016532673 0.004478476 0.008029339 0.07482543 -0.0270429 0.0007830655 -0.023582075 0.016942965
0.01571587 -0.03869208 0.0024685566 -0.008982946 -0.013071275 0.0134032285 -0.019623961 0.020286826
0.002037086 -0.014791555 -0.03455559 -0.004165273 0.017129201 -0.030391041 0.012469301 -0.008591898
-0.02746321 0.019476375 0.006313304 -0.02110824 0.029564228 0.0038701692 0.00878664 0.0020673848
0.004905749 0.010819968 0.0025939634 -0.0075788028 0.036107477 0.029771507 -0.004820158 0.009827223
0.002878045 0.014659895 -0.006448574 0.024524476 0.01185533 0.014696813 -0.011159671 0.0037756534
-0.013920336 -0.025223631 -0.018910993 0.030798018 -0.021272143 -0.019631738 0.013591791 0.02181111
-0.01842618 -0.0004207645 0.006699867 -0.0005452198 0.02502329 0.036025893 -0.011936025 0.008057199
0.0041345055 -0.0248855 0.009227169 -0.00023548554 -0.024312535 -0.02822036 -0.00029173295 -0.0118933525
-0.0057978462 0.011471588 0.00713302 -0.020453172 0.0028923545 0.00019568717 -0.021796787 -0.020524934
0.017970674 -0.022760116 0.017526992 -0.008557363 -0.008281319 0.031077998 -0.004301019 0.028433464
0.033496525 -0.0313956 -0.022752665 0.015214482 -0.0139941545 -0.02973464 0.0009273946 -0.016024422
0.0014920358 -0.02746556 -0.0023737862 -0.01408172 -0.011436705 -0.015109502 0.0008137371 0.006990463
-0.024841484 -0.042665984 -0.0049840473 -0.011106612 -0.009232277 -0.026386801 0.010221274 0.006067791
0.004056871 0.024963286 -0.05175719 -0.008335874 0.008100392 0.018500479 -0.0130546335 -0.0020153993
0.028252278 0.030812971 -0.013564262 0.009615885 -0.014232779 0.01627993 -0.02577167 -0.0033714278
00000000: 876f 873c 2ec0 923b 7d8d 033c 133e 993d
00000010: 1289 ddbc a346 4d3a 322f c1bc f9cb 8a3c
00000020: 91be 803c 967b 1ebd 82c7 213b 352d 13bc
00000030: e728 56bc 3799 5b3c 6ec2 a0bc 8f30 a63c
00000040: a280 053b 4758 72bc 2a8a 0dbd d87c 88bb
00000050: 8a52 8c3c a2f6 f8bc 0a4c 4c3c 08c5 0cbc
00000060: 87fa e0bc eb8c 9f3c d5df ce3b 30eb acbc
00000070: ae30 f23c aaa2 7d3b d7f5 0f3c f67c 073b
00000080: 68c0 a03b 3c46 313c 7cff 293b 9b57 f8bb
00000090: 6fe5 133d 60e3 f33c 6af2 9dbb 5c02 213c
000000a0: 959d 3c3b 0e30 703c 8f4e d3bb 8ee7 c83c
000000b0: dc3c 423c e7ca 703c 0dd7 36bc f470 773b
000000c0: 1f12 64bc caa1 cebc 3aeb 9abc 204c fc3c
000000d0: eb42 aebc bdd2 a0bc 1ab0 5e3c 37ad b23c
000000e0: 80f2 96bc 0e9a dcb9 8f8a db3b 15ed 0eba
000000f0: a5fd cc3c e38f 133d 518f 43bc 5802 043c
00000100: bf7a 873b addc cbbc 8d2d 173c abec 76b9
00000110: 152b c7bc 622e e7bc bcf3 98b9 56dc 42bc
00000120: dcfb bdbb 54f3 3b3c 1cbc e93b 698d a7bc
00000130: a88d 3d3b 6031 4d39 2d8f b2bc e823 a8bc
00000140: 3c37 933c 6c73 babc c494 8f3c 2f34 0cbc
00000150: 5fae 07bc 4997 fe3c 90ef 8cbb 4ced e83c
00000160: a733 093d ac98 00bd cc63 babc 2a46 793c
00000170: bd47 65bc 0f96 f3bc 661c 733a a645 83bc
00000180: 6a90 c33a 74ff e0bc 8691 1bbb 04b7 66bc
00000190: 0461 3bbc d88d 77bc f950 553a 4110 e53b
000001a0: 5e80 cbbc 87c2 2ebd 3851 a3bb 82f8 35bc
000001b0: fa42 17bc 2229 d8bc 2177 273c 52d4 c63b
000001c0: 80ef 843b ce7f cc3c 59ff 53bd 3193 08bc
000001d0: 82b7 043c 518e 973c 1ae3 55bc ca14 04bb
000001e0: 5271 e73c 7c6b fc3c a33c 5ebc f28b 1d3c
000001f0: 9a30 69bc 7d5d 853c 1c1f d3bc 2cf3 5cbb

res1.0.bn1.running_var f4 [128]
0.00083472236 0.0008097659 0.00060144556 0.0005678607 0.0005598528 0.00035745595 0.0003073717 0.00060552376
0.0004950729 0.00089697185 0.00056343665 0.00070579874 0.00040850678 0.00052828656 0.0004932479 0.00053426204
0.0006623719 0.00071949454 0.00044706042 0.00080877653 0.0005604573 0.00064218 0.0005680088 0.0005268908
0.0005678552 0.000728722 0.00037340616 0.0012362371 0.00047682627 0.0007241911 0.0004453099 0.00066804676
0.0006279598 0.00044555386 0.00022257268 0.0010140546 0.00066187815 0.0007988406 0.0004161543 0.00044024558
0.00033665937 0.0006694944 0.00044373973 0.0004930189 0.0023182353 0.0009825042 0.0011520234 0.0010944956
0.0004012918 0.00057255395 0.00044089384 0.0006524511 0.00041340242 0.0010739142 0.0005363901 0.00034125338
0.0005423037 0.00045773055 0.00040233615 0.0003194492 0.0004625835 0.00030871856 0.00032497186 0.0006180615
0.00035203595 0.00072339555 0.0006243777 0.0006499833 0.0009044073 0.00022446233 0.0007731489 0.0003569639
0.0007248022 0.00032909153 0.0003252998 0.00023915978 0.0003309801 0.0003123795 0.00033183186 0.00056911877
0.00041504778 0.00059050665 0.00055716577 0.0006001426 0.0010303536 0.00086632965 0.00061439583 0.0005459108
0.00081626343 0.00043248836 0.000744545 0.0002379155 0.00058472645 0.00033604592 0.0004463265 0.00067383307
0.00040445145 0.00037861627 0.00087965047 0.00029531083 0.00040742772 0.0012682815 0.00094092014 0.00044305503
0.0019012965 0.00044237918 0.00047611716 0.00043336628 0.000544522 0.00040757057 0.00035625478 0.0002839419
0.00062840234 0.0005210781 0.0008612652 0.00024835777 0.00042455888 0.00028687587 0.00034870996 0.0002655128
0.00078435574 0.00034621952 0.0006480598 0.00038801978 0.00044034596 0.00045698808 0.0005395284 0.00047259222
00000000: 45d1 5a3a 7846 543a 54aa 1d3a 7ddc 143a
00000010: 16c3 123a ed68 bb39 bb26 a139 03bc 1e3a
00000020: c8c7 013a c322 6b3a 98b3 133a 5a05 393a
00000030: da2c d639 b67c 0a3a 4e4d 013a b80d 0c3a
00000040: 07a3 2d3a 769c 3c3a 6f63 ea39 1304 543a
00000050: a7eb 123a f857 283a 6de6 143a 0b1f 0a3a
00000060: 1edc 143a b507 3f3a bac5 c339 3c09 a23a
00000070: 8afe f939 a4d7 3d3a 7c78 e939 dc1f 2f3a
00000080: ab9d 243a 3a99 e939 6662 6939 07ea 843a
00000090: e481 2d3a 4969 513a 492f da39 c3d0 e639
000000a0: a881 b039 0281 2f3a bda5 e839 f03d 013a
000000b0: 89ed 173b 5fc7 803a 7eff 963a 2e75 8f3a
000000c0: 7964 d239 7217 163a c527 e739 4109 2b3a
000000d0: efbd d839 95c2 8c3a 889c 0c3a 41ea b239
000000e0: 6329 0e3a 8efb ef39 a5f0 d239 bf7b a739
000000f0: e886 f239 81db a139 fc60 aa39 6805 223a
00000100: 7791 b839 41a2 3d3a 47ad 233a a463 2a3a
00000110: bf15 6d3a a65d 6b39 25ad 4a3a e226 bb39
00000120: a700 3e3a eb89 ac39 008d aa39 f7c6 7a39
00000130: 6687 ad39 dec6 a339 b8f9 ad39 ea30 153a
00000140: c59a d939 3bcc 1a3a c30e 123a e352 1d3a
00000150: ee0c 873a 661a 633a 680f 213a 741b 0f3a
00000160: 83fa 553a 9bbf e239 922d 433a f578 7939
00000170: 5448 193a 522f b039 ee00 ea39 2ca4 303a
00000180: 8e0c d439 0481 c639 5898 663a f3d3 9a39
00000190: 069c d539 773c a63a 15a8 763a d749 e839
000001a0: ed34 f93a 21ef e739 5d9f f939 7035 e339
000001b0: 41be 0e3a 32af d539 b5c7 ba39 09de 9439
000001c0: 5ebb 243a f698 083a 87c6 613a 0436 8239
000001d0: 5497 de39 d467 9639 0fd3 b639 8634 8b39
000001e0: 399d 4d3a cc84 b539 8fe2 293a 226f cb39
000001f0: 3cde e639 e797 ef39 236f 0d3a 41c6 f739
