MonocularDepthEstimation/savedmodels/Masks/128-3epochs/finalmodelwithdata-Mask-128K.pt (torch_old, 514729 bytes, 107 tensors)

prep.DepthwiseConv2d.depthwise.weight f4 [3, 1, 3, 3]
0.426717 0.0111450935 -0.37069356 -2.4384577 0.15808618 2.3332663 -2.9139206 0.08393857
2.6231194 0.5135151 -0.09204944 -0.33839443 -2.4576714 0.07281024 2.4498117 -2.6521332
0.33280173 2.0632408 0.45924398 0.053700197 -0.40274167 -2.4229598 -0.44648737 3.0973566
-3.5047963 0.8715606 1.98889
00000000: a77a da3e e999 363c 8ccb bdbe b10f 1cc0
00000010: 58e1 213e 3c54 1540 ad7d 3ac0 fce7 ab3d
00000020: 30e1 2740 ba75 033f 6b84 bcbd 0942 adbe
00000030: 7d4a 1dc0 891d 953d b7c9 1c40 8dbc 29c0
00000040: fd64 aa3e 230c 0440 0722 eb3e bdf4 5b3d
00000050: 2834 cebe c611 1bc0 fe99 e4be 173b 4640
00000060: 954e 60c0 981e 5f3f f393 fe3f

prep.DepthwiseConv2d.pointwise.weight f4 [64, 3, 1, 1]
-0.5781266 -0.5773195 -0.35704246 -0.5042941 -0.2954356 -0.37571192 -0.53172535 -0.31427407
0.06416867 0.24723227 0.2647562 0.57934994 0.94646865 -1.1458042 -0.64584106 0.3178562
-0.028119996 0.8571353 -0.26147085 -0.19563542 0.51730144 -0.06301808 0.032647245 -0.045629557
0.4164683 -0.4925087 0.19937414 0.3171853 0.18311535 0.00046467257 0.26005632 0.11502335
-0.28361723 0.78898525 0.5512667 -0.08517282 0.36984184 0.31293577 0.49153045 -0.5306261
0.3120396 1.0088307 0.0755713 0.07844055 0.7811412 -0.114454575 0.44610617 -0.25790957
-0.76851034 0.9855103 -0.24686462 0.015872864 0.2232145 0.07270409 0.6794011 0.2740151
-1.339696 -0.9843102 1.0668088 0.20332482 0.5971886 -0.80716187 0.61620426 -0.27688518
0.4171472 -0.1801691 -0.6024935 -0.37872583 -0.6435198 -0.34404942 -0.3820564 -0.13378432
0.41592228 0.09329243 0.1189678 1.1765441 -1.5695199 0.30147946 0.19881529 0.24613813
0.2626266 -0.271515 0.5459765 0.31190905 -0.31742194 -0.3419271 -0.29362497 -0.064819135
-0.12396969 0.38192794 0.0023408362 -0.19110234 -0.12640563 0.3891848 -0.27252313 -0.31822482
0.10802722 -1.0114111 -0.1623483 -1.1131804 -0.90250665 0.3076109 -0.18675846 0.12152783
1.1134773 -0.26784757 -0.26077542 -0.49554306 0.10947728 -0.06597166 -1.2764976 0.29711482
-0.09924457 -0.118546665 0.14055094 1.2573348 -0.59690124 0.78755987 0.906213 -1.3576481
-0.17281514 -0.46922466 -0.28589752 0.10089951 -0.9858236 0.7232803 -0.59809554 -0.24235581
-0.34017527 0.99921674 0.038591295 -0.9624701 -1.5165446 0.124905564 1.3777533 0.11126837
0.2549306 0.25275776 -0.27860293 0.21922517 0.079865865 0.87393266 0.5719136 0.11895375
-0.34465772 -0.30683392 0.14110607 0.015531676 -0.36613107 -0.72641623 0.09109889 -0.24478658
0.050100096 0.52499676 0.5129733 0.4637025 0.47872064 0.53856826 0.68139154 -0.9865855
0.6945796 -0.5748252 0.36953828 0.47886285 0.3344362 0.30253986 -0.41977546 -0.016922412
0.60164416 0.34222928 -0.25709414 0.015622718 0.14845705 0.025425922 0.12436376 -0.18304558
0.18427072 0.35230806 0.19166707 0.44089028 -0.32961267 0.20633036 0.0926543 0.8954091
0.486002 -0.51334256 0.6159839 0.6067154 0.7087563 -0.49445114 -0.7501859 0.8404295
00000000: 1b00 14bf 36cb 13bf 45ce b6be 6b19 01bf
00000010: 5643 97be 505d c0be 271f 08bf 88e8 a0be
00000020: dd6a 833d 752a 7d3e 208e 873e 4750 143f
00000030: c54b 723f b6a9 92bf d755 25bf 0cbe a23e
00000040: e85b e6bc 386d 5b3f 82df 85be a754 48be
00000050: de6d 043f a00f 81bd 1eb9 053d 0fe6 3abd
00000060: 553b d53e 1a2a fcbe bc28 4c3e 1d66 a23e
00000070: 9782 3b3e 4c9f f339 1a26 853e 5d91 eb3d
00000080: 4736 91be f0fa 493f d01f 0d3f 166f aebd
00000090: e95b bd3e 1e39 a03e e1a9 fb3e 1dd7 07bf
000000a0: a8c3 9f3e 5d21 813f 20c5 9a3d 70a5 a03d
000000b0: dff8 473f 2967 eabd 0768 e43e b90c 84be
000000c0: 18bd 44bf 674a 7c3f 14ca 7cbe cf07 823c
000000d0: 5892 643e e2e5 943d 3bed 2d3f b54b 8c3e
000000e0: 297b abbf c1fb 7bbf 318d 883f 6234 503e
000000f0: 5ae1 183f 29a2 4ebf 90bf 1d3f e5c3 8dbe
00000100: 5194 d53e 407e 38be 043d 1abf 5ae8 c1be
00000110: b7bd 24bf 3f27 b0be e59c c3be c2fe 08be
00000120: c4f3 d43e 1a10 bf3d 64a5 f33d ff98 963f
00000130: 07e6 c8bf 845b 9a3e 3c96 4b3e a20b 7c3e
00000140: fe76 863e 0404 8bbe 1ec5 0b3f 8bb2 9f3e
00000150: 2185 a2be 1211 afbe 0356 96be e5bf 84bd
00000160: d2e3 fdbd 0f8c c33e b768 193b 55b0 43be
00000170: 7a70 01be 3b43 c73e 2788 8bbe 5dee a2be
00000180: 603d dd3d eb75 81bf a23e 26be b27c 8ebf
00000190: ad0a 67bf 2d7f 9d3e 9c3d 3fbe 95e3 f83d
000001a0: 6d86 8e3f 5123 89be 5b84 85be d2b7 fdbe
000001b0: a035 e03d 261c 87bd 4664 a3bf 6f1f 983e
000001c0: bd40 cbbd 98c8 f2bd 96ec 0f3e 59f0 a03f
000001d0: 85ce 18bf 869d 493f 93fd 673f 6ac7 adbf
000001e0: 74f6 30be 373e f0be 2961 92be 67a4 ce3d
000001f0: ef5e 7cbf e628 393f ca1c 19bf 1f2c 78be
00000200: 742b aebe abcc 7f3f e811 1e3d 7164 76bf
00000210: 221e c2bf 7dce ff3d 385a b03f ace0 e33d
00000220: 4386 823e 7769 813e 0ba5 8ebe 907c 603e
00000230: b790 a33d 0dba 5f3f ee68 123f 069e f33d
00000240: fa76 b0be 5619 9dbe 1c7e 103e 9278 7e3c
00000250: 8875 bbbe 6af6 39bf 0e92 ba3d 55a9 7abe
00000260: c235 4d3d 3066 063f 3852 033f 6a6a ed3e
00000270: df1a f53e 9cdf 093f ad6f 2e3f de90 7cbf
00000280: f8cf 313f bf27 13bf 1f34 bd3e 832d f53e
00000290: 393b ab3e 81e6 9a3e cfec d6be dfa0 8abc
000002a0: 5a05 1a3f ad38 af3e d8a1 83be 6ef6 7f3c
000002b0: 2005 183e 064a d03c 6db2 fe3d 4d70 3bbe
000002c0: 77b1 3c3e b961 b43e 5f44 443e 5fbc e13e
000002d0: fec2 a8be 4448 533e 8ac1 bd3d 8839 653f
000002e0: 41d5 f83e 6b6a 03bf 1fb1 1d3f b351 1b3f
000002f0: 0e71 353f b328 fdbe 2f0c 40bf 6326 573f

prep.DepthwiseConv2d.pointwise.bias f4 [64]
0.05235106 0.25744188 0.5277583 0.561798 -0.08390684 -0.0029021427 -0.08806886 -0.036539644
-0.039753363 -0.0043587782 0.028052654 0.14209552 -0.09825295 0.02252562 0.3794775 0.008070306
-0.01908552 -0.122416 -0.35282362 0.053547695 0.04373671 -0.057451565 0.005007634 0.083071284
-0.0010268539 0.0068050767 0.7637827 0.09843522 -0.020682119 0.08990986 -0.05989473 -0.09031912
-0.054106522 -0.06373674 0.039396115 -0.7240812 -0.43183976 -0.06771272 -0.0011385467 -0.09191161
-0.01592781 0.058270033 0.05710958 -0.04132331 0.11275805 0.09308341 0.029255455 0.08446668
0.31162474 -0.18808661 0.010334056 0.10796637 0.16275105 -0.069793575 -0.015215118 0.1052653
0.3369958 -0.05211095 0.17829596 0.20597935 -0.051584646 -0.04278559 0.20897543 0.064363346
00000000: 116e 563d 6ccf 833e 2b1b 073f fed1 0f3f
00000010: 59d7 abbd e031 3ebb 725d b4bd 98aa 15bd
00000020: 6cd4 22bd 15d4 8ebb aece e53c 7d81 113e
00000030: d838 c9bd a687 b83c e04a c23e 5139 043c
00000040: 3d59 9cbc 3db5 fabd 4ca5 b4be d454 5b3d
00000050: 4425 333d 5552 6bbd 1417 a43b 4721 aa3d
00000060: 8097 86ba 1ffd de3b 4387 433f 6898 c93d
00000070: 8c6d a9bc a922 b83d 2d54 75bd 3bf9 b8bd
00000080: cd9e 5dbd 6888 82bd d25d 213d 635d 39bf
00000090: 1a1a ddbe f7ac 8abd 4a3b 95ba 273c bcbd
000000a0: 0a7b 82bc 8fac 6e3d bceb 693d a242 29bd
000000b0: b1ed e63d 84a2 be3d 23a9 ef3c defc ac3d
000000c0: 478d 9f3e c799 40be 2c50 293c 791d dd3d
000000d0: 36a8 263e efef 8ebd d548 79bc 5595 d73d
000000e0: b78a ac3e 4b72 55bd 3793 363e 40ec 523e
000000f0: 6c4a 53bd f13f 2fbd a8fd 553e eed0 833d

cb1.DepthwiseConv2d.depthwise.weight f4 [64, 1, 3, 3]
-0.128855 -0.23222305 0.5638645 -0.25428274 -0.5350047 -0.059987273 -0.052192412 -0.065753646
0.27093464 0.21792512 -0.12986164 -0.036311142 0.20677586 0.02067478 0.08899837 -0.58455116
-0.096635826 0.38511866 -0.41931784 -0.1009054 -0.12570934 0.04993181 0.1364266 -0.1559883
-0.26719788 0.6748189 0.19333352 0.2709142 0.09610834 -0.56908953 -0.2826322 0.28950086
-0.01748249 -0.3937321 0.18610185 0.4410693 -0.47804114 -0.042191118 -0.40480778 -0.2682637
-0.13857032 -0.14916675 -0.14840817 -0.12257691 -0.020825459 -0.05283406 0.2212679 0.10969837
0.31634822 0.22360419 -0.28108358 0.35217956 0.19080244 0.33679953 -0.20547977 -0.18132314
-0.09466184 -0.19704893 -0.13742472 -0.18755719 -0.27285436 -0.18380159 -0.180701 -0.009062398
0.020461963 0.0047805165 0.02628717 0.1017184 0.108095504 -0.008967941 -0.06274582 -0.0024200522
0.21114121 0.30453923 0.30655107 0.03410146 0.11392058 0.22745748 -0.06783667 -0.12737304
-0.004807005 -0.06334954 -0.06003151 -0.010673843 -0.027055701 -0.13446662 -0.16195571 -0.13840216
-0.2298564 0.053977508 -0.0010034316 -0.19521308 -0.21925314 -0.016801806 0.01401452 -0.16399692
0.04563921 -0.089688875 -0.14139508 -0.08006545 0.4406861 0.19884908 0.40675962 0.5369991
-0.15718116 -0.14346854 -0.07982634 -0.03739842 -0.50215244 -0.21826449 0.2923117 -0.17291291
-0.010722426 -0.12816548 -0.0075518806 -0.014950441 -0.23350084 -0.5232353 0.11235386 0.16394444
-0.2802269 0.24204597 -0.05025624 -0.30618742 -0.48536405 -0.35444573 0.033091944 -0.08920627
-0.13774784 0.09057479 -0.20520788 -0.45269182 0.4422626 -0.09442595 0.6960135 -0.07648137
0.016352274 -0.029142963 -0.09181487 -0.21643162 -0.17569344 -0.19413392 -0.27112007 -0.09161281
0.6938446 -0.03565068 -0.1064513 0.57231474 0.081513576 -0.25892994 0.40550405 0.053802166
0.012352297 -0.12872514 0.04269649 0.05392688 -0.11171955 -0.08975056 0.008096687 -0.108024284
-0.030730972 0.054097712 -0.36753768 -0.2805745 -0.5025016 -0.32243633 -0.37477866 -0.30169085
-0.44395125 -0.06275608 -0.12194057 -0.21307798 -0.15632237 -0.4250352 -0.1727622 -0.37406784
-0.32356182 -0.14672802 0.012545662 -0.31030867 0.092237726 0.32942998 0.17552285 0.117523916
0.01823951 0.27483028 0.21363494 0.13329998 0.19845138 0.14023367 0.13642642 0.23589286
0.09105439 0.03814013 0.26956305 0.040998146 -0.16440563 0.20802808 0.054631118 0.13816568
0.46660775 0.18711458 0.34368753 0.25762278 -0.23874737 -0.24157071 -0.58052456 0.000915118
0.19953015 -0.09403221 0.28957936 0.108907275 -0.0027394884 -0.33575478 -0.18605988 -0.01708512
-0.061189365 -0.003734953 0.14184359 0.13902338 -0.25638968 -0.13175623 0.18142997 -0.1601277
-0.0073938286 -0.44018364 -0.19116478 -0.40486267 -0.33166128 -0.3517206 -0.32669976 -0.23747377
-0.046779472 -0.27660233 0.1940406 0.5821139 -0.30194145 0.05786199 0.22409368 -0.08358976
0.14536944 -0.16362497 -0.7181895 -0.05024911 -0.21771829 -0.33512628 -0.15736757 -0.12294851
0.0120717315 -0.28700358 -0.13271466 -0.036980305 -0.1272896 0.047416653 0.017798321 0.22686724
00000000: 91f2 03be e1cb 6dbe 6d59 103f 5931 82be
00000010: 11f6 08bf 37b5 75bd b6c7 55bd d9a9 86bd
00000020: f2b7 8a3e c327 5f3e 73fa 04be feba 14bd
00000030: 0dbd 533e 285e a93c c744 b63d 25a5 15bf
00000040: 01e9 c5bd 462e c53e d4b0 d6be 7ea7 cebd
00000050: f3b9 00be 4c85 4c3d 6ab3 0b3e 66bb 1fbe
00000060: 29ce 88be eec0 2c3f 39f9 453e 44b5 8a3e
00000070: 73d4 c43d daaf 11bf 2bb5 90be 7539 943e
00000080: 7037 8fbc 4197 c9be 7c91 3e3e d6d3 e13e
00000090: cfc1 f4be 98d0 2cbd f742 cfbe dc59 89be
000000a0: 61e5 0dbe 2bbf 18be 50f8 17be 9a09 fbbd
000000b0: 279a aabc 8768 58bd 0d94 623e 8aa9 e03d
000000c0: 65f8 a13e 7ff8 643e 30ea 8fbe e150 b43e
000000d0: b761 433e fd70 ac3e 4a69 52be c6ac 39be
000000e0: 11de c1bd 32c7 49be 11b9 0cbe fe0e 40be
000000f0: 91b3 8bbe 7c36 3cbe af09 39be 747a 14bc
00000100: d99f a73c e1a5 9c3b 3158 d73c bd51 d03d
00000110: 2d61 dd3d 45ee 12bc e180 80bd bd99 1ebb
00000120: 6735 583e 91ec 9b3e 43f4 9c3e f9ad 0b3d
00000130: 314f e93d 9dea 683e f4ed 8abd 146e 02be
00000140: 1584 9dbb 67bd 81bd 9ae3 75bd 58e1 2ebc
00000150: eba3 ddbc 9eb1 09be b8d7 25be 4cb9 0dbe
00000160: 7a5f 6bbe 8517 5d3d 9485 83ba f0e5 47be
00000170: e583 60be f1a3 89bc 289d 653c cfee 27be
00000180: 2ef0 3a3d cdae b7bd dfc9 10be 5bf9 a3bd
00000190: 9ca1 e13e 189f 4b3e cc42 d03e c678 093f
000001a0: 19f4 20be 6be9 12be fe7b a3bd 162f 19bd
000001b0: 108d 00bf ba80 5fbe e1a9 953e 1510 31be
000001c0: 1dad 2fbc d03d 03be c475 f7bb b2f2 74bc
000001d0: d81a 6fbe c0f2 05bf c819 e63d 0de1 273e
000001e0: e679 8fbe e6da 773e 7dd9 4dbd 99c4 9cbe
000001f0: a381 f8be e979 b5be 6b8b 073d c7b1 b6bd
00000200: c50d 0dbe 477f b93d 0422 52be 39c7 e7be
00000210: 3e70 e23e 6462 c1bd f12d 323f 44a2 9cbd
00000220: 34f5 853c 39bd eebc 6f09 bcbd 40a0 5dbe
00000230: fbe8 33be 0bcb 46be 40d0 8abe 7f9f bbbd
00000240: cd9f 313f 7306 12bd 2403 dabd 3883 123f
00000250: 97f0 a63d 7792 84be 3a9e cf3e a95f 5c3d
00000260: 4a61 4a3c 86d0 03be 84e2 2e3d 6fe2 5c3d
00000270: 38cd e4bd 24cf b7bd f7a7 043c d63b ddbd
00000280: 85bf fbbc 9095 5d3d e62d bcbe 76a7 8fbe
00000290: f2a3 00bf 6016 a5be fde2 bfbe 3977 9abe
000002a0: 944d e3be 4286 80bd fabb f9bd 1d31 5abe
000002b0: f912 20be 379e d9be 93e8 30be d285 bfbe
000002c0: e5a9 a5be df3f 16be 528c 4d3c c7e0 9ebe
000002d0: 22e7 bc3d 0cab a83e 43bc 333e 61b0 f03d
000002e0: 066b 953c 8eb6 8c3e 1ec3 5a3e ca7f 083e
000002f0: d736 4b3e 6a99 0f3e 5eb3 0b3e e68d 713e
00000300: b97a ba3d d338 1c3d 2b04 8a3e aced 273d
00000310: f359 28be 5005 553e e1c4 5f3d 4e7b 0d3e
00000320: 36e7 ee3e f79a 3f3e d0f7 af3e 22e7 833e
00000330: 317a 74be 505e 77be 429d 14bf 88e4 6f3a
00000340: a251 4c3e f693 c0bd bf43 943e c70a df3d
00000350: fd88 33bb 0de8 abbe 7b86 3ebe 18f6 8bbc
00000360: b3a1 7abd 1dc6 74bb 723f 113e 255c 0e3e
00000370: 8245 83be 1beb 06be c7c8 393e 84f8 23be
00000380: ee47 f2bb c05f e1be b3c0 43be 294a cfbe
00000390: 82cf a9be b914 b4be 3145 a7be 532c 73be
000003a0: d59b 3fbd d29e 8dbe 94b2 463e 6b05 153f
000003b0: 1298 9abe b200 6d3d d078 653e 1c31 abbd
000003c0: badb 143e 4e8d 27be 44db 37bf 03d2 4dbd
000003d0: 8bf1 5ebe ac95 abbe f724 21be 6ecc fbbd
000003e0: 83c8 453c 22f2 92be 5ae6 07be a978 17bd
000003f0: 3458 02be f737 423d c9cd 913c e34f 683e

cb1.DepthwiseConv2d.pointwise.weight f4 [128, 64, 1, 1]
-0.15308496 -0.31354272 0.05653549 0.04343277 0.057983287 -0.076788045 -0.05886589 0.043273766
-0.079921484 0.12548825 -0.1374106 0.05303096 -0.13675125 -0.030181197 0.2259245 0.03592774
-0.06006621 0.0313815 0.14585069 -0.057088036 -0.08150978 0.31184828 0.095642656 0.064943194
0.027890023 -0.078577556 -0.18770824 0.09030358 0.039430212 -0.20109384 -0.069034964 -0.1551452
-0.084420584 -0.29634383 -0.18714045 0.1878668 0.21319073 0.111443445 0.12020795 0.0012173947
0.011156522 -0.100035734 0.025923131 0.07329289 0.07575623 -0.15117396 0.029798543 0.0148884915
-0.105686106 0.100521654 0.046339467 0.1817336 0.07502914 -0.029265517 -0.0011040301 0.043730136
0.0022409302 0.0081721 0.06683906 0.057379156 0.041836675 0.022283308 -0.37285733 -0.035130754
0.00089198304 -0.11955005 -0.18508169 -0.016604949 0.04716169 0.11188406 0.22712788 -0.14782055
0.162491 -0.12112388 -0.26104617 -0.0903591 -0.16089095 0.08189091 0.3166309 -0.12502289
-0.008375771 -0.10302649 0.11303291 -0.13814206 0.06621746 0.023320824 0.27771056 0.06523234
0.01790396 -0.027287813 -0.09161937 -0.07559281 0.018672546 0.1604078 -0.16184895 0.048419338
-0.12815736 0.37033775 0.1115589 0.22785819 0.19258998 -0.1844188 -0.061095778 -0.008155648
0.06300919 -0.10750489 0.11088393 -0.079474434 -0.0075291274 0.2062207 0.13306917 -0.06017119
0.17650785 -0.06226102 -0.1077039 -0.09509581 0.092414714 -0.037191905 -0.08780949 0.010801137
0.1272608 -0.1210902 -0.09380157 -0.06542963 -0.015041241 0.24456996 -0.066382706 0.05190709
0.1676221 0.15131672 0.028606074 -0.25030646 0.08058859 0.050928928 0.080176 -0.0071077077
-0.15839592 0.068511575 0.08645052 -0.106553815 -0.029552918 -0.03227638 -0.049716335 0.09270296
-5.3617537e-06 0.046555366 0.11670922 0.21105981 0.09619828 0.10428939 -0.010808226 -0.13458975
0.21624713 0.3195469 -0.07956528 0.044365995 0.01732402 -0.025416689 -0.0955703 0.20100048
-0.048323423 0.17618597 -0.21702175 -0.08297221 -0.13881753 -0.0037146674 0.1378739 -0.6007462
0.09221038 -0.03613836 -0.040700324 -0.23862979 -0.15230848 -0.07891393 -0.08320157 -0.035586793
-0.03249565 -0.11310966 -0.09168803 0.08030928 0.2915151 -0.20830438 0.2088703 0.19138703
0.16394249 -0.038529605 0.06606906 -0.008708938 -0.08623166 -0.10317054 -0.1163558 -0.2425248
0.22836737 -0.003466711 -0.014475197 0.047231916 0.20043753 0.085298784 0.03274873 0.062432088
-0.07696301 0.14175175 -0.101015925 0.006913157 0.058314558 -0.1585644 0.15099594 0.038031545
-0.15762654 -0.28237304 -0.10579186 -0.063180834 0.033573724 -0.166953 -0.11471362 0.0027182
0.016042562 -0.10441567 -0.10419185 0.0075537544 -0.022504045 0.031613026 0.23721226 0.1352841
0.042556252 0.17651412 -0.27448586 0.20470072 -0.0013828431 0.118379876 0.12121734 -0.1370289
-0.14392206 -0.19971496 0.26422346 0.09089735 0.14479081 0.18701221 -0.05631403 0.0030656355
0.039328374 -0.0041361284 -0.040027604 0.06380146 -0.036074214 -0.30281657 -0.032322787 -0.04261558
0.06914834 0.029993953 0.027291475 -0.07365377 0.08783869 -0.25227636 0.11194255 0.08417712
00000000: 4ec2 1cbe ac88 a0be c291 673d 8fe6 313d
00000010: e27f 6d3d 0d43 9dbd 5c1d 71bd d53f 313d
00000020: e0ad a3bd fe7f 003e 5db5 0cbe fe36 593d
00000030: 8508 0cbe 8f3e f7bc c158 673e f728 133d
00000040: fc07 76bd e389 003d e259 153e 25d5 69bd
00000050: 99ee a6bd 94aa 9f3e 4ce0 c33d f000 853d
00000060: 9e79 e43c 45ed a0bd 9736 40be 15f1 b83d
00000070: 9381 213d 8beb 4dbe 3462 8dbd 62de 1ebe
00000080: b3e4 acbd 61ba 97be bfa1 3fbe 2860 403e
00000090: ac4e 5a3e 763c e43d 962f f63d fd90 9f3a
000000a0: d8c9 363c 89df ccbd bf5c d43c 951a 963d
000000b0: 1526 9b3d 59cd 1abe 131c f43c dcee 733c
000000c0: f571 d8bd 4cde cd3d 74ce 3d3d 5f18 3a3e
000000d0: e1a8 993d 3dbe efbc 1ab5 90ba 5f1e 333d
000000e0: 92dc 123b 46e4 053c ebe2 883d 6806 6b3d
000000f0: ef5c 2b3d 7c8b b63c 28e7 bebe 44e5 0fbd
00000100: f8d3 693a a8d6 f4bd 0e86 3dbe 1a07 88bc
00000110: 9e2c 413d 7823 e53d 3694 683e 455e 17be
00000120: 0a64 263e cc0f f8bd d8a7 85be 310e b9bd
00000130: 99c0 24be 6cb6 a73d 721d a23e 0006 00be
00000140: 883a 09bc 8dff d2bd cc7d e73d 1d75 0dbe
00000150: 059d 873d 500b bf3c 1430 8e3e 8898 853d
00000160: 53ab 923c b18a dfbc f0a2 bbbd 67d0 9abd
00000170: 2bf7 983c f141 243e bbbb 25be 5b53 463d
00000180: af3b 03be e99c bd3e fe78 e43d a853 693e
00000190: 4f36 453e 48d8 3cbe 913f 7abd 449f 05bc
000001a0: f60a 813d 862b dcbd 1d17 e33d 7ec3 a2bd
000001b0: e6b6 f6bb 852b 533e 4943 083e 1176 76bd
000001c0: 79be 343e 6905 7fbd dd93 dcbd 98c1 c2bd
000001d0: ed43 bd3d 8a56 18bd 76d5 b3bd 41f7 303c
000001e0: a850 023e 24fe f7bd 0a1b c0bd f8ff 85bd
000001f0: 8a6f 76bc 8c70 7a3e a8f3 87bd 879c 543d
00000200: 21a5 2b3e c5f2 1a3e 4957 ea3c 2b28 80be
00000210: a10b a53d da9a 503d 5133 a43d c6e7 e8bb
00000220: 8a32 22be cc4f 8c3d f80c b13d e338 dabd
00000230: f618 f2bc 3d34 04bd 5ba3 4bbd 0ddb bd3d
00000240: 1de9 b3b6 d7b0 3e3d 3e05 ef3d 1020 583e
00000250: 9b03 c53d ad95 d53d fc14 31bc e5d1 09be
00000260: e36f 5d3e a79b a33e 1ff3 a2bd 1eb9 353d
00000270: 1aeb 8d3c a936 d0bc 5dba c3bd 12d3 4d3e
00000280: c8ee 45bd 186a 343e f33a 5ebe 56ed a9bd
00000290: 2f26 0ebe c771 73bb d12e 0d3e 81ca 19bf
000002a0: ccd8 bc3d d105 14bd 62b5 26bd 5e5b 74be
000002b0: c1f6 1bbe a09d a1bd 9665 aabd 75c3 11bd
000002c0: 291a 05bd 0aa6 e7bd efc6 bbbd 3179 a43d
000002d0: 7841 953e be4d 55be 19e2 553e f6fa 433e
000002e0: 8ae0 273e 38d1 1dbd 374f 873d efaf 0ebc
000002f0: 399a b0bd 134b d3bd f34b eebd 6c58 78be
00000300: 23d9 693e c231 63bb 6029 6dbc 4176 413d
00000310: 7f3f 4d3e 21b1 ae3d 8823 063d cab8 7f3d
00000320: c89e 9dbd 5f27 113e 70e1 cebd c487 e23b
00000330: 3fdb 6e3d b55e 22be ae9e 1a3e f7c6 1b3d
00000340: da68 21be 3393 90be 67a9 d8bd f464 81bd
00000350: 9a84 093d baf5 2abe f9ee eabd d423 323b
00000360: b16b 833c e2d7 d5bd 8962 d5bd 7c85 f73b
00000370: 675a b8bc a97c 013d c5e7 723e ea87 0a3e
00000380: 774f 2e3d 1ec0 343e 6989 8cbe 119d 513e
00000390: 8440 b5ba 2671 f23d cc40 f83d 4e51 0cbe
000003a0: 4e60 13be 1482 4cbe 4c48 873e 6428 ba3d
000003b0: 0b44 143e 2180 3f3e 8aa9 66bd d4e8 483b
000003c0: ca16 213d 5c88 87bb fcf3 23bd 57aa 823d
000003d0: 8ec2 13bd c60a 9bbe e664 04bd ad8d 2ebd
000003e0: a59d 8d3d e1b5 f53c 5f92 df3c cad7 96bd
000003f0: c5e4 b33d 5e2a 81be 2342 e53d 0e65 ac3d

cb1.DepthwiseConv2d.pointwise.bias f4 [128]
-0.17921327 -0.25879472 0.16350764 -0.29471934 -0.03551456 -0.29445484 0.26657632 0.34884197
-0.15651123 0.2670152 0.042667888 -0.67536986 -0.023167454 0.2013947 -0.001519504 0.33998856
0.11614772 -0.1395738 0.19030486 0.15367496 -0.07863566 0.04348534 0.016062004 0.28320765
-0.13404821 0.037134573 0.06339078 0.24831773 -0.19290826 0.1583019 -0.21487266 0.042849775
0.2814491 -0.16451533 -0.0027946068 -0.33218533 -0.011709663 -0.12422692 -0.04386985 0.14881147
0.08724787 -0.062162314 0.39171863 0.16645746 0.054851573 0.81086415 -0.27608752 0.0051026368
0.21009696 0.21393673 -0.012370298 0.05090232 0.028616635 -0.038698662 0.2937643 -0.082056485
0.06579056 0.21794839 -0.20325491 0.3930447 -0.16485856 0.11100767 -0.028664643 0.41709617
0.17564493 -0.37059048 0.12028624 -0.021851767 -0.22555904 -0.11494361 -0.17845486 -0.011195908
-0.361837 -0.27894226 0.43914247 -0.044880025 -0.010792066 -0.019802274 0.111884 -0.077697404
0.5179815 0.16058171 -0.11572568 0.020509116 0.45505154 -0.05695301 0.023878384 -0.55326474
0.06037619 0.043885157 0.2044005 0.30747905 0.12797743 0.72748846 0.3055002 -0.06667996
0.18790832 -0.10326513 0.5594435 0.0484537 0.06797704 -0.12886319 0.08973362 0.08783757
-0.13172996 -0.28600574 -0.12157191 -0.1588774 0.19752213 -0.07285012 -0.10734147 0.007825554
-0.3294391 0.0077287075 -0.0767778 0.06465478 0.354647 0.15904538 0.07876346 -0.06662667
0.0390085 -0.011635691 -0.17581107 -0.19346102 0.14778303 0.3682906 0.019279845 0.07379431
00000000: af83 37be be80 84be 8c6e 273e 74e5 96be
00000010: b777 11bd c9c2 96be b17c 883e 6a9b b23e
00000020: 7b44 20be 37b6 883e 86c4 2e3d 0ae5 2cbf
00000030: acc9 bdbc 6a3a 4e3e 182a c7ba fb12 ae3e
00000040: dbde ed3d 6fec 0ebe 47df 423e f85c 1d3e
00000050: bc0b a1bd af1d 323d 7794 833c 9800 913e
00000060: ef43 09be 6c1a 183d 06d3 813d 0147 7e3e
00000070: be89 45be e519 223e 9407 5cbe 3f83 2f3d
00000080: 191a 903e b576 28be b925 37bb 3214 aabe
00000090: e3d9 3fbc af6a febd dfb0 33bd 0962 183e
000000a0: 03af b23d e99d 7ebd 588f c83e d373 2a3e
000000b0: 0bac 603d cb94 4f3f 585b 8dbe 0534 a73b
000000c0: a823 573e 3b12 5b3e caac 4abc f37e 503d
000000d0: 6f6d ea3c 7d82 1ebd 4668 963e 3b0d a8bd
000000e0: 33bd 863d dd2d 5f3e 0e22 50be 283d c93e
000000f0: afd0 28be fd57 e33d 1dd2 eabc a18d d53e
00000100: 44dc 333e 09be bdbe a258 f63d 7a02 b3bc
00000110: f3f8 66be 8e67 ebbd dfbc 36be 0b6f 37bc
00000120: b342 b9be 85d1 8ebe 48d7 e03e 1ed4 37bd
00000130: 35d1 30bc 6138 a2bc 7023 e53d d11f 9fbd
00000140: 709a 043f 886f 243e 9601 edbd bc02 a83c
00000150: 84fc e83e 8f47 69bd 9a9c c33c c2a2 0dbf
00000160: 064d 773d ecc0 333d 5d4e 513e e56d 9d3e
00000170: 840c 033e af3c 3a3f 866a 9c3e 818f 88bd
00000180: 0a6b 403e ab7c d3bd b037 0f3f 6377 463d
00000190: 8c37 8b3d b6f4 03be 43c6 b73d 2fe4 b33d
000001a0: 38e4 06be 586f 92be b2fa f8bd c2b0 22be
000001b0: 3e43 4a3e 7232 95bd d8d5 dbbd c136 003c
000001c0: 3eac a8be 1941 fd3b ae3d 9dbd ba69 843d
000001d0: 4b94 b53e cbdc 223e bd4e a13d 9073 88bd
000001e0: 60c7 1f3d a0a3 3ebc d107 34be a51a 46be
000001f0: 6f54 173e 9690 bc3e c4f0 9d3c 7921 973d

res1.0.conv1.depthwise.weight f4 [128, 1, 3, 3]
-0.052663755 -0.040082857 0.02050914 0.0375219 -0.012830254 -0.050232604 -0.048555095 0.034730077
0.021282254 -0.01473636 -0.016780244 -0.021926971 -0.087705724 0.0019772502 0.019421002 -0.009845607
0.00556723 0.01160767 -0.02973747 0.035182316 -0.026563745 0.009314635 0.030359535 -0.024306117
0.028186547 0.00066651165 -0.024328232 0.022547051 0.009619643 -0.02515323 -0.031545207 -0.048245385
0.024172474 0.040540565 -0.121811055 0.038617045 0.06447226 0.0029894146 -0.016803322 -0.041713323
-0.006619366 -0.053991817 0.005967507 -0.058818847 -0.020778751 0.004408537 0.0064268135 -0.00056770805
-0.05063016 0.03595345 0.04284249 -0.0009685275 -0.027297793 -0.021530084 0.0031752659 -0.00044833534
0.010498436 0.06083642 -0.053795036 -0.06389294 0.047978416 0.0045824554 -0.026696704 -0.011155412
0.014089676 -0.003657273 -0.0011424023 0.072584294 -0.010047217 0.03401872 0.01604569 0.07639671
0.03532832 -0.07105871 -0.0151131395 -0.033238117 0.024210474 0.0760912 -0.014416261 -0.06601127
0.056463238 0.038606897 -0.024285829 0.033597827 0.041981798 -0.040823285 -0.06685568 -0.0025692533
-0.017706325 0.010665011 -0.011108543 0.022548676 -0.019259008 0.027755741 0.053868886 -0.07916823
0.032691948 0.04385498 -0.0060266233 0.0016210929 -0.00096240133 0.008078568 0.0033865573 -0.0291148
0.031092336 0.019387174 0.011105793 -0.016043099 -0.024066351 -7.588695e-05 0.060735587 -0.027938057
-0.020063628 0.05995456 0.034796126 -0.06924692 -0.023891604 -0.016228825 -0.051413853 -0.034095522
0.0124825025 -0.048219662 -0.016123584 -0.0047206446 0.019083606 -0.033924114 0.02291356 0.046068497
-0.009597955 -0.021306727 0.008830959 0.00894043 0.02678875 0.037062846 0.0544874 -0.048374068
-0.011063549 -0.028650543 -0.011159233 0.024419304 0.03876889 0.041045308 -0.010330258 0.029562393
-0.0010671087 -0.020438295 0.049043097 0.016289433 -0.009721548 0.018523214 -0.019831682 -0.070168175
0.035017177 -0.0024259468 0.042251274 -0.006913143 -0.026828326 0.0073454953 0.061135627 -0.050104823
0.0033565308 0.046032324 -0.0024098435 -0.03132211 -0.010362374 0.059440155 0.0034852158 -0.030995984
-0.011742147 -0.021390473 -0.029982138 -0.03657526 -0.031844527 -0.010807854 0.025950741 0.005782753
0.013900786 0.0044862367 -0.021188622 0.024433749 0.025909463 -0.011072186 0.025732828 -0.028653568
-0.022799626 0.0044340175 0.02658556 0.03213968 0.0026641022 0.051083967 -0.04282274 0.03325513
0.08994432 -0.10100791 -0.060259465 -0.019800765 -0.015508174 0.025891246 -0.022402247 -0.021858582
-0.01788994 -0.029604118 0.034067202 0.01852013 -0.05222451 -0.03471321 0.05362203 -0.11055776
-0.058134023 0.00964841 0.018215861 -0.020399628 0.0039985417 -0.017328447 -0.021427274 -0.00083911215
0.04583567 -0.062599264 0.030733055 0.0016643873 0.0724484 0.019822694 -0.014381202 0.014611277
-0.030139895 -0.012903946 0.045529388 0.0048282524 -0.022117287 0.0024895212 0.036894582 0.06319105
-0.06898668 -0.032970898 -0.047579568 -0.0918679 -0.013849037 -0.09415316 -0.01151893 -0.09397141
-0.00088396814 0.00328708 0.046867713 0.032822687 -0.01360181 -0.023672648 -0.007132249 0.01920645
0.033766776 -0.019309761 0.008361993 -0.014816898 0.026154315 -0.08203858 -0.043170862 0.023048189
00000000: f3b5 57bd ec2d 24bd c902 a83c 90b0 193d
00000010: fc35 52bc b4c0 4dbd b5e1 46bd 2041 0e3d
00000020: 1f58 ae3c c670 71bc b976 89bc 31a0 b3bc
00000030: 0f9f b3bd c194 013b cb18 9f3c 784f 21bc
00000040: 4f6d b63b 192e 3e3c ff9b f3bc 551b 103d
00000050: 369c d9bc 699c 183c 8fb4 f83c 9f1d c7bc
00000060: 79e7 e63c d7b8 2e3a 004c c7bc 98b4 b83c
00000070: b59b 1d3c 260e cebc 8c35 01bd f49c 45bd
00000080: 5a05 c63c dd0d 263d 1378 f9bd e82c 1e3d
00000090: 080a 843d 0eea 433b 1fa7 89bc 97db 2abd
000000a0: 44e7 d8bb 8626 5dbd 148b c33b 08ec 70bd
000000b0: 3338 aabc 7d75 903b 0598 d23b 3ed2 14ba
000000c0: 9261 4fbd ed43 133d 9b7b 2f3d c8e4 7dba
000000d0: 9f9f dfbc dc5f b0bc 1f18 503b 8d0e ebb9
000000e0: a201 2c3c 9c2f 793d 2f58 5cbd 4dda 82bd
000000f0: 0485 443d 6c28 963b 0cb3 dabc 30c5 36bc
00000100: 62d8 663c dcae 6fbb a9bc 95ba 13a7 943d
00000110: 159d 24bc 3757 0b3d 4072 833c e175 9c3d
00000120: 6eb4 103d 3b87 91bd 1a9d 77bc b124 08bd
00000130: 0b55 c63c b4d5 9b3d 2e32 6cbc eb30 87bd
00000140: ff45 673d 4422 1e3d 13f3 c6bc e09d 093d
00000150: 1bf5 2b3d 5136 27bd a1eb 88bd eb60 28bb
00000160: db0c 91bc 4cbc 2e3c 9b00 36bc 00b8 b83c
00000170: 11c5 9dbc 0260 e33c 9fa5 5c3d f422 a2bd
00000180: fee7 053d 48a1 333d fb7a c5bb da7a d43a
00000190: a949 7cba f85b 043c 01f1 5d3b 2982 eebc
000001a0: 5bb5 fe3c dad1 9e3c 12f5 353c d16c 83bc
000001b0: cc26 c5bc 7f25 9fb8 e1c5 783d 5ade e4bc
000001c0: 7a5c a4bc ea92 753d 6286 0e3d 54d1 8dbd
000001d0: 53b8 c3bc 50f2 84bc 5597 52bd bfa7 0bbd
000001e0: 6983 4c3c fb81 45bd 9b15 84bc a3af 9abb
000001f0: 3955 9c3c 03f4 0abd 38b5 bb3c 52b2 3c3d
00000200: be40 1dbc 728b aebc baaf 103c e27a 123c
00000210: 1574 db3c 36cf 173d 2e2e 5f3d e323 46bd
00000220: e343 35bc 8bb4 eabc 37d5 36bc fe0a c83c
00000230: 21cc 1e3d 201f 283d 3e40 29bc d52c f23c
00000240: 3ade 8bba 366e a7bc 6ae1 483d 6b71 853c
00000250: 2147 1fbc ffbd 973c 0d76 a2bc 55b4 8fbd
00000260: 2c6e 0f3d a2fc 1ebb ac0f 2d3d a687 e2bb
00000270: 14c7 dbbc 7bb2 f03b 5a69 7a3d b73a 4dbd
00000280: 3ef9 5b3b 648c 3c3d 77ee 1dbb 9d4b 00bd
00000290: f2c6 29bc 8577 733d 3868 643b 4aeb fdbc
000002a0: 2262 40bc 133b afbc 1a9d f5bc f1cf 15bd
000002b0: 686f 02bd 6d13 31bc a696 d43c 407d bd3b
000002c0: 1fc0 633c 4801 933b c393 adbc 4929 c83c
000002d0: 1540 d43c 1d68 35bc a7cd d23c e3ba eabc
000002e0: 48c6 babc 3c4b 913b f6c9 d93c e6a4 033d
000002f0: 3898 2e3b 6c3d 513d e666 2fbd 8836 083d
00000300: ba34 b83d 3cdd cebd a1d2 76bd 3735 a2bc
00000310: ff15 7ebc e119 d43c eb84 b7bc c510 b3bc
00000320: ec8d 92bc 5684 f2bc 0d8a 0b3d 87b7 973c
00000330: 5ee9 55bd 702f 0ebd c6a2 5b3d 1b6c e2bd
00000340: f11d 6ebd 5d14 1e3c 6e39 953c 1f1d a7bc
00000350: 3306 833b 63f4 8dbc 4088 afbc ddf7 5bba
00000360: 2fbe 3b3d 0b34 80bd e3c3 fb3c 9227 da3a
00000370: d45f 943d 3463 a23c 229f 6bbc 2364 6f3c
00000380: f1e7 f6bc 136b 53bc 067d 3a3d 5136 9e3b
00000390: 502f b5bc 3c27 233b c61e 173d 4f6a 813d
000003a0: e348 8dbd 7e0c 07bd cbe2 42bd 3d25 bcbd
000003b0: 12e7 62bc 5fd3 c0bd e5b9 3cbc 1574 c0bd
000003c0: 19ba 67ba 0d6c 573b 5cf8 3f3d 1571 063d
000003d0: 20da 5ebc 24ed c1bc a4b5 e9bb d856 9d3c
000003e0: 084f 0a3d 812f 9ebc be00 093c 93c2 72bc
000003f0: 9341 d63c d803 a8bd eed3 30bd 8ecf bc3c

res1.0.conv1.pointwise.weight f4 [128, 128, 1, 1]
0.20300627 -0.1430027 -0.15105894 0.045607384 0.12480057 -0.08580248 -0.16385083 -0.03746622
0.015167324 -0.0038512365 0.19664082 -0.013655655 0.031117296 -0.103154525 -0.056126945 -0.17281412
-0.0085800765 -0.04785849 0.13255852 -0.06833126 -0.21528578 -0.01639045 0.031790733 -0.22064209
-0.044568922 -0.08739192 -0.07147039 0.07946569 -0.052056886 0.22520319 0.038799666 -0.09290314
-0.03468509 0.080491886 -0.12011544 -0.062703565 -0.17568997 0.06354813 0.08598114 -0.093818985
0.19702522 0.2801901 0.061695576 -0.008378867 -0.01496813 0.07094075 -0.16033928 0.066820286
-0.044704847 0.043294884 0.05272988 0.0304113 0.030969853 -0.11218318 -0.08525851 -0.03216123
0.0025628812 0.11418054 -0.12641864 0.071654655 -0.19853431 -0.09425313 0.14185587 -0.10649643
0.13148893 -0.028909165 0.17336175 -0.10358178 0.19338943 0.04012863 0.100511506 -0.09692858
0.16904904 -0.10256852 -0.2595838 -0.03667187 0.073743455 -0.33766264 0.048844058 0.10073227
0.086779915 -0.046110388 -0.20917985 -0.0772005 0.16745593 -0.12451223 0.036977503 -0.08595319
0.026524963 0.021936022 -0.02812857 0.020810865 -0.11711568 -0.053634856 -0.13463457 0.091609284
0.13912119 -0.03931434 0.14115614 -0.13346043 0.14770488 0.032611463 -0.1375167 -0.052742667
0.09337922 -0.053769294 -0.010963887 0.03530643 0.012468184 -0.029322708 -0.10218362 0.13535191
0.025365993 -0.010369645 -0.12681392 -0.10463915 0.12028245 -0.27568096 -0.08028204 0.0035738426
-0.08921566 -0.23042384 -0.028039083 0.13679372 -0.20365457 -0.06300835 0.12348222 0.0678198
-0.016515154 0.104872234 -0.023098804 -0.039196953 0.114186354 -0.09846655 0.04152006 0.060191702
-0.20595342 0.04505653 0.031952504 0.04999802 0.09665598 -0.089354225 -0.023304647 0.034563337
-0.1220961 -0.15790755 -0.046316344 0.14576805 0.09170564 -0.010628605 0.1573257 0.009642619
0.08691443 -0.10774256 0.24581815 -0.0294528 -0.070681825 0.020882782 -0.13744268 -0.106264755
0.045261078 -0.27847826 0.05674557 -0.012994511 -0.09915718 0.07152843 0.13100858 0.15400086
-0.19237633 0.06333247 -0.074790284 -0.010918527 -0.06443055 -0.008017087 -0.112749875 -0.07357345
0.046023067 -0.018869987 0.030501006 -0.20734207 0.018546406 0.055062633 -0.19969314 0.15120523
0.19721685 0.014240987 0.02635373 0.17171994 -0.06716082 0.30169207 0.011747369 0.11756023
0.1343122 0.08278999 0.12632528 -0.16185704 -0.061696224 0.01406767 -0.07405915 0.013434763
-0.12045629 -0.1355683 0.09217996 0.09314612 0.093915895 0.02064798 -0.07100937 0.11167608
-0.03386477 0.15453981 -0.086051635 0.15351577 -0.18171038 -0.28839603 -0.13922048 -0.0069397725
0.13669054 0.062556 0.020869333 0.015863514 0.14861202 0.16176759 -0.099493705 0.106633425
-0.0062227915 0.034948457 -0.13052365 -0.09692206 0.07625079 -0.064695455 0.08690509 0.046204336
0.07225468 0.05384885 -0.10283285 0.05691872 0.13473688 -0.15611945 -0.2711233 0.056201488
-0.015761465 -0.12904684 0.025610097 -0.059129875 0.05442811 -0.20030807 -0.08246798 -0.016096031
0.07953218 -0.02860403 -0.08646738 -0.072265424 0.035448894 -0.019046726 0.05851598 -0.14289829
00000000: e0e0 4f3e 4d6f 12be 32af 1abe cfce 3a3d
00000010: 7197 ff3d 36b9 afbd 83c8 27be 2e76 19bd
00000020: 5e80 783c 0765 7cbb 365c 493e f8bb 5fbc
00000030: b3e9 fe3c ae42 d3bd 5ee5 65bd 2ff6 30be
00000040: 7393 0cbc 4407 44bd 6cbd 073e 42f1 8bbd
00000050: e073 5cbe 4445 86bc 0037 023d 00f0 61be
00000060: e78d 36bd 89fa b2bd 115f 92bd e8be a23d
00000070: 9a39 55bd aa9b 663e 66ec 1e3d 0044 bebd
00000080: f411 0ebd eed8 a43d 15ff f5bd ba6a 80bd
00000090: 12e8 33be 8625 823d e116 b03d 2b24 c0bd
000000a0: fbc0 493e 1475 8f3e 80b4 7c3d 8447 09bc
000000b0: e33c 75bc 6249 913d fb2f 24be 13d9 883d
000000c0: 6e1c 37bd fa55 313d 49fb 573d 1e21 f93c
000000d0: 7db4 fd3c 4cc0 e5bd 049c aebd 7ebb 03bd
000000e0: 03f6 273b 7dd7 e93d e373 01be adbf 923d
000000f0: 944c 4bbe c907 c1bd aa42 113e cd1a dabd
00000100: 09a5 063e ead2 ecbc be85 313e af22 d4bd
00000110: e107 463e eb5d 243d fad8 cd3d 7e82 c6bd
00000120: 311b 2d3e 720f d2bd 2be8 84be 3e35 16bd
00000130: cf06 973d 1ee2 acbe b510 483d b84c ce3d
00000140: abb9 b13d 3fde 3cbd 3e33 56be 4c1b 9ebd
00000150: 9179 2b3e 4500 ffbd b975 173d 3a08 b0bd
00000160: e14a d93c 2cb3 b33c e36d e6bc 8c7b aa3c
00000170: 58da efbd 39b0 5bbd a5dd 09be a69d bb3d
00000180: c975 0e3e 1308 21bd 3c8b 103e daa9 08be
00000190: f33f 173e 9993 053d 2ed1 0cbe b208 58bd
000001a0: 9b3d bf3d 313d 5cbd e0a1 33bc 7a9d 103d
000001b0: 5b47 4c3c 2d36 f0bc a545 d1bd b199 0a3e
000001c0: 58cc cf3c 72e5 29bc 82db 01be 0d4d d6bd
000001d0: a556 f63d 0e26 8dbe e96a a4bd 2137 6a3b
000001e0: b3b6 b6bd 3af4 6bbe 38b2 e5bc a713 0c3e
000001f0: d38a 50be 860a 81bd 3fe4 fc3d 1be5 8a3d
00000200: ca4a 87bc 41c7 d63d b439 bdbc fc8c 20bd
00000210: 89da e93d d5a8 c9bd f010 2a3d 938b 763d
00000220: 74e5 52be 328d 383d a1e0 023d b9ca 4c3d
00000230: 92f3 c53d 59ff b6bd 63e9 bebc 4992 0d3d
00000240: 850d fabd 84b2 21be 35b6 3dbd 3844 153e
00000250: 2bd0 bb3d 9a23 2ebc fd19 213e 13fc 1d3c
00000260: 3100 b23d 22a8 dcbd c1b7 7b3e 0047 f1bc
00000270: a2c1 90bd 5e12 ab3c c6bd 0cbe 56a1 d9bd
00000280: ae63 393d b494 8ebe 0b6e 683d eee6 54bc
00000290: eb12 cbbd 7f7d 923d 1d27 063e 67b2 1d3e
000002a0: 4dfe 44be 74b4 813d a62b 99bd 9fe3 32bc
000002b0: 2af4 83bd 1a5a 03bc 68e9 e6bd adad 96bd
000002c0: af82 3c3d 3b95 9abc 3fdd f93c 7b51 54be
000002d0: a2ee 973c 5b89 613d 5c7c 4cbe 8bd5 1a3e
000002e0: 37f3 493e 0753 693c c7e3 d73c 5ad7 2f3e
000002f0: 9d8b 89bd 6277 9a3e 0978 403c 6bc3 f03d
00000300: 2389 093e cc8d a93d 6a5b 013e dabd 25be
00000310: 2eb5 7cbd 167c 663c 53ac 97bd 7b1d 5c3c
00000320: cab1 f6bd 6bd2 0abe d9c8 bc3d 65c3 be3d
00000330: fa56 c03d f425 a93c 5c6d 91bd 6eb6 e43d
00000340: c9b5 0abd af3f 1e3e d73b b0bd 3d33 1d3e
00000350: 4912 3abe a5a8 93be d08f 0ebe 0867 e3bb
00000360: 9bf8 0b3e 5c1d 803d 2af6 aa3c 33f4 813c
00000370: c02d 183e 67a6 253e 5bc3 cbbd a062 da3d
00000380: 8fe8 cbbb 1d26 0f3d fea7 05be 137f c6bd
00000390: 6029 9c3d 0d7f 84bd 4cfb b13d c240 3d3d
000003a0: 43fa 933d 9d90 5c3d 079a d2bd 9b23 693d
000003b0: 77f8 093e c7dd 1fbe acd0 8abe 8833 663d
000003c0: 301e 81bc db24 04be 44cc d13c 2b32 72bd
000003d0: 03f0 5e3d 8f1d 4dbe f9e4 a8bd d3db 83bc
000003e0: c5e1 a23d 0053 eabc cf15 b1bd e5ff 93bd
000003f0: dc32 113d e107 9cbc 74ae 6f3d ee53 12be

res1.0.conv1.pointwise.bias f4 [128]
0.0 0.0 0.0 0.0 0.0 0.0 0.0 0.0
0.0 0.0 0.0 0.0 0.0 0.0 0.0 0.0
0.0 0.0 0.0 0.0 0.0 0.0 0.0 0.0
0.0 0.0 0.0 0.0 0.0 0.0 0.0 0.0
0.0 0.0 0.0 0.0 0.0 0.0 0.0 0.0
0.0 0.0 0.0 0.0 0.0 0.0 0.0 0.0
0.0 0.0 0.0 0.0 0.0 0.0 0.0 0.0
0.0 0.0 0.0 0.0 0.0 0.0 0.0 0.0
0.0 0.0 0.0 0.0 0.0 0.0 0.0 0.0
0.0 0.0 0.0 0.0 0.0 0.0 0.0 0.0
0.0 0.0 0.0 0.0 0.0 0.0 0.0 0.0
0.0 0.0 0.0 0.0 0.0 0.0 0.0 0.0
0.0 0.0 0.0 0.0 0.0 0.0 0.0 0.0
0.0 0.0 0.0 0.0 0.0 0.0 0.0 0.0
0.0 0.0 0.0 0.0 0.0 0.0 0.0 0.0
0.0 0.0 0.0 0.0 0.0 0.0 0.0 0.0
00000000: 0000 0000 0000 0000 0000 0000 0000 0000
00000010: 0000 0000 0000 0000 0000 0000 0000 0000
00000020: 0000 0000 0000 0000 0000 0000 0000 0000
00000030: 0000 0000 0000 0000 0000 0000 0000 0000
00000040: 0000 0000 0000 0000 0000 0000 0000 0000
00000050: 0000 0000 0000 0000 0000 0000 0000 0000
00000060: 0000 0000 0000 0000 0000 0000 0000 0000
00000070: 0000 0000 0000 0000 0000 0000 0000 0000
00000080: 0000 0000 0000 0000 0000 0000 0000 0000
00000090: 0000 0000 0000 0000 0000 0000 0000 0000
000000a0: 0000 0000 0000 0000 0000 0000 0000 0000
000000b0: 0000 0000 0000 0000 0000 0000 0000 0000
000000c0: 0000 0000 0000 0000 0000 0000 0000 0000
000000d0: 0000 0000 0000 0000 0000 0000 0000 0000
000000e0: 0000 0000 0000 0000 0000 0000 0000 0000
000000f0: 0000 0000 0000 0000 0000 0000 0000 0000
00000100: 0000 0000 0000 0000 0000 0000 0000 0000
00000110: 0000 0000 0000 0000 0000 0000 0000 0000
00000120: 0000 0000 0000 0000 0000 0000 0000 0000
00000130: 0000 0000 0000 0000 0000 0000 0000 0000
00000140: 0000 0000 0000 0000 0000 0000 0000 0000
00000150: 0000 0000 0000 0000 0000 0000 0000 0000
00000160: 0000 0000 0000 0000 0000 0000 0000 0000
00000170: 0000 0000 0000 0000 0000 0000 0000 0000
00000180: 0000 0000 0000 0000 0000 0000 0000 0000
00000190: 0000 0000 0000 0000 0000 0000 0000 0000
000001a0: 0000 0000 0000 0000 0000 0000 0000 0000
000001b0: 0000 0000 0000 0000 0000 0000 0000 0000
000001c0: 0000 0000 0000 0000 0000 0000 0000 0000
000001d0: 0000 0000 0000 0000 0000 0000 0000 0000
000001e0: 0000 0000 0000 0000 0000 0000 0000 0000
000001f0: 0000 0000 0000 0000 0000 0000 0000 0000

res1.0.bn1.weight f4 [128]
0.0 0.0 0.0 0.0 0.0 0.0 0.0 0.0
0.0 0.0 0.0 0.0 0.0 0.0 0.0 0.0
0.0 0.0 0.0 0.0 0.0 0.0 0.0 0.0
0.0 0.0 0.0 0.0 0.0 0.0 0.0 0.0
0.0 0.0 0.0 0.0 0.0 0.0 0.0 0.0
0.0 0.0 0.0 0.0 0.0 0.0 0.0 0.0
0.0 0.0 0.0 0.0 0.0 0.0 0.0 0.0
0.0 0.0 0.0 0.0 0.0 0.0 0.0 0.0
0.0 0.0 0.0 0.0 0.0 0.0 0.0 0.0
0.0 0.0 0.0 0.0 0.0 0.0 0.0 0.0
0.0 0.0 0.0 0.0 0.0 0.0 0.0 0.0
0.0 0.0 0.0 0.0 0.0 0.0 0.0 0.0
0.0 0.0 0.0 0.0 0.0 0.0 0.0 0.0
0.0 0.0 0.0 0.0 0.0 0.0 0.0 0.0
0.0 0.0 0.0 0.0 0.0 0.0 0.0 0.0
0.0 0.0 0.0 0.0 0.0 0.0 0.0 0.0
00000000: 0000 0000 0000 0000 0000 0000 0000 0000
00000010: 0000 0000 0000 0000 0000 0000 0000 0000
00000020: 0000 0000 0000 0000 0000 0000 0000 0000
00000030: 0000 0000 0000 0000 0000 0000 0000 0000
00000040: 0000 0000 0000 0000 0000 0000 0000 0000
00000050: 0000 0000 0000 0000 0000 0000 0000 0000
00000060: 0000 0000 0000 0000 0000 0000 0000 0000
00000070: 0000 0000 0000 0000 0000 0000 0000 0000
00000080: 0000 0000 0000 0000 0000 0000 0000 0000
00000090: 0000 0000 0000 0000 0000 0000 0000 0000
000000a0: 0000 0000 0000 0000 0000 0000 0000 0000
000000b0: 0000 0000 0000 0000 0000 0000 0000 0000
000000c0: 0000 0000 0000 0000 0000 0000 0000 0000
000000d0: 0000 0000 0000 0000 0000 0000 0000 0000
000000e0: 0000 0000 0000 0000 0000 0000 0000 0000
000000f0: 0000 0000 0000 0000 0000 0000 0000 0000
00000100: 0000 0000 0000 0000 0000 0000 0000 0000
00000110: 0000 0000 0000 0000 0000 0000 0000 0000
00000120: 0000 0000 0000 0000 0000 0000 0000 0000
00000130: 0000 0000 0000 0000 0000 0000 0000 0000
00000140: 0000 0000 0000 0000 0000 0000 0000 0000
00000150: 0000 0000 0000 0000 0000 0000 0000 0000
00000160: 0000 0000 0000 0000 0000 0000 0000 0000
00000170: 0000 0000 0000 0000 0000 0000 0000 0000
00000180: 0000 0000 0000 0000 0000 0000 0000 0000
00000190: 0000 0000 0000 0000 0000 0000 0000 0000
000001a0: 0000 0000 0000 0000 0000 0000 0000 0000
000001b0: 0000 0000 0000 0000 0000 0000 0000 0000
000001c0: 0000 0000 0000 0000 0000 0000 0000 0000
000001d0: 0000 0000 0000 0000 0000 0000 0000 0000
000001e0: 0000 0000 0000 0000 0000 0000 0000 0000
000001f0: 0000 0000 0000 0000 0000 0000 0000 0000

res1.0.bn1.bias f4 [128]
0.0 0.0 0.0 0.0 0.0 0.0 0.0 0.0
0.0 0.0 0.0 0.0 0.0 0.0 0.0 0.0
0.0 0.0 0.0 0.0 0.0 0.0 0.0 0.0
0.0 0.0 0.0 0.0 0.0 0.0 0.0 0.0
0.0 0.0 0.0 0.0 0.0 0.0 0.0 0.0
0.0 0.0 0.0 0.0 0.0 0.0 0.0 0.0
0.0 0.0 0.0 0.0 0.0 0.0 0.0 0.0
0.0 0.0 0.0 0.0 0.0 0.0 0.0 0.0
0.0 0.0 0.0 0.0 0.0 0.0 0.0 0.0
0.0 0.0 0.0 0.0 0.0 0.0 0.0 0.0
0.0 0.0 0.0 0.0 0.0 0.0 0.0 0.0
0.0 0.0 0.0 0.0 0.0 0.0 0.0 0.0
0.0 0.0 0.0 0.0 0.0 0.0 0.0 0.0
0.0 0.0 0.0 0.0 0.0 0.0 0.0 0.0
0.0 0.0 0.0 0.0 0.0 0.0 0.0 0.0
0.0 0.0 0.0 0.0 0.0 0.0 0.0 0.0
00000000: 0000 0000 0000 0000 0000 0000 0000 0000
00000010: 0000 0000 0000 0000 0000 0000 0000 0000
00000020: 0000 0000 0000 0000 0000 0000 0000 0000
00000030: 0000 0000 0000 0000 0000 0000 0000 0000
00000040: 0000 0000 0000 0000 0000 0000 0000 0000
00000050: 0000 0000 0000 0000 0000 0000 0000 0000
00000060: 0000 0000 0000 0000 0000 0000 0000 0000
00000070: 0000 0000 0000 0000 0000 0000 0000 0000
00000080: 0000 0000 0000 0000 0000 0000 0000 0000
00000090: 0000 0000 0000 0000 0000 0000 0000 0000
000000a0: 0000 0000 0000 0000 0000 0000 0000 0000
000000b0: 0000 0000 0000 0000 0000 0000 0000 0000
000000c0: 0000 0000 0000 0000 0000 0000 0000 0000
000000d0: 0000 0000 0000 0000 0000 0000 0000 0000
000000e0: 0000 0000 0000 0000 0000 0000 0000 0000
000000f0: 0000 0000 0000 0000 0000 0000 0000 0000
00000100: 0000 0000 0000 0000 0000 0000 0000 0000
00000110: 0000 0000 0000 0000 0000 0000 0000 0000
00000120: 0000 0000 0000 0000 0000 0000 0000 0000
00000130: 0000 0000 0000 0000 0000 0000 0000 0000
00000140: 0000 0000 0000 0000 0000 0000 0000 0000
00000150: 0000 0000 0000 0000 0000 0000 0000 0000
00000160: 0000 0000 0000 0000 0000 0000 0000 0000
00000170: 0000 0000 0000 0000 0000 0000 0000 0000
00000180: 0000 0000 0000 0000 0000 0000 0000 0000
00000190: 0000 0000 0000 0000 0000 0000 0000 0000
000001a0: 0000 0000 0000 0000 0000 0000 0000 0000
000001b0: 0000 0000 0000 0000 0000 0000 0000 0000
000001c0: 0000 0000 0000 0000 0000 0000 0000 0000
000001d0: 0000 0000 0000 0000 0000 0000 0000 0000
000001e0: 0000 0000 0000 0000 0000 0000 0000 0000
000001f0: 0000 0000 0000 0000 0000 0000 0000 0000

res1.0.bn1.running_mean f4 [128]
0.015540348 0.003966405 0.0076421136 0.07577731 -0.028178265 0.0005372666 -0.024283627 0.015752766
0.016532833 -0.038487647 0.0021683385 -0.008656378 -0.013376563 0.012638984 -0.020290181 0.019188458
0.0035515889 -0.014225622 -0.03474482 -0.0058651804 0.018033866 -0.031287543 0.011786627 -0.0074863792
-0.028070148 0.019238597 0.006281407 -0.022433914 0.029364865 0.0036046845 0.008556773 0.0021159379
0.0045914385 0.009754343 0.0019425969 -0.007832205 0.035083838 0.02979563 -0.0059596854 0.009570829
0.002502989 0.0156029 -0.0077716163 0.023963334 0.01253386 0.0136656305 -0.009773299 0.0028950614
-0.014651618 -0.026223855 -0.018276693 0.03052282 -0.019591156 -0.01890153 0.01427975 0.021697117
-0.020221397 -0.0012848433 0.008565244 3.7554204e-05 0.025786148 0.037360094 -0.012104266 0.0076571
0.0049134186 -0.025631694 0.009352207 -0.0020587526 -0.023935096 -0.028064387 -0.0015239936 -0.011626952
-0.0066167265 0.01241649 0.007133942 -0.020840643 0.0031815798 0.00038531952 -0.021431256 -0.02054015
0.01817336 -0.022317244 0.017808272 -0.009214074 -0.008257338 0.03271767 -0.004136801 0.02850692
0.034538314 -0.031608336 -0.02201245 0.015336015 -0.013217887 -0.029584616 0.0025395693 -0.016586442
0.0013513174 -0.026703542 -0.0014628859 -0.01381363 -0.012236098 -0.016839175 0.0019340073 0.0068508275
-0.024994362 -0.043685697 -0.0061363555 -0.011695159 -0.010357998 -0.027490107 0.0115357 0.006307075
0.0053191823 0.025231214 -0.05078515 -0.00899653 0.0078290235 0.01844725 -0.01332579 -0.0017990523
0.029861303 0.031235568 -0.012433652 0.009604867 -0.014181922 0.016172329 -0.026162641 -0.004250888
00000000: f29c 7e3c 9ef8 813b b26a fa3b 2231 9b3d
00000010: 1bd6 e6bc 5ad7 0c3a 75ee c6bc f20b 813c
00000020: dd6f 873c 39a5 1dbd af1a 0e3b 7bd3 0dbc
00000030: 5f29 5bbc be13 4f3c 9837 a6bc 1d31 9d3c
00000040: c6c1 683b 9512 69bc 9650 0ebd b330 c0bb
00000050: c2bb 933c 5e27 00bd b21c 413c 4d50 f5bb
00000060: 5ef3 e5bc 439a 9d3c 43d4 cd3b 54c7 b7bc
00000070: 968e f03c 923c 6c3b b531 0c3c 8cab 0a3b
00000080: c773 963b aed0 1f3c bc9e fe3a a652 00bc
00000090: 12b4 0f3d f715 f43c 7749 c3bb f7ce 1c3c
000000a0: 3009 243b 4ea3 7f3c 0ba9 febb c14e c43c
000000b0: d25a 4d3c cfe5 5f3c 3020 20bc 12bb 3d3b
000000c0: 570d 70bc 69d3 d6bc 01b9 95bc fe0a fa3c
000000d0: a27d a0bc 62d7 9abc 9df5 693c 27be b13c
000000e0: 58a7 a5bc 3068 a8ba 3d55 0c3c 8583 1d38
000000f0: 793d d33c e606 193d f950 46bc 69e8 fa3b
00000100: be00 a13b 8ff9 d1bc 003a 193c 23ec 06bb
00000110: 8913 c4bc 49e7 e5bc bdc0 c7ba f97e 3ebc
00000120: 20d1 d8bb 896e 4b3c d8c3 e93b ffb9 aabc
00000130: 0d82 503b b604 ca39 9a90 afbc d143 a8bc
00000140: 4ce0 943c a7d2 b6bc a7e2 913c a1f6 16bc
00000150: c949 07bc f702 063d 018e 87bb 5887 e93c
00000160: 0c78 0d3d be77 01bd 7453 b4bc e943 7b3c
00000170: d68f 58bc 705b f2bc e76e 263b 4ae0 87bc
00000180: b01e b13a 63c1 dabc 4ebe bfba 9052 62bc
00000190: ea79 48bc 4ff2 89bc 847e fd3a e87c e03b
000001a0: fac0 ccbc c6ef 32bd 7b13 c9bb 0d9d 3fbc
000001b0: 98b4 29bc ef32 e1bc 3c00 3d3c 94ab ce3b
000001c0: 894c ae3b b1b1 ce3c 1704 50bd 2f66 13bc
000001d0: 4e45 003c b01e 973c 6a54 5abc 2ece ebba
000001e0: b19f f43c bce1 ff3c 84b6 4bbc bb5d 1d3c
000001f0: 4b5b 68bc d57b 843c 0953 d6bc 084b 8bbb

res1.0.bn1.running_var f4 [128]
0.00086116744 0.0008280724 0.00065718644 0.000593475 0.00055961433 0.00035291942 0.0003085975 0.00066216436
0.00049365096 0.0009330574 0.00057648757 0.0007306927 0.00040820352 0.0005620307 0.00052679656 0.0005378765
0.00065863377 0.00075215555 0.00044283914 0.00084530376 0.0005787035 0.00066070654 0.0005656877 0.00056004414
0.0005661413 0.0007106318 0.00038993836 0.0012692454 0.00051109906 0.00071745965 0.00045890943 0.0007015153
0.0006479661 0.00043952937 0.00024085055 0.0010589304 0.0006583809 0.0008378992 0.00040175096 0.00044204248
0.00035696165 0.000692849 0.0004362984 0.0004912301 0.0023992558 0.0010615694 0.0012242843 0.0011457589
0.00040300578 0.0005590812 0.00044310896 0.0006547621 0.00041177566 0.0011327136 0.00053221296 0.00036131035
0.0005292371 0.0004565968 0.00039885935 0.00033133174 0.00048476062 0.00031729782 0.00032172957 0.000631792
0.00036740338 0.0007392104 0.0006422825 0.0006641183 0.0009391337 0.00023382773 0.0008178705 0.00036713877
0.00074603484 0.00031832882 0.00033561178 0.00024823763 0.00033839518 0.00031632185 0.00034588954 0.00059214054
0.00041798878 0.0006226709 0.00057652296 0.0006283987 0.0011017718 0.00092785514 0.0006451211 0.0005478932
0.00082707446 0.00044817833 0.00074592844 0.00024758428 0.00061388867 0.0003471634 0.00043138707 0.00068706094
0.00040581558 0.00037981564 0.00089972024 0.00030164115 0.0004280318 0.0012605272 0.0009695462 0.0004415171
0.0019806842 0.00044541634 0.00051465025 0.00043706613 0.0005553509 0.00042802104 0.00036907164 0.00029182233
0.000646225 0.0005258673 0.0008889714 0.00025697768 0.00043225882 0.00028683935 0.0003574223 0.00026569684
0.00081168424 0.0003499556 0.0006516151 0.00039391412 0.00044380763 0.0004721717 0.00054266746 0.00047868612
00000000: f8bf 613a 0013 593a 0947 2c3a 6f93 1b3a
00000010: 15b3 123a 0b08 b939 41cb a139 1995 2d3a
00000020: 5b68 013a 6c98 743a 6d1f 173a f58b 3f3a
00000030: 2604 d639 3e55 133a b818 0a3a 4800 0d3a
00000040: 2aa8 2c3a 4e2c 453a dd2c e839 6097 5d3a
00000050: 22b4 173a 4433 2d3a a94a 143a edcf 123a
00000060: 1969 143a b149 3a3a a470 cc39 cf5c a63a
00000070: 47fb 053a e713 3c3a c899 f039 e5e5 373a
00000080: 45dc 293a a270 e639 d48c 7c39 cfcb 8a3a
00000090: 3297 2c3a 77a6 5b3a 1aa2 d239 f0c1 e739
000000a0: 9526 bb39 4fa0 353a fbbe e439 e5c5 003a
000000b0: d53c 1d3b 5c24 8b3a 2a78 a03a 4a2d 963a
000000c0: 854a d339 4e8f 123a 1451 e839 57a4 2b3a
000000d0: 98e3 d739 9077 943a 3584 0b3a 416e bd39
000000e0: 80bc 0a3a 6363 ef39 ff1d d139 98b6 ad39
000000f0: 7827 fe39 fe5a a639 d0ad a839 d89e 253a
00000100: 0ca0 c039 92c7 413a d95e 283a 3a18 2e3a
00000110: 3230 763a a72f 7539 5c66 563a 887c c039
00000120: 8d91 433a 5fe5 a639 0df5 af39 e425 8239
00000130: a26a b139 00d8 a539 8258 b539 e139 1b3a
00000140: 8125 db39 bd3a 233a cd21 173a 1fbb 243a
00000150: 5469 903a 4e3b 733a 581d 293a 7ea0 0f3a
00000160: 07d0 583a 7af9 ea39 698a 433a 33ce 8139
00000170: 5fed 203a 7c03 b639 cb2b e239 e11b 343a
00000180: a5c3 d439 fe21 c739 34db 6b3a 9725 9e39
00000190: 7569 e039 4638 a53a 2529 7e3a 6c7b e739
000001a0: 5ece 013b c586 e939 98e9 063a 0626 e539
000001b0: f894 113a 0368 e039 f57f c139 bbff 9839
000001c0: 6d67 293a 5bda 093a dc09 693a f6ba 8639
000001d0: cca0 e239 ed62 9639 6964 bb39 3a4d 8b39
000001e0: 35c7 543a 3f7a b739 26d1 2a3a 4286 ce39
000001f0: daae e839 d08d f739 cc41 0e3a 2af8 fa39
